CatRecognition2/report/training_logs/ModelA/model.pth (torch, 462274 bytes, 24 tensors)

encoder.0.0.weight f4 [64, 3, 3, 3]
000000 99 4c 2e 3e 04 0e a8 3d f4 31 07 3e 19 ab 3f 3e
       0.17021407 0.08205798 0.1320265 0.18717612
000010 98 26 fa bd dd ff 79 bd 50 ed d5 3d 01 97 81 bc
       -0.122143924 -0.061035026 0.104456544 -0.015819075
000020 0e 58 81 3d 0d 07 0d 3e 7e 11 2e bd 03 26 0a 3e
       0.06315623 0.13772221 -0.04249715 0.13491063
000030 cb 7c 38 3c bb 63 3a be 30 f1 e4 3d 16 fb 01 bd
       0.011260222 -0.18202107 0.11178815 -0.031733595
000040 6c f2 4c bd 66 78 05 3e 26 e4 03 bc 80 df bb bd
       -0.05003588 0.1303421 -0.00805 -0.091734886
000050 c5 9e 11 be 2e 87 a8 bd 25 d8 34 bd d1 47 d5 bd
       -0.14220722 -0.082289085 -0.044151444 -0.104140885
000060 db d0 2a bd 0b b0 03 3e 96 e2 dc bd e0 e0 9d 3d
       -0.041703086 0.12860124 -0.10785405 0.07708907
000070 03 0e cf 3c 35 ef 81 bd 0b 2e 01 3e 12 68 3d 3e
       0.025275236 -0.06344453 0.1261522 0.18496731
000080 ab ec b7 3d f2 ff c7 3d cf 3a 07 be 1d 60 12 3e
       0.08980688 0.097656146 -0.13206027 0.14294477
000090 6a b3 22 3e 1f 1e f2 ba 80 02 a8 bd c3 dd db bd
       0.15888754 -0.0018472112 -0.08203602 -0.10735657
0000a0 f8 46 90 bd f5 88 29 bd c9 a3 41 3e dd 9e ee bd
       -0.07044786 -0.041390378 0.18910135 -0.116513945
0000b0 52 10 26 3d 9a 94 9f bd 9c 67 4e bd a0 73 1c 3e
       0.040542908 -0.077920154 -0.05039178 0.15278482
0000c0 0d 1c 70 bd f2 ae a9 3d b2 90 3f 3e 78 ab 2c 3d
       -0.0586205 0.08285321 0.1870754 0.042155713
0000d0 af 64 d1 bd 71 96 0b bd 92 4d 91 3d 93 3b 16 bd
       -0.10224282 -0.03407902 0.070948735 -0.03667791
0000e0 fb 4a 46 3d 17 f2 06 be 60 77 12 3c 7d e3 28 3e
       0.04841135 -0.13178287 0.008939594 0.1649303
0000f0 27 0b 26 be b4 2f d9 bd 27 e4 2e bd 94 d8 67 bd
       -0.16215192 -0.10604802 -0.04269805 -0.05660303
000100 78 d8 ef bc 02 b0 5a bd 3b 64 50 3d 51 6a f4 3d
       -0.029278025 -0.05339051 0.050876837 0.11934341
000110 34 4f 0a 3e 86 f8 f0 3d 11 99 ca 3d 58 be 8f 3d
       0.13506776 0.11766152 0.09892476 0.07018727
000120 66 e3 d3 3d 5f 0f aa 3d 1d 18 0d be c6 d0 22 3d
       0.10346107 0.08303713 -0.1377873 0.039749883
000130 b7 b7 3b 3d bf 7e 7c bd 75 26 42 3d 70 cb c0 3b
       0.0458295 -0.061644312 0.047399957 0.0058836266
000140 6d d5 08 3e 0b 80 ef 3d bd 53 e1 3d d1 fc e9 bc
       0.13362665 0.11694344 0.110023 -0.028562935
000150 fa 23 0c bd 2c c9 cc 3c 9e bd 89 bd 98 98 f2 3d
       -0.034213997 0.02499827 -0.0672562 0.11845511
000160 d7 b8 b8 bd e1 e7 b1 3c 62 c9 ed 3d 52 24 0d 3e
       -0.090196304 0.021717014 0.11610676 0.13783386
000170 cf 83 ff 3d 72 55 8a bd f4 59 12 bd f6 38 1c be
       0.12476312 -0.06754579 -0.035730317 -0.15256104
000180 ae 22 03 be 29 75 ff bd 02 a3 29 be de 9e fd bd
       -0.12806198 -0.124735184 -0.16566089 -0.12383817
000190 85 df 16 be 6a 17 96 bd b2 56 93 bd 16 8a db bd
       -0.14733703 -0.07328685 -0.0719427 -0.10719697
0001a0 a8 b3 c7 3d 4a 2a f7 bd c1 af 91 bd 56 3f 93 bd
       0.097510636 -0.12068613 -0.071136005 -0.07189815
0001b0 34 4a a4 bd 19 00 49 3d 34 19 2b be a7 78 09 bd
       -0.080219656 0.04907236 -0.16708833 -0.03356233
0001c0 14 96 88 bd 50 64 11 be 24 e0 97 bd 6b fa 9c bd
       -0.0666925 -0.14198422 -0.07415798 -0.07664951
0001d0 45 bf dc 3d 9b 06 69 bd 06 27 d8 bc 47 87 17 be
       0.10778669 -0.056891065 -0.026385795 -0.14797698
0001e0 96 87 12 bc 22 2e 3f 3e b8 37 9a 3d 67 e8 26 be
       -0.008943459 0.18669942 0.07530159 -0.16299592
0001f0 3a ab ae bc 2b c6 85 3c 56 8d 2c 3e 1e 71 d8 bc
       -0.021321882 0.016329845 0.1685079 -0.026421126
000200 8f 42 04 be 71 8d 1b be 42 17 cf bd 69 de 26 3e
       -0.12916015 -0.15190674 -0.10111858 0.1629578
000210 bd 9e 1d 3e 27 2a d0 bb 50 f3 1c be 12 44 ef bd
       0.15392585 -0.006352681 -0.15327191 -0.11682905
000220 46 18 af bd 2d 50 1e bd cb dd f2 bd 28 4f af 3c
       -0.08549552 -0.03865068 -0.1185871 0.02140005
000230 96 45 32 be 37 90 90 3d c9 95 86 bd b3 0e 55 bd
       -0.17409357 0.07058757 -0.06571538 -0.05201597
000240 b0 60 f2 3c ba b8 2e be 85 f5 15 3e 9a 13 17 be
       0.02958712 -0.17062655 0.1464444 -0.14753571
000250 79 98 fd 3c cd 1c 30 be cb 7e df bd db bd 2c be
       0.030956494 -0.17198487 -0.10912856 -0.16869299
000260 58 e6 ec 3d ce 98 17 3e 2c 65 16 bb ed 35 f1 bd
       0.11567372 0.14804384 -0.0022948487 -0.11777864
000270 4b 6d 21 3e 28 e0 09 3e c6 ee 13 3e 9b 68 4b 3d
       0.15764348 0.13464415 0.14446554 0.049660306
000280 ff d6 99 3d 96 b3 87 3d 0c 6c ef bd db 50 95 bc
       0.075117104 0.0662605 -0.1169053 -0.018227031
000290 89 38 5e 3d 60 ce f9 3c 9f c4 25 3d 25 db 35 be
       0.054253135 0.030493915 0.040470716 -0.17759378
0002a0 56 e8 d1 bd 2c d3 67 39 34 95 af 3d 10 ff dc 3d
       -0.10249393 0.00022108544 0.0857338 0.10790837
0002b0 4e 01 05 be b8 53 1b be e6 ad 18 3d f4 15 b9 bd
       -0.12988779 -0.15168655 0.037275217 -0.0903739
0002c0 70 66 bb bd 9b c6 32 bd b0 03 12 3e 77 3d 3e be
       -0.09150398 -0.043646436 0.14259219 -0.18578134
0002d0 f6 df 43 bb ba 7b 24 3e e9 b4 19 3d 29 a3 e5 bc
       -0.002988813 0.16062823 0.037526045 -0.028031902
0002e0 d3 3e 8e bd 91 5f 3f bd 1f d8 69 bd 89 76 07 be
       -0.069455765 -0.046722 -0.057090875 -0.13228811
0002f0 14 52 96 bd 1e f0 28 3e a5 7c e4 bc 98 ac 26 be
       -0.07339874 0.16497847 -0.027891466 -0.16276777
000300 9b 1f 4f 3c b1 47 15 be 76 24 3c 3e 51 a6 61 bd
       0.012641813 -0.1457813 0.18373284 -0.055090252
000310 19 9e 36 be e7 0a ac bd 30 ac bb 3d 06 a4 c9 3d
       -0.17833747 -0.08400517 0.091637015 0.09845738
000320 b6 37 30 3e c2 7a 42 be ca 03 9b 3d 2a 08 b4 bd
       0.17208752 -0.18992141 0.07569082 -0.0879062
000330 2a 72 dc 3c 89 89 0e 3e 91 6f bf bd ed f1 05 3e
       0.026909906 0.13919653 -0.093474515 0.13080569
000340 24 37 df bb b4 2c 43 3e 77 10 82 bd f7 05 cd bd
       -0.006811993 0.19060022 -0.06350797 -0.10010903
000350 66 a2 40 be 18 67 46 bd 0a 28 e3 bd ef 27 6c bc
       -0.1881195 -0.04843816 -0.11091621 -0.014413818
000360 1b 4c 7d bd 6c ca 87 3c 43 03 71 3c 7e 06 a9 3d
       -0.061840158 0.016576014 0.01471025 0.082531914
000370 bc 21 19 be 9a 73 e4 bd 76 13 58 bd 0f 06 1d be
       -0.14954275 -0.11154862 -0.052752934 -0.15334342
000380 e9 d5 30 be 9b 8d 90 bd f6 5f 18 be f4 5d e1 3d
       -0.172691 -0.07058259 -0.14880356 0.11004248
000390 13 02 0c 3e 06 c9 ad 3c ac 55 d2 3c bf 51 28 3e
       0.13672666 0.02121402 0.025675617 0.16437434
0003a0 21 0b 2b 3e 6e 0c 2c 3e 77 2a 18 3e ff a9 0a be
       0.16703464 0.16801617 0.14859949 -0.13541411
0003b0 0a 38 ae 3d 20 1f 3b be fb eb 3c 3e c1 2f 02 be
       0.08506782 -0.18273592 0.18449394 -0.12713529
0003c0 17 d2 8f 3d c7 01 b9 bc 07 a2 67 3d e7 a2 a0 3d
       0.07022493 -0.022583855 0.056551006 0.07843571
0003d0 d5 53 ac 3d 12 49 11 be 41 e2 07 3e b3 74 c9 3d
       0.08414427 -0.1418803 0.13269903 0.09836712
0003e0 99 bb 10 3e 93 0d 83 3d e8 4d 26 3e 78 d2 30 be
       0.14134063 0.063990735 0.16240656 -0.17267787
0003f0 fc fa d9 bd 95 82 df 3d 22 19 1f 3c 68 0e 1d 3e
       -0.106435746 0.109135784 0.009710582 0.15337527

encoder.0.0.bias f4 [64]
000000 77 6a 9e 3c 7c 6d 1f be 49 fc 37 be 5f 62 6c bd
       0.019337876 -0.15569109 -0.17967333 -0.057711
000010 b5 0e f8 3d f8 c7 08 3e 77 d5 42 3d 43 24 15 3e
       0.1211218 0.13357532 0.047566857 0.14564614
000020 90 da 14 be 0f ff b0 bc 0c a2 9d 3d 87 dc 1c 3e
       -0.145365 -0.021605996 0.076969236 0.153185
000030 c0 0e e9 3c 6c f3 4e 3c fa 8a b9 bd 3c e9 35 3e
       0.028449416 0.0126312785 -0.09059711 0.17764753
000040 45 39 03 bc ce ee cb 3d 0d da 58 3d 94 b1 27 be
       -0.00800926 0.09957658 0.052942324 -0.16376334
000050 d7 1c 21 bb ba ff ec bd 05 c9 21 be 02 36 0c bd
       -0.002458384 -0.115722135 -0.15799339 -0.034231193
000060 ea 60 17 3e 5a 29 3f 3d 3c 55 3e 3e 83 4d 1b 3c
       0.14783064 0.046670295 0.18587202 0.009478929
000070 13 a9 b5 bd 86 b6 19 3e 7e 20 c5 3d f3 81 2c bc
       -0.08870139 0.15011033 0.09625338 -0.010529029
000080 b5 5b 01 be 4a 54 75 3d bb 28 2f bd e5 73 9b 3d
       -0.1263264 0.059894837 -0.042763453 0.075904645
000090 81 8b da bd e0 77 8e bd 3f 08 27 3e 39 20 0d bd
       -0.106711395 -0.06956458 0.1631174 -0.034454558
0000a0 e6 63 05 3e 44 74 ae 3d 02 7f 20 3e e7 ce 3d 3e
       0.1302639 0.0851827 0.1567345 0.18535958
0000b0 e3 09 b3 3d 5e 2c 44 be 1e 55 19 be 33 73 04 3c
       0.0874212 -0.1915755 -0.14973876 0.008084106
0000c0 4c b9 bb bd 53 c5 65 3d 73 40 9b bd 52 73 17 3d
       -0.09166202 0.056096386 -0.07580652 0.036975212
0000d0 7a 09 0a be bf 44 95 bd 30 da 0f 3e 67 9c 64 3c
       -0.13480178 -0.07288503 0.14048076 0.013953305
0000e0 4e 8e 73 bd f5 3f 34 3e eb 3e ef 3c ae 1e 1d 3e
       -0.059461884 0.17602523 0.029204806 0.15343735
0000f0 7a 44 ff 3d 2a c7 25 be 28 33 06 3d e1 04 2c 3e
       0.12464233 -0.16189256 0.03276363 0.16798736

encoder.0.1.weight f4 [64]
000000 d2 9a 7f 3f 6d 01 80 3f 51 43 80 3f c5 fe 7f 3f
       0.9984561 1.0000435 1.0020543 0.9999812
000010 2b eb 7f 3f 31 4a 80 3f 93 3b 80 3f 55 9c 7e 3f
       0.9996821 1.0022641 1.0018181 0.99457294
000020 a3 ec 7f 3f eb 1e 80 3f 60 53 80 3f fb ec 7f 3f
       0.99970454 1.0009435 1.0025444 0.9997098
000030 ac 75 7f 3f 5e 78 7f 3f 3c 34 80 3f 6b 49 7f 3f
       0.9978893 0.9979304 1.0015941 0.997214
000040 86 6d 80 3f 45 9a 7f 3f 3f 24 7f 3f d3 16 80 3f
       1.0033424 0.9984477 0.9966468 1.0006965
000050 5e 6e 80 3f 8a 07 80 3f 2d 33 81 3f b5 94 7f 3f
       1.0033681 1.0002301 1.0093743 0.99836284
000060 2a 27 80 3f eb a3 7d 3f b7 2d 80 3f 54 9b 7f 3f
       1.0011952 0.99078244 1.0013951 0.99846387
000070 2f ef 81 3f cc e2 80 3f b7 9a 7f 3f 3d 46 7f 3f
       1.0151118 1.0069213 0.9984545 0.9971655
000080 91 0f 80 3f 4e d2 7d 3f 62 d3 7e 3f 6a cf 7e 3f
       1.000475 0.99149024 0.99541295 0.9953524
000090 66 c3 80 3f cd e3 80 3f 7a f2 7f 3f 25 02 7f 3f
       1.0059631 1.0069519 0.99979365 0.9961265
0000a0 74 27 7f 3f 63 4c 80 3f 0a 31 7e 3f 1a d1 7e 3f
       0.99669576 1.0023311 0.9929358 0.99537814
0000b0 54 b3 7f 3f 09 26 80 3f ef 30 7f 3f cc f4 7f 3f
       0.9988301 1.0011607 0.9968404 0.99982905
0000c0 ff 02 80 3f 9b 73 81 3f c0 fd 7f 3f 00 2d 7f 3f
       1.0000914 1.0113405 0.99996567 0.9967804
0000d0 f6 c3 7f 3f b6 9e 7f 3f 71 b7 7f 3f 6f a1 7f 3f
       0.9990839 0.9985155 0.99889284 0.99855703
0000e0 1f 38 80 3f a3 30 82 3f 31 9d 7f 3f ab e8 7e 3f
       1.0017127 1.0171093 0.9984923 0.99573773
0000f0 ca ea 7e 3f 8f 04 7f 3f f4 ba 7f 3f 22 9b 7f 3f
       0.9957701 0.9961633 0.9989464 0.9984609

encoder.0.1.bias f4 [64]
000000 7b a9 a8 3b 46 7a 82 3b 8c 28 dc 3a e6 78 65 bb
       0.005147157 0.0039818613 0.0016796752 -0.0035014688
000010 02 e2 57 bb 99 55 22 bb 5b 90 97 bb fb 84 b6 bb
       -0.0032941108 -0.0024770258 -0.004625363 -0.0055700517
000020 b1 4e 39 3c e2 ec 16 3c 3c 0b 45 ba c7 97 d8 bb
       0.011310265 0.009211751 -0.00075166277 -0.00660989
000030 15 7b 2e bb d8 22 f4 bb a5 02 6e bb a3 ff 86 3b
       -0.0026623656 -0.0074504428 -0.0036317494 0.0041198297
000040 ba 9e c2 ba 0d 68 9f 38 ec 2f 89 3b 35 04 80 3a
       -0.001484833 7.601092e-05 0.004186621 0.0009766879
000050 a5 83 47 3b 3f 8d 1e 3c cd f8 85 bb 9b aa dd bb
       0.0030443456 0.00967723 -0.0040884973 -0.0067647225
000060 41 6f 84 bb 9f 95 ed 39 b9 ea 35 ba 71 3f 87 3b
       -0.004041583 0.0004531564 -0.00069395785 0.004127436
000070 44 85 1c 3c 30 38 a4 3b 0c 74 70 ba 90 7d 02 bc
       0.009553257 0.005011581 -0.0009172566 -0.007964507
000080 91 9c 8c bb 14 54 49 3a d2 5e 30 ba dc 0c 2f 3b
       -0.004291125 0.000768007 -0.00067279965 0.0026710546
000090 e3 6a e2 3a c1 a5 41 bb fb eb b2 3a e0 f1 d6 ba
       0.0017274286 -0.002954826 0.001365065 -0.0016398989
0000a0 d3 1d 66 b9 d4 d2 fa bb 59 68 97 b9 7d a3 b4 3b
       -0.0002194562 -0.007654527 -0.0002887871 0.0055126534
0000b0 49 df ca 3b fb 68 9a 38 ba 63 9c 3b 9c bb 8c bb
       0.0061911684 7.3628464e-05 0.0047726305 -0.0042948257
0000c0 a2 c4 a8 bb 4e ab b5 3b a9 7d 62 bb 41 20 81 b9
       -0.0051503936 0.0055441028 -0.0034559763 -0.00024628828
0000d0 3e a0 35 bb 31 0b f6 b9 78 00 c0 3a 7e 77 a2 bb
       -0.002771392 -0.00046929115 0.0014648577 -0.0049580922
0000e0 11 a9 0c 3a 78 e1 a7 bb b6 a1 65 3b 43 51 58 39
       0.0005365769 -0.0051233135 0.0035039014 0.00020629638
0000f0 d9 37 0d 3a 71 4c a3 bb 3f 3a da 3b 58 71 ba bb
       0.0005387045 -0.0049834778 0.0066597755 -0.005689781

encoder.0.1.running_mean f4 [64]
000000 19 ea e8 3d 6f 1d f0 3c 5c 3f 5e bd 50 79 7f be
       0.113727756 0.02931091 -0.054259643 -0.24948621
000010 c6 fe 9e bd 7f e4 2c 3c be 91 2b be 3b 9d 8f 3d
       -0.07763438 0.010552525 -0.16754815 0.07012411
000020 24 2d 18 be 53 11 3a 3d 0a 88 cb 3d ae 4c ba 3c
       -0.1486097 0.045426678 0.09938057 0.022741642
000030 51 3c 01 be 42 48 9f bd 59 9d 1a be e9 58 a9 3e
       -0.12620665 -0.07777454 -0.15099086 0.33075646
000040 77 35 0e 3d 2e 97 05 3c 21 9a 09 3d f6 72 70 be
       0.034718957 0.00815372 0.033594254 -0.23481354
000050 48 fd d6 bc 98 5e 0a be 5d 7f 86 be d4 b7 92 be
       -0.02624382 -0.13512647 -0.26269045 -0.28655875
000060 bf 84 37 bd 82 0e 86 3d 59 48 a1 3d 7f 6b b5 3d
       -0.04480433 0.06545736 0.07875127 0.08858394
000070 bd 98 b8 bd e8 b2 17 3e d6 8b dc 3e ec 54 bc bd
       -0.090135075 0.14814341 0.43075436 -0.09195885
000080 67 1b ca be 32 14 09 3e 7c 7c f5 3d 5c 76 bb 3c
       -0.3947403 0.1338661 0.11986634 0.022883587
000090 90 45 30 be 10 93 c1 bd 24 58 1f bd f6 22 47 be
       -0.17214036 -0.09451878 -0.038902417 -0.1944693
0000a0 f7 84 5a 3e 81 21 c9 3c 0b 3e 03 3f c0 04 93 3e
       0.21339785 0.024552109 0.51266545 0.2871456
0000b0 67 f7 9a 3e 7c 4e 7d be 0b 54 29 be 10 26 5d be
       0.30266878 -0.2473697 -0.16535966 -0.21596551
0000c0 30 65 07 be ef 36 7c 3d 33 cf 12 3c d9 42 0a 3d
       -0.13222194 0.061575826 0.008960533 0.033755157
0000d0 1e 08 53 be a5 fe 6e be a2 6a 98 3e 59 bd 7d be
       -0.20608565 -0.23339327 0.29768854 -0.24779262
0000e0 31 44 8d 3e 05 2d 0d 3e 9b 81 a9 3e 07 d5 ba 3e
       0.27591088 0.13786705 0.33106694 0.36490652
0000f0 9d e9 24 3e 1c 27 b5 be 76 ad 48 3e d9 b2 3e 3e
       0.16104741 -0.353814 0.1959742 0.18622912

encoder.0.1.running_var f4 [64]
000000 49 86 3b 3c 9d aa 0e 3d 53 9a 9d 3c e8 eb 39 3d
       0.01144559 0.03483068 0.019238627 0.045390993
000010 e7 fe 24 3d 30 24 97 3c 5b 17 49 3d fb 3f fc 3b
       0.040282156 0.018449873 0.04909454 0.0076980568
000020 cc 34 33 3b d6 8e e7 3b 79 00 a4 3b 58 e5 9d 3c
       0.0027344702 0.007066588 0.005004939 0.019274399
000030 15 dc cc 3c 50 0d 19 3c 8d 7e b2 3b 14 13 d3 3c
       0.025007287 0.009341553 0.005447215 0.025765933
000040 97 d5 8c 3b 51 28 1f 3c 47 c5 3b 3b 4f 1c 07 3c
       0.004297923 0.009714202 0.0028651522 0.008246495
000050 dd 6f 1a 3b 25 a7 7c 3b 91 ad 63 3c f5 c3 88 3d
       0.002356521 0.0038551774 0.013896362 0.06678001
000060 ef a3 21 3d fb d1 0a 3b 06 27 64 3c 6a a9 e6 3b
       0.03946298 0.0021182287 0.01392532 0.0070392387
000070 6e 12 53 3a 26 5d 69 3a 35 4d f4 3d 22 c2 f1 3b
       0.00080517575 0.0008902125 0.119287886 0.0073778788
000080 3a da 9e 3d 8d 4e de 3b cd 7d 18 3d 61 42 94 3b
       0.07756467 0.0067842663 0.037229348 0.0045245145
000090 e0 f0 c3 3b bf 8f 29 3b a6 91 36 3d f7 72 ec 3c
       0.0059796423 0.0025873033 0.044572495 0.028863413
0000a0 97 b9 01 3c bf fd 94 3b 38 4f 0a 3e b1 8a 43 3c
       0.007917783 0.0045468505 0.13506782 0.011934922
0000b0 d3 ff 4a 3d 98 e4 b3 3b 80 55 ea 3a 2b f8 56 3d
       0.04956038 0.005489897 0.0017878264 0.052482765
0000c0 49 21 74 3b 84 b7 cb 3a 27 b8 08 3c 89 9b 44 3b
       0.0037251285 0.0015542363 0.008344687 0.0029999933
0000d0 c1 f0 17 3c 30 cc e4 3c 0f 99 d6 3c 50 61 8f 3d
       0.009273709 0.027929395 0.02619603 0.07000983
0000e0 b1 7c f0 3d 81 4f 5d 3b 14 d0 c3 3d 7a 23 4c 3d
       0.11742533 0.0033769312 0.09561172 0.04983852
0000f0 bd 4f 86 3b d3 36 20 3d e8 c4 e1 3c ec 3f 01 3b
       0.004098861 0.039114784 0.027559713 0.0019721938

encoder.1.0.weight f4 [64, 64, 3, 3]
000000 f6 60 a2 bb 04 1d 96 bc 6f ae a7 3c 03 68 10 3d
       -0.0049554063 -0.018324383 0.020468919 0.035255443
000010 c2 c6 2f 3c 27 bb fc 3c c6 2e 91 3c 98 71 17 bd
       0.01072854 0.03085096 0.017722499 -0.036973566
000020 da a9 07 bd 44 a6 17 3d 74 39 19 bd 05 1a 3d 3c
       -0.033120967 0.037023798 -0.037408307 0.011541848
000030 e8 7a e1 3c 21 ee 20 bd e4 42 c5 3c 09 6e ec 3c
       0.027524427 -0.039289597 0.024079747 0.028861063
000040 99 e9 10 bd 54 e8 6e 3b fa bc 16 3d e8 3f 29 b9
       -0.035379026 0.0036454396 0.036801316 -0.00016140903
000050 60 24 e0 3c 7b 0a 11 3d a8 95 28 bb 3d f7 7a bc
       0.027361095 0.035410386 -0.0025723968 -0.015317735
000060 72 29 d2 3c 92 0f a0 bc 8b b6 ad 3a c2 49 f8 bc
       0.025654528 -0.019538675 0.0013253255 -0.030308608
000070 82 95 80 bc cf 3a b2 bc 47 f6 a5 3c 41 50 63 3c
       -0.01569629 -0.021756558 0.020259036 0.0138741145
000080 9e f6 25 bd b2 99 1f 3c 5d 00 07 3c 47 36 cb 3c
       -0.040518396 0.009741234 0.008239833 0.024806155
000090 46 c6 c8 3c a7 4e fe 3c 26 58 5f bc f3 a5 39 bc
       0.024508607 0.031043364 -0.013631856 -0.011331069
0000a0 4d 67 a6 3a 94 c9 4c bc 73 b7 5b bb 4e b5 5c 3b
       0.0012695581 -0.012499232 -0.0033526092 0.0033677402
0000b0 ce 6d e6 bc ff 67 82 35 be 14 0e bd 59 1d be 3c
       -0.02812853 9.716022e-07 -0.03468775 0.023207353
0000c0 9c f2 d1 3c 98 29 b7 bc 8b e9 f1 3c 0f 55 2b 3c
       0.02562838 -0.0223587 0.029530307 0.010457291
0000d0 4a 24 ee 3c b2 74 b2 bc 39 17 f8 bc c9 e5 20 3c
       0.029070038 -0.02178416 -0.03028451 0.00982041
0000e0 5c c9 13 bd ca a2 0d bd 9a 55 23 3d ea 0b cc bc
       -0.036080703 -0.034579076 0.039876558 -0.024908025
0000f0 51 e5 2c bb 4d c2 24 3d b9 91 4f 3c 7b f1 f8 3c
       -0.00263818 0.040224362 0.01266902 0.030388584
000100 2d 15 b3 3c a3 27 8e bc 9f f4 19 bd 65 2f 6a bc
       0.021860683 -0.017352885 -0.037586804 -0.014293526
000110 6a d5 be bb 08 1a c4 bc 0e 22 8f bc 40 13 11 bb
       -0.005823781 -0.023938194 -0.017472293 -0.0022136718
000120 fb ba d7 3c a9 0d ae bb c5 28 e2 bc 48 f7 01 bc
       0.026334276 -0.005311687 -0.027607331 -0.007932492
000130 2f 15 15 bc 5d c6 b3 bc 1b 14 c3 3c cc 58 02 3d
       -0.009099289 -0.021945173 0.023813298 0.031822965
000140 44 61 0f bd 66 b8 01 3d 13 5e 0a 3d 08 19 20 bc
       -0.03500487 0.031669997 0.033781122 -0.009771593
000150 8b 7f 68 bb d5 f5 a7 3b fc ee e2 bc 0c 37 bd 3a
       -0.0035476412 0.005125741 -0.027701847 0.0014435961
000160 42 c6 b9 bb dc 8f b6 bc 3e 6f d9 3c dc ad fc bc
       -0.005669386 -0.022285394 0.026542302 -0.030844621
000170 36 ce ff 3b 50 07 e0 bc 19 7f 01 bc 43 0b a8 bc
       0.0078065647 -0.027347237 -0.007903838 -0.020513183
000180 c8 d3 d3 3c ba 9f af 3b 8e f3 03 bd 7f 49 15 3d
       0.025857821 0.005359617 -0.032214694 0.036447044
000190 86 46 09 ba 92 be 9e bc 9c 0a 3e 3b e8 87 0b 3d
       -0.0005236644 -0.01937798 0.0028998023 0.034065157
0001a0 e4 7a 17 3d 69 64 bf bc f8 48 cf bc 85 ee 24 3d
       0.036982432 -0.023363309 -0.025303349 0.040266532
0001b0 ce 66 cb 3b cf 15 56 3c a1 12 f7 bc 2a 1e 63 3c
       0.0062073236 0.013066723 -0.03016025 0.013862172
0001c0 e5 00 43 3c d9 17 1b bd 11 f5 6a bc b1 25 0e 3d
       0.011902069 -0.03786454 -0.014340655 0.034703914
0001d0 41 33 3b bc ce d3 9f bc 48 d4 c2 3c ee 66 1f 3d
       -0.011425794 -0.019510176 0.023782864 0.03891652
0001e0 00 23 14 3b 2e 9d ad bc b9 58 ee 3c 96 3e d8 bc
       0.002260387 -0.021193113 0.02909504 -0.02639703
0001f0 1c b6 70 3c 03 fe 29 3d d9 57 03 3d 25 42 28 bd
       0.014691856 0.04150201 0.0320662 -0.041078705
000200 6c e5 e1 3c 89 60 0c 3c 58 3f 15 bd a6 56 1e bd
       0.027575217 0.008567938 -0.036437362 -0.038656853
000210 4f 46 7a 3c 58 91 49 3c 9b 85 eb 3c bd f8 f4 bb
       0.015275552 0.012302719 0.028750231 -0.007475941
000220 c3 db dc bc 2a 8b ea bc 6d dd b4 bc f6 ad fb 3c
       -0.02696026 -0.028630812 -0.02207824 0.0307226
000230 0f 48 c4 3c a8 ae f9 3c a2 ff 1f bd 2d db 8b bc
       0.023960141 0.03047879 -0.03906215 -0.017072285
000240 09 eb 86 3c 21 b0 46 bc 69 07 f5 3c ed 42 68 3c
       0.016469495 -0.012126953 0.02991076 0.014176113
000250 3e 5e f8 bc 00 9d ad bc b9 ca 1f 3c 37 74 56 bc
       -0.030318376 -0.021193027 0.009752923 -0.013089231
000260 2d 5a ca bb 3f 73 24 3d 7d 57 56 bc 12 d0 cb 3c
       -0.0061753006 0.04014897 -0.013082382 0.02487949
000270 ab e8 a6 bc 70 37 84 3c 5b 63 16 3a 41 70 97 3a
       -0.020374617 0.016139716 0.0005736851 0.001155384
000280 63 3f b6 bc d8 3e 77 bc 99 77 d7 bc de 12 08 3d
       -0.022247022 -0.015090667 -0.026302146 0.03322112
000290 88 3c 2b 3b 30 cb 66 ba 2d 36 9d bc 7d ec e2 3b
       0.0026128609 -0.0008804081 -0.019190872 0.0069251643
0002a0 df 54 36 bd 98 14 da 3c 36 ca 9b 3c 7d 21 d4 bc
       -0.044514533 0.026621148 0.01901732 -0.025894875
0002b0 a3 71 45 3c d6 b8 ab 3b 99 db f7 ba ff ef 58 3c
       0.012051019 0.00524054 -0.001891005 0.013240813
0002c0 30 b7 ed 3c 43 cb 98 bb a5 c7 4f bb 78 10 ba bc
       0.029018015 -0.0046629026 -0.003170469 -0.022712931
0002d0 b4 2b ff bc a9 70 cf 3c d9 66 b7 3a 5e b0 8d 3c
       -0.031148769 0.025322275 0.0013992443 0.017296012
0002e0 7d ca 91 3c e2 3b bd 3c b2 73 12 bd 05 2b 12 bd
       0.01779675 0.023099843 -0.035754867 -0.035685558
0002f0 38 8a 16 bd ae d9 36 bc d5 31 35 3c 6a e0 09 3d
       -0.03675291 -0.011160297 0.011059244 0.033661284
000300 06 d0 12 bd f5 5b e4 3c 59 07 c4 3b 00 2d af bb
       -0.035842918 0.02787588 0.005982321 -0.0053459406
000310 94 e4 77 3c 2c 57 f7 bb a8 22 86 bc 10 02 d6 bc
       0.015130181 -0.0075482335 -0.016373947 -0.02612403
000320 07 06 48 bc a2 a1 a2 3c fe 7b 90 3c 79 58 25 bd
       -0.012208468 0.019852463 0.01763725 -0.040367577
000330 49 dc 74 bb 94 90 bb bc 2f 08 63 bc 2d 0c 89 3c
       -0.0037362745 -0.022896089 -0.013856932 0.016729439
000340 0a 11 f7 38 4d ab 86 bb 73 49 04 bd 7c d5 64 bc
       0.000117810516 -0.004109776 -0.03229661 -0.013966914
000350 6c 9a 0b 3d 7a 83 27 3c d1 c2 04 3c 22 75 e0 bc
       0.034082815 0.010224218 0.0081030885 -0.027399603
000360 70 53 2b bc 32 48 82 bc ff ca 13 bb f6 9a 06 3d
       -0.010456905 -0.015903566 -0.0022551415 0.032862626
000370 e6 29 fc 3b 13 68 74 3c b4 ec 93 bc 79 34 14 bd
       0.0076954244 0.014917391 -0.018057205 -0.036182854
000380 5c 57 59 3b 3f df 78 bc f7 c9 16 3c 99 03 d7 bc
       0.0033163643 -0.015189945 0.009203426 -0.026246833
000390 ef da 20 bd 30 86 36 bd 9d 9b 03 bd ef 95 0b bd
       -0.03927129 -0.044561565 -0.032130826 -0.034078535
0003a0 31 5a 6b bc 89 73 22 bd d6 df d8 3c a0 16 3b 3c
       -0.014364765 -0.039660964 0.02647392 0.011418968
0003b0 78 4f 1b bd e2 6f ea bb ad d5 9c 3b 4a f1 cd 3c
       -0.037917584 -0.0071544508 0.0047862143 0.02513947
0003c0 8f 89 13 3c 03 82 84 3c f3 4d d0 bc ba ac 7d bb
       0.0090049645 0.016175276 -0.025427794 -0.003870769
0003d0 51 09 1f bd 2f 34 1b bd b7 16 97 bc 6a 95 22 3d
       -0.038827244 -0.037891563 -0.018443448 0.039693274
0003e0 85 8b b4 3b ad ea 22 bd 51 a0 64 3c e3 dc f8 bc
       0.005509796 -0.039774586 0.013954238 -0.030378764
0003f0 5c bb 07 bd 5f 9a 56 ba 1b 09 9c bc 75 38 aa bc
       -0.033137664 -0.0008186455 -0.01904731 -0.020778874

encoder.1.0.bias f4 [64]
000000 b3 79 fe bb a6 68 1c bd b9 63 9f 3c 49 77 9e bb
       -0.0077659725 -0.038185738 0.019456731 -0.0048359972
000010 ab 78 d2 bc 73 04 fd bc a9 13 4a bb 3f a2 f4 bc
       -0.025692305 -0.03088591 -0.0030834472 -0.029862521
000020 23 c0 06 bd 61 76 63 3a 84 a4 03 3c 2f 88 95 bc
       -0.03289808 0.00086770026 0.008034829 -0.018253414
000030 f7 12 10 bd 59 97 9d bc 00 fd 12 3d de 4d 8f 3b
       -0.035174336 -0.019237207 0.03588581 0.004373296
000040 1d 60 0c bd ca 09 65 bb b8 a4 03 3d 91 bc 18 bc
       -0.03427135 -0.0034948462 0.03213951 -0.0093223015
000050 49 47 2f 3d 9c d0 a5 bc 05 04 57 3b 1e 00 d3 3c
       0.042792592 -0.020241074 0.0032808792 0.025756892
000060 4e fb 1f 3d 83 e1 ca bc c1 90 98 3c f6 0a 8a bb
       0.039058022 -0.024765735 0.018623712 -0.0042127324
000070 dc 54 85 bc 18 20 c5 bc 76 54 df 3c a4 e9 ef 3b
       -0.016275816 -0.024063155 0.027261954 0.0073215533
000080 eb 01 cb 3c a5 0d 21 3d cb 54 86 bc f6 c7 77 3b
       0.024781188 0.039319653 -0.016397854 0.0037808395
000090 a5 c5 09 bd 5a ca c3 bc f0 e9 e3 bb 93 f6 f7 3c
       -0.033635754 -0.0239002 -0.0069553778 0.030268943
0000a0 77 4e 3d 3c 8b 8a f0 bc f8 10 ff 3c 35 71 46 3c
       0.011554352 -0.029362937 0.031136021 0.012111952
0000b0 42 2a cb 3c f1 32 cb bb 1a 5d 16 3c 7d f9 82 3c
       0.024800424 -0.006201141 0.009177471 0.015988106
0000c0 49 33 0c 3d 70 8f 3e bd a6 e5 45 3c 62 ce 0e bd
       0.034228597 -0.04652351 0.012078678 -0.03486479
0000d0 b9 a2 c3 bc d2 6e ad bc e2 b0 af bc b2 3e 31 bd
       -0.023881303 -0.021171007 -0.021446649 -0.04327268
0000e0 27 04 07 bd bf 12 22 3d f9 cb 41 3c 30 05 e3 3b
       -0.032962944 0.03956866 0.011828416 0.0069281086
0000f0 06 c6 89 bc b4 cd 25 3d 64 18 49 bc 9b 8d f6 bc
       -0.016818058 0.040479377 -0.012273882 -0.03009682

encoder.1.1.weight f4 [64]
000000 27 0b 7f 3f 71 55 80 3f 54 cc 7e 3f aa 42 7f 3f
       0.9962639 1.0026075 0.9953053 0.99711096
000010 98 80 80 3f ce 61 80 3f fe 88 80 3f 5b 9a 7e 3f
       1.0039244 1.0029848 1.0041807 0.9945428
000020 9f 42 7e 3f 97 48 7f 3f 9d a3 7d 3f 64 e2 7e 3f
       0.99320406 0.9972014 0.9907778 0.99564195
000030 35 a1 7f 3f 81 fd 81 3f 80 a9 7f 3f 28 0a 81 3f
       0.9985536 1.0155488 0.9986801 1.0081224
000040 17 93 7f 3f 7c a5 7e 3f 49 0b 80 3f ea f3 7f 3f
       0.99833816 0.9947126 1.0003444 0.9998156
000050 c3 2b 80 3f 32 e7 7e 3f 4b 54 7f 3f 65 b2 7e 3f
       1.0013355 0.99571526 0.99737996 0.9949096
000060 fd da 80 3f a5 cf 7e 3f f1 1e 80 3f 50 36 80 3f
       1.006683 0.9953559 1.0009443 1.0016575
000070 b4 de 7e 3f 43 a2 7e 3f 7d 7f 7e 3f e1 d1 7f 3f
       0.9955857 0.9946634 0.9941328 0.99929625
000080 0e 52 7f 3f c3 4b 80 3f 72 1d 7f 3f b2 34 7e 3f
       0.9973458 1.0023121 0.99654305 0.99299157
000090 99 2e 80 3f 78 26 81 3f cb cf 7f 3f 35 b8 80 3f
       1.001422 1.0089865 0.9992644 1.0056216
0000a0 76 9a 80 3f 2a 66 80 3f df eb 80 3f a8 46 80 3f
       1.0047138 1.0031178 1.0071982 1.0021563
0000b0 78 63 7f 3f eb f7 80 3f 31 80 7f 3f 17 b0 81 3f
       0.9976115 1.0075659 0.9980498 1.0131863
0000c0 c7 88 7f 3f 3b 2f 7f 3f b6 9d 80 3f a8 5f 81 3f
       0.9981808 0.9968144 1.004813 1.0107317
0000d0 93 b0 7f 3f ab 0f 7f 3f 82 5b 80 3f d1 d6 7d 3f
       0.99878806 0.9963328 1.0027926 0.9915591
0000e0 7c 19 7f 3f 40 6c 7d 3f e6 2f 82 3f 05 10 7f 3f
       0.9964826 0.989933 1.0170867 0.9963382
0000f0 40 76 7f 3f ec 76 7f 3f 48 8a 7f 3f dc 1e 80 3f
       0.9978981 0.99790835 0.99820375 1.0009418

encoder.1.1.bias f4 [64]
000000 77 fa f0 ba d5 7c 50 bb 67 ea 28 bb 2b a1 56 bb
       -0.0018385191 -0.0031812687 -0.002577448 -0.0032749872
000010 1b 9c 81 3a 8d d8 24 bb bf b1 9e bb 94 e7 fd b7
       0.0009888442 -0.0025153488 -0.0048429663 -3.0267787e-05
000020 5e 64 fd ba db e4 2d bc 43 23 4a bc e8 4f 05 bc
       -0.001933228 -0.010613645 -0.012337509 -0.008136727
000030 26 4d 9f bb 09 13 65 bc 38 64 d4 ba 14 28 76 bc
       -0.0048614917 -0.013981589 -0.0016204184 -0.015024204
000040 e9 1a ac bb c5 a6 50 bb e5 f2 ba 39 d7 80 28 bb
       -0.0052522314 -0.0031837684 0.00035657655 -0.002571156
000050 34 5c cc b7 51 dc c4 bb 5e 2f e0 ba 99 c5 bc bb
       -2.436163e-05 -0.006007709 -0.001710396 -0.00576086
000060 f5 75 f4 3a 31 71 a5 bb db 79 58 39 ac 78 82 ba
       0.0018650877 -0.005048894 0.0002064476 -0.0009954176
000070 2f 60 0c 3b 6a 6c 6f bb 27 ba 69 bb f4 8b c4 ba
       0.0021419635 -0.0036533126 -0.0035663934 -0.0014995323
000080 7d e1 bf 3a 03 f7 c4 ba a2 a6 2e ba f2 e1 95 ba
       0.0014639344 -0.0015027229 -0.00066624035 -0.0011435135
000090 75 10 f0 ba 05 82 a0 3b ff 67 a3 3b ca ed 4b bb
       -0.0018315451 0.004898312 0.0049867625 -0.0031117075
0000a0 06 53 0f bc 60 27 1b bc 37 ac 15 bc 82 0c 14 3a
       -0.008747822 -0.009469837 -0.0091352975 0.0005647616
0000b0 82 16 85 bb 3e e2 db ba d3 b1 94 bb a6 3a 8e bc
       -0.004061521 -0.00167758 -0.0045378 -0.01736195
0000c0 bf 78 ba ba 70 fe 8c bb 84 39 56 bb f9 79 0a bc
       -0.0014226659 -0.0043027923 -0.003268809 -0.008451932
0000d0 b2 0e 5a bb 61 3e a0 bb 98 df 69 bb bf 28 11 bc
       -0.003327292 -0.0048902486 -0.003568625 -0.008859812
0000e0 14 a4 a4 3a 7b 77 e7 bb 5d 4b 9d bb 00 11 a6 bb
       0.0012561106 -0.0070638037 -0.004800244 -0.0050679445
0000f0 a2 c9 8d bb 88 9e 42 bb 4d c2 bc b9 b0 1c af b9
       -0.004327015 -0.0029696543 -0.0003600292 -0.00033399975

encoder.1.1.running_mean f4 [64]
000000 3c a7 ed be 14 4b 47 bf f5 9b 6c bf a3 42 00 bf
       -0.46416652 -0.77848935 -0.9242547 -0.5010168
000010 3b c3 96 bf 5a e6 10 bf 4b 01 ef bd df 4f 3f bf
       -1.177833 -0.5660149 -0.116701685 -0.7473125
000020 e7 76 69 bf 22 43 50 3f 95 2e 39 bc 21 04 07 bf
       -0.91197056 0.81352437 -0.01130261 -0.52740675
000030 d3 b3 16 3f 94 71 f7 bd 80 c9 04 bf d0 76 21 3e
       0.5886814 -0.1208221 -0.51869965 0.1576798
000040 c3 e9 51 bf 0b 50 8b be 00 20 37 bf 1c 6a dc be
       -0.8199732 -0.27209505 -0.71533203 -0.43049705
000050 fc e3 c6 be 10 ad 21 bf 7e 7f 60 be 89 d6 27 3f
       -0.38845813 -0.631547 -0.21923634 0.6556173
000060 79 d5 8b be 4c 01 5f 3f 4f 57 11 bf f3 fa 02 bf
       -0.27311304 0.87111354 -0.5677385 -0.5116417
000070 fd 5a ee be c8 69 a4 be a7 3b 2f bf b9 4b fb 3e
       -0.46553794 -0.32111955 -0.684504 0.4908121
000080 bb 61 32 bf 3c de 7c be f0 8b de be 82 34 12 bf
       -0.69680375 -0.2469415 -0.4346614 -0.5711137
000090 8e 8c f0 be f7 b3 fa be 18 fd 07 bf 5b 13 3f be
       -0.46982235 -0.48965427 -0.53120565 -0.18659727
0000a0 c2 2d fb 3e d1 c1 34 3f 25 65 cf bd 63 c4 e5 be
       0.49058348 0.7060824 -0.10126714 -0.44876394
0000b0 e7 2d e5 bd 9c 4e 80 be 29 28 10 3f 35 b3 cd 3e
       -0.11190396 -0.25059974 0.5631128 0.40175787
0000c0 f4 7c 29 bf 7f 08 af bd d5 63 8a 3e 68 a6 85 bd
       -0.6620629 -0.085465424 0.2702929 -0.0652588
0000d0 47 2f 37 3e 18 a6 1a bf 0d ac 82 bf 98 ed fd be
       0.17889129 -0.6040969 -1.0208756 -0.49595332
0000e0 a9 d6 8a 3e 3e 87 c4 bd 0e cf 00 be 23 fa a1 be
       0.27116898 -0.09596108 -0.12578985 -0.31636152
0000f0 03 84 39 bf e9 24 f4 be 89 da 9c 3e 8b 6f 12 3f
       -0.7246706 -0.4768441 0.3063548 0.5720145

encoder.1.1.running_var f4 [64]
000000 31 3e 83 3e 12 59 5b 3e 6f 2d 3d 3e 6f 36 20 3e
       0.25633386 0.21420696 0.18474363 0.15645765
000010 57 0e a7 3e 3e 62 05 3e 6f b1 74 3e 1b fc 26 3f
       0.32628128 0.13025758 0.2389581 0.6522843
000020 64 f5 a1 3e 0b 09 dc 3e c8 9e 04 3e c5 99 a1 3e
       0.3163253 0.4297565 0.12951195 0.3156263
000030 23 b7 85 3e 91 fe cb 3d 60 63 85 3f 1f 38 45 3e
       0.26116285 0.09960664 1.0420952 0.1925969
000040 c1 fc 10 3f a9 f5 22 3f 9e 6e a5 3e de 39 80 3e
       0.5663567 0.636561 0.32310957 0.2504415
000050 98 30 e7 3e 93 e9 4a 3f 68 b5 33 3e fa 4d 8b 3e
       0.45154262 0.79262656 0.1754967 0.2720793
000060 31 c5 17 3e 4f 3d e6 3e bc 9f 7e 3e c2 e6 31 3e
       0.14821316 0.4496865 0.24865621 0.17373183
000070 ec 64 91 3e af fe da 3e 91 d1 58 3f a0 b0 b9 3e
       0.2839731 0.42772433 0.8469477 0.36267567
000080 86 a1 2a 3e 57 b2 90 3d 5d 68 9f 3e ae 3c 86 3e
       0.16663179 0.070652656 0.3113431 0.2621817
000090 54 2c c5 3d 85 b3 99 3e ce da 02 3e df 45 10 3e
       0.096275955 0.30019775 0.1277878 0.14089154
0000a0 d8 02 3c 3e 28 74 aa 3e 95 1b 0c 3e 04 c0 33 3e
       0.1836046 0.33291745 0.13682397 0.17553717
0000b0 55 55 88 3e e6 ef ac 3d 9f c7 b1 3e 6c 7c 30 3e
       0.26627603 0.084441945 0.3472261 0.17234963
0000c0 66 22 43 3e cb 78 8a 3e 77 64 57 3e 85 cc d3 3d
       0.1905609 0.27045283 0.21034418 0.103417434
0000d0 b7 f4 33 3e 0a fa b6 3e 14 fa 7c 3e 7e 60 36 3f
       0.1757382 0.3573764 0.24704772 0.71240985
0000e0 ab 0a 64 3e f9 2c d5 3d 68 6f 00 3e d4 a2 ce 3e
       0.22269695 0.104089685 0.12542498 0.40358603
0000f0 12 22 36 3e 70 cf 58 3e 5d b1 74 3e 38 69 f5 3e
       0.17786434 0.21172881 0.23895784 0.47931838

encoder.2.0.weight f4 [64, 64, 3, 3]
000000 d7 17 ed bc 1e 3f 22 bd 78 34 e6 bc a5 e5 0b bd
       -0.028942032 -0.039610974 -0.02810119 -0.034154553
000010 be 85 f6 3c 0f 56 26 3d c1 51 00 3d 87 23 d0 bb
       0.03009307 0.040609416 0.031327967 -0.0063518914
000020 51 e4 27 3d a5 64 87 3c 4f fd 03 3d fe e3 11 3c
       0.040989224 0.016527483 0.032223996 0.008904455
000030 db 95 11 3d 14 1b 81 bb 39 83 17 3d 28 18 0e 3d
       0.035543304 -0.0039399955 0.036990378 0.034691006
000040 81 b8 80 bc fb ee 80 bb 80 f9 04 bc 6e 28 67 3c
       -0.015712978 -0.0039347387 -0.008116126 0.01410876
000050 ae e4 82 bc 9a 09 c8 bc 63 b9 18 3d ae 6e 01 bc
       -0.015978184 -0.02441864 0.037286174 -0.007899923
000060 17 79 29 3c c4 7c 97 3c fc 70 4b 3a 47 00 ad bc
       0.0103438115 0.01849211 0.00077606714 -0.021118296
000070 72 89 a8 bc bf fc eb 3c 94 12 b8 bc ac b0 25 3d
       -0.020573352 0.028807042 -0.022469796 0.04045169
000080 12 f5 98 bb c1 79 c0 3c f7 d1 22 bd 5e 06 58 bc
       -0.0046678865 0.023495557 -0.03975102 -0.013185112
000090 23 87 24 bc 68 0a 05 3b f3 fc 45 3c df 30 9a 3c
       -0.010041985 0.0020300392 0.012084234 0.018822132
0000a0 53 6f 0b bd 55 d2 a2 ba 2f c4 15 bb 01 f1 91 3c
       -0.034041714 -0.0012422303 -0.002285253 0.017815115
0000b0 c4 79 8b bc f7 06 f6 bc 94 5c 16 3d 0f 1c 1c 3d
       -0.017025836 -0.030032618 0.036709383 0.038112696
0000c0 3a fe ec 3c fa 0f 56 3c 7b a7 bc bc 52 f8 19 3d
       0.028929818 0.013065333 -0.02302908 0.037590332
0000d0 88 c2 1c 3b e3 ac 25 3d ef d3 98 bc d4 6e e4 3c
       0.002391966 0.04044808 -0.018655745 0.027884878
0000e0 db 82 1e 3d 1d 07 b1 38 5e 1e d9 bc 8a 17 e5 3c
       0.038699012 8.441343e-05 -0.026503738 0.027965326
0000f0 4e 87 a8 bc a7 92 12 3c c7 d3 23 bd ad 80 9c 3c
       -0.02057233 0.008946097 -0.03999689 0.019104326
000100 19 eb f1 bc 3a 10 39 bb b0 0a 25 bd d6 f9 d7 3c
       -0.029531049 -0.0028238432 -0.040293396 0.026364248
000110 16 a9 85 3b 64 f9 e4 3c 3c 3b 50 bc 1b fa 04 3d
       0.0040789945 0.02795095 -0.012709435 0.03246508
000120 eb b6 1c bd 04 86 0e bd 19 a5 cc 3c 9f 92 8e bc
       -0.03826038 -0.034795776 0.024981068 -0.017403899
000130 e7 0b 90 3c 0c a1 10 bd f6 6b 14 bb f1 23 bf 3c
       0.0175838 -0.035309836 -0.0022647358 0.023332568
000140 5d 92 c7 bc 13 b6 97 3c 55 75 18 3d fb 03 10 3d
       -0.024361784 0.018519437 0.03722127 0.035160046
000150 64 3a 43 bc 2a bf bd 3b bf 89 0f bd ee 2d 20 3d
       -0.011915777 0.005790611 -0.035043474 0.039106302
000160 b8 b1 e3 3a d1 52 99 3c 38 af bf 3c 70 44 6b bc
       0.001737169 0.018716248 0.02339898 -0.0143595785
000170 49 57 e2 3b 15 4d e5 3c 4b 0c 8c 3b 4a 70 31 bd
       0.006907378 0.027990857 0.0042739264 -0.043319978
000180 9f ed f9 bb 0a c3 d9 3b fd 75 04 bc 33 35 8b bc
       -0.0076272036 0.006645565 -0.008084771 -0.01699314
000190 d5 37 21 3d 2b 8e ad bc 41 e3 d4 3c ca 54 ce bc
       0.039359886 -0.021185955 0.02598727 -0.025186915
0001a0 8a a4 ad bc a1 27 9e 3b 5a 9e 0b bd 25 e8 de 3c
       -0.021196622 0.0048265015 -0.034086563 0.027210305
0001b0 0e 7e c7 bc 45 a6 cb 3c 34 a9 f1 3a 34 0d a8 3c
       -0.0243521 0.024859557 0.0018437267 0.020514108
0001c0 78 47 2a 3a f8 30 b8 3b 69 4b c6 3c 78 2b 6e 3c
       0.0006495635 0.005621072 0.02420588 0.014536731
0001d0 d8 f4 1c 3d b9 4d 06 3d 52 55 11 3d c1 3a fa bc
       0.03831944 0.032788966 0.03548176 -0.030545594
0001e0 e4 6b c4 bc d4 8b 7a 3c 53 35 3e bd a5 0e 9e bc
       -0.023977228 0.015292127 -0.046437573 -0.019294092
0001f0 40 0d 0d bc 48 49 04 bd 21 c4 64 bb 6e 0d 9b 3c
       -0.008609116 -0.03229645 -0.003490694 0.018927302
000200 29 6c 02 3d d6 51 ad ba 7e ec 6d 3c 71 b3 42 3b
       0.03184143 -0.0013223242 0.014521716 0.0029709006
000210 78 4b 8e 3c 9c dc 80 bc a2 ec 07 bc 61 a9 d6 bc
       0.01736997 -0.015730195 -0.008296164 -0.026203813
000220 19 b0 cf ba 26 d0 cf 3b 96 9d 91 3c bc 54 61 3c
       -0.0015845328 0.006341952 0.017775338 0.013753112
000230 32 bc 0b bd 66 14 18 bd da 65 06 bd 75 18 05 3d
       -0.034115024 -0.03712883 -0.032811977 0.032494027
000240 07 93 8c 3b 2d d0 20 3d 51 b8 37 38 65 1c bf 3c
       0.004289988 0.039261032 4.3802258e-05 0.02332897
000250 58 b9 07 bd 95 64 00 bd 8a cf 0b 3c 76 cd 4c ba
       -0.033135742 -0.031345922 0.008533368 -0.00078125985
000260 e7 e7 c8 ba 57 29 89 bc 97 4f ea 3c a3 f8 d6 bc
       -0.0015327901 -0.016743345 0.028602405 -0.026241606
000270 0c f8 26 bc e5 5a 21 3d e1 84 c0 3c 86 70 27 bd
       -0.010190975 0.039393324 0.023500862 -0.040878795
000280 b5 57 b7 3c d4 04 67 3c 75 06 cc bc e6 eb 04 bd
       0.02238069 0.014100272 -0.024905423 -0.032451533
000290 b6 50 ad bc 3e b3 1b 3d 6d 8a e4 3c f0 2f de bb
       -0.02115665 0.038012736 0.027898038 -0.006780617
0002a0 f5 fd 0b bd 2c b6 b4 3c ba 8b b7 bc f5 05 c8 3c
       -0.03417774 0.022059523 -0.022405494 0.024416903
0002b0 b0 58 20 3c 7b 83 e6 3c 11 61 02 bc 19 57 37 bc
       0.00978677 0.028138867 -0.007957713 -0.011190199
0002c0 d9 50 48 3b 53 94 40 3c da de a9 3c f7 99 06 3d
       0.0030565767 0.011754113 0.020736147 0.032861676
0002d0 83 c2 15 3d d9 9c 56 3c d0 6a b2 3c db 99 8a bc
       0.036562454 0.013098919 0.021779448 -0.016919067
0002e0 c5 1d 09 bc f1 3b 99 bc 83 82 44 ba 3b f4 97 3c
       -0.008368914 -0.01870534 -0.00074962544 0.018549075
0002f0 27 86 8e bb a8 a0 13 bd 28 20 17 bd e0 fa 18 3d
       -0.0043494883 -0.036041886 -0.0368959 0.037348628
000300 eb bc 32 3a 5b 18 a2 3a d1 94 4f bb 65 4e 10 bd
       0.0006818312 0.0012366878 -0.0031674395 -0.035231013
000310 df 80 e7 3c 9f e8 bf 3b 03 f8 bb bc f0 3b d0 bb
       0.028259693 0.005856588 -0.02294541 -0.0063548014
000320 32 9d da 3a 29 c9 4d bc 64 c1 7d 3c 24 2f 08 bd
       0.0016678928 -0.012560167 0.015488002 -0.03324808
000330 1c b9 ad bc 10 0c dd ba c6 d8 4b bc bd b3 b5 3c
       -0.021206431 -0.0016864557 -0.0124418195 0.022180432
000340 38 4a 76 bc 30 9e ec 3c 92 c1 99 3c f7 27 e0 bc
       -0.015032344 0.028884023 0.01876906 -0.027362807
000350 bb c3 a9 bc 92 c1 e0 3c b1 1e f8 3c 04 b4 84 3c
       -0.020723214 0.027436052 0.030288072 0.01619912
000360 fa 72 c3 3c 0b e7 f3 bc 30 57 e8 bc db e1 c4 3c
       0.023858536 -0.029773256 -0.028361887 0.024033478
000370 a7 ac 26 3d e3 ba 14 3d ac cd 91 3b 43 8b 13 bd
       0.040691998 0.03631104 0.004449567 -0.036021482
000380 b0 42 f6 bc 73 a0 20 bd 30 5d 09 3b c4 0e 88 bc
       -0.030061096 -0.039215516 0.0020960085 -0.016608603
000390 7e 8b 9f 3c 50 57 32 3c 87 a8 87 3c 8c df a7 3a
       0.019475695 0.010885075 0.016559852 0.0012807711
0003a0 16 62 85 bc f9 22 ca 3c d2 30 bf 3b 17 d4 7e bc
       -0.016282123 0.02467488 0.0058346773 -0.015553496
0003b0 3f 22 29 3c 43 14 b2 bb 70 89 92 bc d1 bf d4 3c
       0.010323106 -0.0054345443 -0.017887801 0.025970371
0003c0 af 15 a0 3c b1 c8 22 3d e1 51 00 bd 60 12 c4 bc
       0.01954159 0.039742175 -0.031328086 -0.023934543
0003d0 e1 3e 01 3c e8 b1 df bc 7e 53 1e bd fc 5e 94 3b
       0.007888527 -0.027306512 -0.038653843 0.0045279246
0003e0 9f 82 07 3c 65 3e 31 3a ff b7 e2 3c c4 7a 11 bd
       0.008270889 0.00067613117 0.027675627 -0.03551747
0003f0 63 28 84 3a 2f 30 d6 bc e3 01 00 bd 1b 06 94 3b
       0.0010082837 -0.026146023 -0.0312518 0.0045173294

encoder.2.0.bias f4 [64]
000000 5a 14 00 3d 85 97 00 bd 00 2d 03 3c 73 50 94 3c
       0.03126941 -0.0313945 0.008006334 0.018104767
000010 d9 4b 80 bc d0 de 74 3c 1c b4 f9 bc f9 3e 07 3d
       -0.015661167 0.014945701 -0.03048139 0.03301904
000020 e7 24 c9 3c cc 6f 1a bd 9e 91 13 bc 87 29 cf 3c
       0.02455373 -0.037704274 -0.009006886 0.025288356
000030 a1 3c 8a 3b 6e 5f b8 3c 8d 6e 00 3c e2 63 17 bd
       0.0042186533 0.022506442 0.007838857 -0.03696049
000040 fc 74 00 bd a4 66 af bb fe 47 d7 bc af ea cf 3c
       -0.031361565 -0.005352812 -0.026279446 0.02538046
000050 a0 b3 bb 3c bd da e3 bc 97 bf ea bc a1 6c 49 3c
       0.0229128 -0.027814263 -0.02865581 0.012293966
000060 f4 d1 f9 3b 59 ad 08 bd 91 30 d9 bc 5e 4d b4 3b
       0.0076239053 -0.033368442 -0.026512416 0.005502387
000070 73 55 ed ba 55 3d 08 bd a3 a4 b9 3c b1 3c 00 bd
       -0.0018107131 -0.033261616 0.022661513 -0.03130788
000080 de ca bc bc 3a 7d 6e 3c af 82 6b 3a d9 71 53 3c
       -0.023045953 0.0145562235 0.0008984012 0.012905561
000090 71 2e 48 3c 69 44 08 bd 2d 0b ad 3b 27 4b d2 bb
       0.012218104 -0.033268366 0.0052808733 -0.0064176503
0000a0 07 b8 ad 3b d2 e9 88 3c fa 5a 82 3c 3a 95 32 bc
       0.005301479 0.016713057 0.015912522 -0.010899836
0000b0 d8 43 0b bc 79 f0 12 3d 34 c9 1e bd 8d 5d 0b bd
       -0.008500062 0.035873864 -0.0387661 -0.034024764
0000c0 b3 e3 04 3d 42 83 52 39 72 7a 39 bc c0 30 c5 b8
       0.032443713 0.00020076058 -0.011320697 -9.4027724e-05
0000d0 0f 5b d3 3c 50 af 17 bd 53 cf 5e bc ab e8 24 bc
       0.025800256 -0.037032425 -0.013599235 -0.010065238
0000e0 16 bc 6a ba 7b d7 0a bd 9a b6 3f 3c 50 b3 a0 39
       -0.00089544186 -0.033896904 0.01170125 0.00030651176
0000f0 a9 4b 0a bd 77 4f c9 bc 59 26 9e bc b9 58 19 bb
       -0.03376356 -0.024574025 -0.019305395 -0.002339883

encoder.2.1.weight f4 [64]
000000 72 2c 7f 3f 66 80 7e 3f b9 18 7f 3f b6 45 80 3f
       0.99677193 0.9941467 0.996471 1.0021274
000010 20 08 81 3f 56 65 7f 3f 8d bb 7d 3f a1 01 7e 3f
       1.0080605 0.99764 0.99114305 0.99221236
000020 a3 fb 7f 3f 1b a5 80 3f 8d 2c 7f 3f c5 61 7f 3f
       0.9999334 1.0050386 0.99677354 0.9975856
000030 65 04 81 3f 0a 5e 81 3f 65 c3 80 3f 02 fb 7e 3f
       1.0079466 1.0106823 1.005963 0.9960176
000040 64 bd 7f 3f 7c 08 80 3f 46 81 7d 3f 8a ff 7d 3f
       0.9989836 1.0002589 0.9902538 0.99218047
000050 aa c5 7f 3f 76 fa 7f 3f a5 1f 80 3f 3e 7f 80 3f
       0.99910986 0.9999155 1.0009657 1.0038831
000060 53 82 80 3f 8a 2e 80 3f a9 74 80 3f 0f 83 7f 3f
       1.0039772 1.0014203 1.0035602 0.99809355
000070 95 4b 82 3f 92 bb 80 3f fc 3b 81 3f fd e2 7d 3f
       1.0179316 1.0057242 1.0096431 0.9917448
000080 db 64 80 3f 1e a6 80 3f bd f5 7f 3f 93 eb 80 3f
       1.0030779 1.0050695 0.9998434 1.0071892
000090 96 be 7f 3f e7 3f 80 3f 75 41 7f 3f 87 e0 80 3f
       0.99900186 1.0019501 0.99709255 1.006852
0000a0 07 66 81 3f 22 a7 7d 3f f9 43 80 3f df 4c 80 3f
       1.0109261 0.9908315 1.0020744 1.0023459
0000b0 d6 30 80 3f aa 9d 80 3f d7 02 7f 3f 72 5a 7f 3f
       1.0014904 1.0048115 0.9961371 0.99747384
0000c0 82 fa 7f 3f d0 b2 7f 3f fd b1 80 3f 20 f1 80 3f
       0.9999162 0.9988222 1.0054318 1.0073586
0000d0 cf 4c 80 3f db d0 7e 3f 61 7c 7f 3f 5a 8e 7f 3f
       1.002344 0.9953744 0.9979916 0.99826586
0000e0 b8 ec 7e 3f 82 5f 7e 3f 3d 12 80 3f 91 53 7f 3f
       0.99579954 0.99364483 1.0005566 0.9973689
0000f0 26 51 7f 3f eb 28 80 3f f0 6d 7f 3f 1a 98 7e 3f
       0.997332 1.0012487 0.99777126 0.9945084

encoder.2.1.bias f4 [64]
000000 1a 8b ed bb 5d 44 89 bb ec 71 69 bb 22 21 c5 bb
       -0.007249248 -0.0041890577 -0.0035620881 -0.0060159126
000010 46 cf 42 bc 30 00 04 bc 13 a6 1d bc 0d e4 29 bc
       -0.011890238 -0.008056685 -0.009622115 -0.010369313
000020 90 93 72 ba 3e 95 9e bc 66 46 7b bb 73 e2 af bb
       -0.0009253556 -0.019358274 -0.0038341521 -0.005367571
000030 a3 3c 6b bc fe 29 76 bb d8 71 8a bc 81 0a 32 bc
       -0.014357719 -0.003756165 -0.016899988 -0.010866762
000040 6c 3f 65 b9 d4 44 3a bc a4 02 24 bc 83 08 8a bb
       -0.00021862768 -0.011368949 -0.010010395 -0.0042124405
000050 ad 40 34 bc 0b 62 aa bb dd 77 f6 bb 30 81 00 bb
       -0.011001748 -0.005199676 -0.007521613 -0.0019608252
000060 5e ec b5 bc a5 9c 2a bc b7 5b 01 bc d4 a3 d8 bb
       -0.022207435 -0.0104133235 -0.007895402 -0.0066113267
000070 f8 dd bb bc 71 04 c6 bb 9a d3 3c bc 1a cb 57 bc
       -0.022932991 -0.00604301 -0.011525059 -0.013170982
000080 1f bb d9 bb 18 1c 5c bc 1a 87 20 bc 04 80 b5 bc
       -0.006644621 -0.013434432 -0.009797836 -0.02215577
000090 01 c9 91 bb c5 6e 1d bc 5d 35 83 bb 10 d9 c8 bb
       -0.0044490104 -0.009608929 -0.004004164 -0.0061293915
0000a0 1d 90 62 bc d8 2e aa bb 91 f6 23 bc 71 63 f4 bb
       -0.013828305 -0.0051935725 -0.0100075165 -0.0074581434
0000b0 93 de da bb 5d 93 0c bc d0 23 f6 bb c8 a6 53 bc
       -0.006679365 -0.008580056 -0.0075115934 -0.012918182
0000c0 10 0d d5 bb 74 dd cb bb 78 39 99 bc 83 9a 78 bc
       -0.0065018013 -0.0062214676 -0.018704161 -0.015173557
0000d0 15 dd 1b bb 58 fb 8b bb 65 b2 f8 bb fb ae 1b bc
       -0.0023782898 -0.004271906 -0.0075896257 -0.009502168
0000e0 6c 9b 27 bc c3 75 35 bc ce 02 38 bc b3 e9 38 bc
       -0.010229927 -0.01107544 -0.011231137 -0.011286187
0000f0 14 13 af bb 0e cc 94 bb e3 ea 32 bc 45 c7 b3 bb
       -0.0053428505 -0.004540927 -0.010920259 -0.0054864013

encoder.2.1.running_mean f4 [64]
000000 59 40 88 be 75 ca 99 be 00 e9 98 3e ff 0a c6 3e
       -0.26611593 -0.30037275 0.29865265 0.38680264
000010 ec b3 9e 3e 17 62 2e 3f dc 3d 7c be 39 69 ec 3e
       0.30996644 0.68118423 -0.24632972 0.4617403
000020 12 bd c7 be 03 17 d6 3e e4 19 f3 be 2f 29 4f be
       -0.39011437 0.41814432 -0.4748069 -0.20230554
000030 31 a4 ed 3e 79 19 89 3e 68 d3 f5 3e f0 16 98 3d
       0.4641433 0.26777247 0.48012853 0.0742625
000040 91 43 ec be a5 d0 5b bc 59 47 28 bf bc 65 dc 3e
       -0.461453 -0.013416444 -0.6573387 0.43046367
000050 56 15 9b 3f 4f a0 a8 bd 87 23 19 3f 1e b5 b6 be
       1.2115886 -0.082337014 0.59819835 -0.35685056
000060 de 35 25 3f 86 a5 52 bf 2d 68 f9 3e ad 9d 03 bf
       0.6453532 -0.8228382 0.48712292 -0.5141247
000070 07 8d 20 3f c8 61 56 3e cd 24 a4 3e c4 e5 97 bf
       0.6271519 0.20935738 0.32059327 -1.1866994
000080 c1 25 45 be 81 f1 13 3e c8 d9 a6 3e 96 e8 83 3f
       -0.19252683 0.14447595 0.3258803 1.0305355
000090 95 9d dc 3e bd 26 21 3d 9b 83 ab 3d 40 52 3a 3e
       0.43088976 0.039343584 0.08374711 0.18195438
0000a0 94 3a a1 3e 86 79 0e bf eb dc 5e 3d 84 bd 04 be
       0.31490004 -0.5565418 0.054409903 -0.1296292
0000b0 97 4e c7 3e 13 a8 86 3e 52 b1 06 bf 50 da 6f 3d
       0.38927147 0.26300105 -0.5261432 0.05855781
0000c0 25 53 f2 3e c5 35 dd 3e f0 e6 66 3f c5 e4 17 3f
       0.4732906 0.43205085 0.9019613 0.5933345
0000d0 8a f3 26 be f9 14 4e bf 54 9c b0 be 24 a7 4f be
       -0.1630384 -0.8050075 -0.3449427 -0.20278603
0000e0 8e 57 e4 be 8d c8 06 3f 1e 10 00 3f 78 2a 64 3e
       -0.4459805 0.52649766 0.5002459 0.22281826
0000f0 9f de 9f 3d f3 a9 a0 3e 2d 11 32 3f 08 01 82 be
       0.078061335 0.3137966 0.6955746 -0.25391412

encoder.2.1.running_var f4 [64]
000000 9b 22 8d 3e fe c7 34 3e 73 10 8c 3e 42 5a 97 3e
       0.27565464 0.17654416 0.273563 0.2956105
000010 53 9d 85 3e 87 aa 5d 3e e3 f7 1e 3e 5d 0b 8b 3e
       0.2609659 0.21647082 0.15524249 0.27157107
000020 b1 87 95 3e bb e5 91 3e d3 e1 2c 3e b5 8e 76 3e
       0.29205087 0.28495583 0.1688302 0.24077876
000030 99 1b 55 3e 66 e7 29 3e 16 2d 79 3e 6f 83 7b 3e
       0.20811309 0.16592178 0.24333605 0.24561857
000040 aa b6 df 3e e4 21 71 3e a7 be 8b 3e 47 37 20 3f
       0.4369405 0.23548084 0.27293894 0.62584347
000050 52 7c 7e 3e de 17 60 3e 76 cd 62 3e c5 50 74 3e
       0.24852112 0.21884105 0.2214869 0.23858936
000060 21 9b ab 3e 74 2d 74 3e 14 43 95 3e 2b a3 4a 3e
       0.3351679 0.23845464 0.2915274 0.19788806
000070 b9 e5 06 3f 2d f8 fd 3d af 63 9d 3e 88 50 c2 3e
       0.5269428 0.124008514 0.30740115 0.37952065
000080 14 30 8d 3e 12 74 8a 3e 95 82 89 3e 33 49 dc 3e
       0.27575743 0.2704168 0.2685744 0.43024597
000090 bb 22 15 3e 61 2c 6c 3e 41 5d 2d 3e a6 47 64 3e
       0.1456403 0.23063804 0.16930105 0.22292957
0000a0 b5 ec ac 3e 4c ac b8 3e 28 bf 11 3e a9 92 8f 3e
       0.33774343 0.36068952 0.14233077 0.2804158
0000b0 66 91 6b 3e 5b 55 d2 3e f3 19 71 3e 63 f5 52 3e
       0.23004684 0.41080746 0.23545055 0.2060142
0000c0 3a 28 b5 3e d0 d6 4e 3e cf 2b 09 3f eb 66 aa 3e
       0.35382253 0.20199132 0.5358247 0.33281645
0000d0 4d 22 5a 3e 73 82 01 3f bb b1 78 3e 63 92 22 3e
       0.21302147 0.50589675 0.24286549 0.15876155
0000e0 e7 6f e6 3e 7e 3d 65 3e 18 2a 9f 3e b2 cf 65 3e
       0.4500725 0.22386739 0.31086802 0.2244251
0000f0 14 e1 98 3e f4 91 72 3e 90 cd 93 3e d5 79 62 3e
       0.2985922 0.23688489 0.2886777 0.22116788
