CatRecognition2/report/training_logs/ModelB/model.pth (torch, 613023 bytes, 30 tensors)

encoder.0.0.weight f4 [64, 3, 3, 3]
-0.1291941 -0.032597583 -0.10064319 0.0064157555 -0.1169648 -0.14000103 -0.08139132 -0.12564307
-0.026974658 -0.1701249 0.15990518 -0.0414931 -0.08314251 -0.013025031 0.118709065 -0.13415006
0.12674217 -0.03438533 -0.15742399 -0.020364841 0.14490625 -0.07746216 -0.053859465 0.10155615
-0.17276967 0.025384702 0.189653 -0.07575908 0.19326937 -0.052672874 -0.07784421 -0.059015576
0.16893373 -0.16115554 0.021179967 0.1350672 0.15618798 -0.15321006 -0.07074483 -0.07186074
0.18422379 -0.16402277 0.049691204 -0.02991453 0.18556115 0.122887135 -0.05972769 0.16560173
0.18066147 -0.0070662727 -0.1778441 0.03540668 0.068724506 -0.11287331 -0.049190458 0.16276655
0.1489432 -0.05889785 -0.11991324 -0.08992732 0.17246172 0.0073815896 -0.04289391 0.0003400339
0.02140937 0.13002259 0.116873585 0.013251637 0.12725589 -0.096054114 0.16222544 0.1495204
0.022281593 -0.12680396 0.075578734 0.021145638 -0.15350088 0.13654898 -0.017619697 -0.17436038
0.0168324 0.17791396 0.067419685 0.07905815 -0.047565717 0.014334712 -0.1605495 -0.12217874
0.123129934 0.1929391 -0.089851856 -0.13134253 0.11046489 -0.17407152 -0.13206457 0.18420786
-0.18468168 0.059925504 -0.13483092 -0.026424887 -0.008160555 0.06852982 0.020835917 -0.02352492
0.17021328 0.1001496 0.1721587 0.14501451 -0.066574425 -0.03122918 0.05609117 0.11811103
0.068352714 -0.103787445 0.06540858 0.10633345 0.09393553 -0.03837704 0.16828209 0.17506543
-0.1686021 -0.14060907 0.0020737608 -0.17410113 0.12682906 -0.13818125 -0.08431024 0.16924605
-0.031747203 -0.01157342 -0.13559186 0.13960078 0.0053677578 0.06418628 0.11414379 -0.11187613
0.15598571 0.07830742 -0.1294874 0.0055354275 0.039785594 -0.03868522 -0.0011099409 -0.088146314
-0.011057216 0.09632178 -0.027168345 0.093328156 0.09241289 -0.12345825 0.15564549 -0.11878551
0.063521154 -0.18727729 0.13274898 0.05660842 -0.04531083 -0.052902784 0.0903259 -0.09511916
-0.039414212 -0.031120613 -0.116257705 0.1551921 -0.09028904 0.07544673 0.12578702 0.17269216
-0.100359224 -0.094979234 -0.10830681 0.13725074 -0.019629382 0.09498364 -0.012037985 -0.055220194
-0.10597871 -0.11942312 -0.08311368 -0.11651556 0.068114795 -0.047647696 0.04523397 0.10930915
0.036469705 -0.11064021 0.14932671 -0.10886341 -0.025639843 0.014522534 -0.122243665 -0.12509193
0.18152277 -0.0970343 -0.054535527 0.038029626 -0.05708805 0.00027781804 -0.05653789 -0.085113905
-0.015735121 0.05353269 0.18746851 -0.18924226 -0.029115973 -0.10286819 -0.031851057 -0.05106053
0.041867215 0.0764112 -0.047660787 0.11706101 -0.17571782 -0.14557354 0.13946241 0.13674735
-0.11029066 -0.10003315 -0.15528418 0.052915964 0.09069259 0.0635458 -0.035105497 -0.103930406
0.16186717 0.006166833 0.07057044 -0.08463738 0.1290698 -0.047776762 -0.03250435 -0.077877365
0.1361386 0.10831368 0.0678847 -0.022518877 0.17271572 -0.111975424 0.1301486 0.16125774
0.06547847 0.17086941 -0.11060128 0.0011376729 -0.020665793 0.18420546 -0.10825065 -0.1776785
0.16286002 -0.14893629 -0.14924744 0.03385383 0.0127098365 0.15217318 -0.16999233 0.005325247
00000000: 754b 04be 0b85 05bd 041e cebd 423b d23b
00000010: 3e8b efbd 6e5c 0fbe 7eb0 a6bd 94a8 00be
00000020: f5f9 dcbc 3935 2ebe 2fbe 233e abf4 29bd
00000030: 9f46 aabd f166 55bc bd1d f33d a25e 09be
00000040: b3c8 013e a2d7 0cbd c133 21be 2bd4 a6bc
00000050: 4e62 143e 7ba4 9ebd be9b 5cbd acfc cf3d
00000060: 88ea 30be 94f3 cf3c 6534 423e 9427 9bbd
00000070: 68e8 453e 83bf 57bd c96c 9fbd 51ba 71bd
00000080: f7fc 2c3e f505 25be 9c81 ad3c 0e4f 0a3e
00000090: beef 1f3e 19e3 1cbe aae2 90bd b92b 93bd
000000a0: 29a5 3c3e 96f5 27be 0189 4b3d 510f f5bc
000000b0: be03 3e3e 40ac fb3d 06a5 74bd 8093 293e
000000c0: 52ff 383e 318c e7bb c41c 36be 9806 113d
000000d0: 6fbf 8c3d 1f2a e7bd ef7b 49bd 46ac 263e
000000e0: 9184 183e df3e 71bd 1395 f5bd d12b b8bd
000000f0: ce99 303e 43e1 f13b 86b1 2fbd 9446 b239
00000100: b462 af3c a424 053e 6b5b ef3d 651d 593c
00000110: 5e4f 023e 05b8 c4bd 6d1e 263e e01b 193e
00000120: e387 b63c e6d8 01be 06c9 9a3d 9e39 ad3c
00000130: 562f 1dbe 7fd3 0b3e 2f57 90bc 878b 32be
00000140: 1ae4 893c 142f 363e 5513 8a3d 3de9 a13d
00000150: 45d4 42bd 24dc 6a3c 1767 24be d938 fabd
00000160: 8c2b fc3d d491 453e 4004 b8bd a87e 06be
00000170: 6b3b e23d ce3f 32be ef3b 07be fca0 3c3e
00000180: 321d 3dbe 7274 753d 1e11 0abe 0179 d8bc
00000190: d9b3 05bc 5d59 8c3d 16b0 aa3c 55b7 c0bc
000001a0: 644c 2e3e 3c1b cd3d 5f4a 303e af7e 143e
000001b0: 2c58 88bd 56d4 ffbc dbbf 653d 32e4 f13d
000001c0: 82fc 8b3d 838e d4bd eff4 853d 5ac5 d93d
000001d0: 4561 c03d 3e31 1dbd 2452 2c3e 5a44 333e
000001e0: 07a6 2cbe d3fb 0fbe efe7 073b 9147 32be
000001f0: 7adf 013e 637f 0dbe d9aa acbd d64e 2d3e
00000200: 5b09 02bd 719e 3dbc 98d8 0abe 82f3 0e3e
00000210: 04e4 af3b 1974 833d 38c4 e93d 501f e5bd
00000220: b8ba 1f3e a45f a03d 5898 04be 8862 b53b
00000230: 38f6 223d 6574 1ebd 707b 91ba 0e86 b4bd
00000240: 5329 35bc 5a44 c53d 2690 debc d522 bf3d
00000250: f842 bd3d aed7 fcbd 8861 1f3e d145 f3bd
00000260: 6117 823d 9ec5 3fbe 59ef 073e 3bde 673d
00000270: d997 39bd 97b0 58bd c9fc b83d d6cd c2bd
00000280: cc70 21bd a8f0 febc 8518 eebd aeea 1e3e
00000290: 76e9 b8bd d183 9a3d 50ce 003e 37d6 303e
000002a0: 2389 cdbd 7984 c2bd f6cf ddbd 758b 0c3e
000002b0: cccd a0bc c886 c23d f83a 45bc 922e 62bd
000002c0: 5e0b d9bd 1c94 f4bd 8137 aabd b69f eebd
000002d0: c57f 8b3d 3b2a 43bd 4147 393d 7add df3d
000002e0: 4261 153d 5697 e2bd 1ae9 183e c8f3 debd
000002f0: a60a d2bc ecef 6d3c e35a fabd 1918 00be
00000300: 1be1 393e ebb9 c6bd a560 5fbd f4c4 1b3d
00000310: 29d5 69bd 1ba8 9139 4694 67bd 3350 aebd
00000320: f1e6 80bc 1845 5b3d bff7 3f3e b9c8 41be
00000330: 9f84 eebc 8fac d2bd 4176 02bd d924 51bd
00000340: f57c 2b3d 7a7d 9c3d f537 43bd afbd ef3d
00000350: 5fef 33be 3b11 15be 3ccf 0e3e 7f07 0c3e
00000360: 12e0 e1bd 2ede ccbd d102 1fbe 69be 583d
00000370: 09bd b93d 4d24 823d c8ca 0fbd 77d9 d4bd
00000380: 82c0 253e 2513 ca3b 3c87 903d 5d56 adbd
00000390: e02a 043e 91b1 43bd 4823 05bd 2b7e 9fbd
000003a0: eb67 0b3e 90d3 dd3d 2207 8b3d 8279 b8bc
000003b0: 64dc 303e 5f53 e5bd ad45 053e c020 253e
000003c0: 9319 863d 64f8 2e3e ed82 e2bd f81d 953a
000003d0: 4f4b a9bc 5ba0 3c3e 84b2 ddbd 5af1 35be
000003e0: c7c4 263e c182 18be 52d4 18be 50aa 0a3d
000003f0: eb3c 503c 49d3 1b3e 7812 2ebe 697f ae3b

encoder.0.0.bias f4 [64]
0.11797259 -0.016406957 0.04617941 -0.108021826 0.17669064 -0.1208363 -0.11417154 0.18075922
0.10285132 0.09047549 -0.064938955 0.021312295 -0.13061042 -0.17412916 0.06793946 -0.17670129
0.083921745 0.037594225 -0.0017429797 0.03911723 -0.13539647 -0.18677977 -0.013319846 -0.090715826
-0.061705183 0.06915529 0.17062923 -0.14415166 -0.025673175 0.0014954206 0.0994316 0.14729571
0.16662292 -0.027151385 0.1631216 -0.056063317 0.17761324 -0.11669023 -0.12555583 -0.11683319
0.16804083 -0.094629414 -0.108767666 0.13424581 -0.0878834 0.091576725 0.14585167 0.08322524
0.10234696 0.14919601 0.08008428 -0.013036084 0.16720818 0.17086096 0.034048755 0.07181668
-0.18485251 -0.14180009 -0.074245416 -0.057780456 0.16114393 -0.0060592834 0.08374506 0.027757477
00000000: 9d9b f13d e267 86bc 9f26 3d3d 8c3a ddbd
00000010: 64ee 343e 0679 f7bd c5d2 e9bd f218 393e
00000020: b6a3 d23d 374b b93d b7fe 84bd 1f97 ae3c
00000030: bdbe 05be ea4e 32be d823 8b3d 2ff1 34be
00000040: 2adf ab3d 67fc 193d b274 e4ba 6339 203d
00000050: 5fa5 0abe 3243 3fbe 7c3b 5abc 38c9 b9bd
00000060: 93be 7cbd 4aa1 8d3d 6eb9 2e3e 7e9c 13be
00000070: 8d50 d2bc fd01 c43a cba2 cb3d b0d4 163e
00000080: 339f 2a3e 956c debc 5909 273e a6a2 65bd
00000090: 3fe0 353e 4afb eebd b591 00be 3d46 efbd
000000a0: e512 2c3e 11cd c1bd 95c1 debd bc77 093e
000000b0: 36fc b3bd 948c bb3d 245a 153e ff71 aa3d
000000c0: 489b d13d d7c6 183e 3a03 a43d 4d95 55bc
000000d0: 9f38 2b3e 2df6 2e3e b576 0b3d a014 933d
000000e0: fa49 3dbe 0b34 11be fb0d 98bd 33ab 6cbd
000000f0: ea02 253e f48c c6bb 8882 ab3d a663 e33c

encoder.0.1.weight f4 [64]
1.0007725 1.000568 0.99391073 0.9973702 0.99817836 1.0107694 1.0012169 0.99972355
1.0000973 1.0055376 0.9978604 0.99316496 0.9978492 0.9973124 1.0029848 0.9978901
0.99905 1.0049127 0.99774784 1.0029619 0.99734116 0.9984018 0.99648887 0.9980236
0.99782795 0.9928515 1.0016059 1.0011309 0.99833703 0.99705243 1.0000052 1.0022702
0.9964321 0.99768776 1.0067933 1.0056562 0.99564147 0.9971845 0.9978427 0.9952911
1.0040387 1.0040779 0.9981611 0.9959482 0.9991492 1.0038835 0.9965849 0.9992571
1.0002712 1.0019492 1.0006676 1.0052184 0.99901056 0.9959154 1.0015783 1.010613
0.9986242 1.0007064 0.99752617 1.0012553 0.9985549 1.0013866 0.99904734 0.99755526
00000000: 5019 803f 9d12 803f ef70 7e3f a753 7f3f
00000010: 9e88 7f3f e460 813f e027 803f e2ed 7f3f
00000020: 3003 803f 75b5 803f c773 7f3f 0f40 7e3f
00000030: 0c73 7f3f de4f 7f3f ce61 803f ba75 7f3f
00000040: bec1 7f3f fba0 803f 676c 7f3f 0e61 803f
00000050: c051 7f3f 4397 7f3f e519 7f3f 7a7e 7f3f
00000060: a771 7f3f 842b 7e3f 9f34 803f 0f25 803f
00000070: 0493 7f3f d43e 7f3f 2c00 803f 644a 803f
00000080: 2d16 7f3f 7768 7f3f 9ade 803f 58b9 803f
00000090: 5ce2 7e3f 7c47 7f3f 9f72 7f3f 66cb 7e3f
000000a0: 5784 803f a085 803f 7c87 7f3f 76f6 7e3f
000000b0: 3ec8 7f3f 417f 803f 3020 7f3f 50cf 7f3f
000000c0: e308 803f df3f 803f e015 803f ffaa 803f
000000d0: 28bf 7f3f 50f4 7e3f b833 803f c45b 813f
000000e0: d6a5 7f3f 2617 803f e05d 7f3f 2229 803f
000000f0: 4ba1 7f3f 702d 803f 91c1 7f3f c85f 7f3f

encoder.0.1.bias f4 [64]
-0.00092140556 0.0007804634 -0.001572097 0.003490406 -0.0007812088 0.011919038 0.007094288 -0.0006074867
-0.004594316 0.019060684 -0.001092564 -0.003579134 -0.003523393 0.0049913484 0.0033517308 -0.0031941347
-0.003855947 -0.0043401006 -0.00013533521 -0.0013269879 -0.0016972445 0.002353685 0.0022290654 -0.000911395
0.005764264 0.00487076 -0.0020996295 0.00510772 -0.003153086 -0.0032069604 -0.006358661 0.009704043
-0.0029243215 -0.0018136317 0.0099709015 0.00092956447 -0.0010850386 0.004567766 -0.004169237 0.0057674316
0.008600716 0.009118208 0.004585506 0.0015796977 -0.0025857799 -0.0073831 0.0005226292 0.012466165
0.0020119143 0.008826784 -0.0014448479 0.011188021 0.0036363422 0.001821953 0.0055548414 0.009758033
-0.0005040737 0.0024052304 0.00016702455 -0.00010810115 0.0052628717 0.006187615 0.0052860896 0.0038037787
00000000: 7b8a 71ba 0398 4c3a d20e ceba 4cbf 643b
00000010: 09ca 4cba 1248 433c 3377 e83b be3f 1fba
00000020: ea8b 96bb 2725 9c3c 5d34 8fba e78f 6abb
00000030: bae8 66bb 778e a33b b6a8 5b3b b054 51bb
00000040: 0eb4 7cbb 6737 8ebb c5e8 0db9 53ee adba
00000050: 1376 deba 4840 1a3b 8315 123b afea 6eba
00000060: 27e2 bc3b e59a 9f3b f099 09bb a95e a73b
00000070: 01a4 4ebb de2b 52bb 515c d0bb b5fd 1e3c
00000080: f9a5 3fbb 62b7 edba fe5c 233c 04ae 733a
00000090: db37 8eba 33ad 953b 189e 88bb b9fc bc3b
000000a0: 04ea 0c3c 8964 153c 0342 963b dc0d cf3a
000000b0: 3076 29bb efed f1bb 0d01 093a e33e 4c3c
000000c0: 52da 033b 379e 103c 0d61 bdba f64d 373c
000000d0: b34f 6e3b 99ce ee3a 6305 b63b 28e0 1f3c
000000e0: d023 04ba 12a1 1d3b 5023 2f39 5db4 e2b8
000000f0: 2b74 ac3b 7ac1 ca3b ef36 ad3b d148 793b

encoder.0.1.running_mean f4 [64]
-0.1286844 0.08630039 0.20214212 0.008297655 0.27501437 -0.12988558 -0.15432222 0.06520691
0.24546395 0.07208921 -0.39555353 -0.10257598 -0.32368296 -0.2979239 -0.0087504145 -0.007835597
0.14739786 0.02908426 0.2134431 0.024931807 0.014550093 -0.34486654 0.37550887 -0.12512824
0.005721511 0.1798415 0.11409295 -0.21058945 -0.13389482 -0.046786126 0.01796745 0.19155614
0.19355144 0.38764206 0.15809578 -0.14824583 0.40998456 -0.06909812 -0.21509816 0.13802904
-0.0025339713 -0.17303243 0.017834246 0.20422374 -0.0733353 0.03094797 0.31170455 0.08389133
-0.007765916 0.14891602 -0.042552926 -0.04206325 -0.06812156 0.23152652 -0.08347403 0.059258394
-0.25149226 -0.19722767 -0.035348557 -0.3579244 0.14270826 -0.06844984 0.13037694 0.07693286
00000000: d8c5 03be 42be b03d 58fe 4e3e e3f2 073c
00000010: afce 8c3e ba00 05be a506 1ebe 338b 853d
00000020: e75a 7b3e 82a3 933d fe85 cabe 5b13 d2bd
00000030: c6b9 a5be 7b89 98be e65d 0fbc e060 00bc
00000040: 77ef 163e 1d42 ee3c d490 5a3e ca3d cc3c
00000050: 8363 6e3c 5992 b0be b342 c03e 9e21 00be
00000060: 837b bb3b 5f28 383e 91a9 e93d c3a4 57be
00000070: b91b 09be cfa2 3fbd 7930 933c 4b27 443e
00000080: 5932 463e 0579 c63e dce3 213e c1cd 17be
00000090: 7fe9 d13e 5183 8dbd b142 5cbe 7c57 0d3e
000000a0: fc10 26bb 6a2f 31be 2019 923c 0720 513e
000000b0: d130 96bd 9986 fd3c bd97 9f3e 38cf ab3d
000000c0: 3a79 febb 717d 183e fa4b 2ebd 844a 2cbd
000000d0: 5183 8bbd 4a15 6d3e 6ff4 aabd eeb8 723d
000000e0: 98c3 80be 0df6 49be a6c9 10bd de41 b7be
000000f0: 1d22 123e 6e2f 8cbd 8881 053e fa8e 9d3d

encoder.0.1.running_var f4 [64]
0.05999394 0.010913096 0.024960643 0.0155007355 0.010092475 0.0009856971 0.0031011172 0.013602684
0.02420812 0.002626094 0.11066074 0.016385129 0.038368527 0.01616447 0.006291612 0.027564568
0.004607047 0.0049454276 0.045261875 0.0042597326 0.025035977 0.024145942 0.14937696 0.0016149326
0.0070310435 0.0124629475 0.0046202373 0.0055956887 0.013032265 0.003246058 0.0075953207 0.0049392637
0.0013225126 0.17017111 0.0015183723 0.011096995 0.053190574 0.0029019883 0.008843845 0.06565379
0.028355725 0.0070462087 0.018973637 0.0060153464 0.0027946066 0.0052371947 0.029074423 0.0022598044
0.013781222 0.0016459213 0.015215265 0.0020038353 0.057614293 0.0038627854 0.015410691 0.0012798159
0.006315494 0.0050321054 0.0023418255 0.09494178 0.0051393327 0.0051569277 0.005033327 0.0032773677
00000000: 35bc 753d d8cc 323c 437a cc3c ccf6 7d3c
00000010: e95a 253c 8232 813a 1d3c 4b3b cbdd 5e3c
00000020: 1b50 c63c 8c1a 2c3b 19a2 e23d 1b3a 863c
00000030: 5128 1d3d 5a6b 843c de29 ce3b 17cf e13c
00000040: b6f6 963b 410d a23b 8464 393d 3a95 8b3b
00000050: 4018 cd3c b6cd c53c 46f6 183e 25ac d33a
00000060: ab64 e63b 6431 4c3c 5c65 973b 0a5c b73b
00000070: 4885 553c d1bb 543b 2be2 f83b 8cd9 a13b
00000080: 2958 ad3a 5641 2e3e 1f04 c73a 2cd0 353c
00000090: 5cde 593d 492f 3e3b c6e5 103c 7f75 863d
000000a0: 444a e83c e2e3 e63b 9a6e 9b3c 621c c53b
000000b0: b825 373b c69c ab3b 7c2d ee3c 3a19 143b
000000c0: a2ca 613c f4bb d73a 7249 793c c752 033b
000000d0: f7fc 6b3d c926 7d3b 1f7d 7c3c 7fbf a73a
000000e0: 34f2 ce3b 5ce4 a43b 5079 193b d670 c23d
000000f0: d967 a83b 72fb a83b 9bee a43b 1bc9 563b

encoder.1.0.weight f4 [64, 64, 3, 3]
0.016034069 0.010798992 0.010113339 0.0309272 0.034102377 0.004189677 0.0028941913 -0.016639657
-0.019904956 -0.006447838 0.032454684 -0.011838305 0.00043540055 -0.001284562 -0.041083854 -0.022229178
0.029767677 0.0030016548 -0.012993451 -0.040361103 -0.005516714 -0.0042299572 -0.030530844 0.007964948
0.014364804 -0.011979276 -0.01666694 0.0055678156 -0.03575011 0.03354701 0.023917083 -0.004315965
-0.04263269 0.017170958 0.009049454 -0.012478118 -0.00712837 -0.015981503 -0.032451995 0.034222387
0.030979156 -0.04109019 -0.018217102 -0.02434028 0.03623234 -0.028276216 -0.026197877 0.03081692
0.027797913 0.027251238 -0.03537028 0.042398702 0.044842783 -0.029531017 0.023821488 0.0035457572
0.01118312 -0.04049091 0.00635566 0.020481601 0.029968146 -0.004188864 -0.035780698 -0.026269501
-0.04265538 -0.012336502 0.013975162 -0.005734355 0.009903385 0.0018109941 -0.04227432 -0.03242656
-0.021588255 0.011853019 0.023928624 -0.037640527 0.026468737 -0.036011573 0.01125882 0.0015547294
-0.02848144 0.0075885504 0.017323248 -0.0049301893 0.042593338 -0.0033536728 0.03061418 0.0002712316
0.026033616 -0.00023171146 -0.039584365 0.0043767644 0.028375966 0.021064358 -0.0022484004 -0.022048313
0.008695589 -0.0014298849 -0.031533547 -0.021735296 0.021291016 0.040423635 0.036518525 -0.033522725
0.020045595 -0.023442762 -0.032766476 -0.0019044733 -0.020379387 0.032405972 -0.040275775 -0.042942245
-0.044670213 -0.00018902186 0.03904216 -0.014062901 -0.0053206575 0.037041605 0.022379935 -0.03717004
-0.01442934 0.032342102 -0.025609579 0.03792286 -0.008116249 -0.0023712947 0.016283723 -0.037329014
-0.000362836 0.0055548013 -0.018570844 -0.045010787 -0.039529763 -0.031288926 0.0010726723 0.03965683
9.110307e-05 -0.012668636 0.02971122 0.03793835 -0.010707649 0.016486501 -0.014649283 -0.02096202
0.021045076 0.018429307 0.015211713 0.025109714 0.024482615 0.035413552 0.01709821 0.037818823
0.030576386 0.032945473 0.018483056 -0.018769491 -0.02424134 -0.017159471 -0.014524494 0.007083738
0.03659958 0.018875817 0.028795833 0.03159614 -0.02980604 0.002279466 -0.031430174 0.00177254
0.028292073 -0.032485437 -0.01888918 -0.003952246 0.03708631 0.014162065 0.027694685 0.021359017
-0.01261786 -0.020631604 0.04365356 -0.035216663 0.04238306 -0.021318555 0.012927221 0.033826854
0.0016896556 -0.0061741094 0.041051596 -0.004768899 0.018222107 0.014668405 0.030539723 -0.03536849
0.029952453 -0.013330148 -0.0040793866 0.0061892527 0.0039459257 0.007276362 0.009646547 -0.035073053
0.028290495 0.0020520776 -0.036823194 -0.01167607 -0.010594473 -0.0051823505 0.025331214 0.0076453253
0.026421374 -0.023983674 0.040709123 -0.033826176 0.033882655 -0.02821981 -0.018854266 -0.004930962
0.010234623 -0.044506364 0.00031885464 0.032374695 0.036007777 -0.018475326 0.02933823 -0.011350443
0.03751181 0.026545858 -0.00050662406 0.0012413899 0.012487994 -0.02301764 -0.008763213 0.0319192
-0.0019766276 0.0077283895 0.0022454383 -0.012171183 -0.02445138 -0.0030230857 0.025096104 0.03452762
-0.0058246404 -0.041563574 -0.01657362 0.013610091 -0.011090402 -0.016046328 0.017185284 -0.033315826
-0.03410672 -0.015890503 -0.002394534 -0.017340548 -0.019700449 0.033175975 -0.019035602 0.006553265
00000000: e159 833c 41ee 303c 6bb2 253c 0a5b fd3c
00000010: efae 0b3d 8f49 893b 79ac 3d3b e44f 88bc
00000020: b80f a3bc 6348 d3bb 34ef 043d 73f5 41bc
00000030: 7946 e439 c05e a8ba 8b47 28bd f719 b6bc
00000040: 58db f33c 69b7 443b 7ce2 54bc af51 25bd
00000050: 8dc5 b4bb 749b 8abb d21b fabc 6a7f 023c
00000060: 5b5a 6b3c ba44 44bc 1b89 88bc 3972 b63b
00000070: b56e 12bd 9768 093d c2ed c33c f06c 8dbb
00000080: 9e9f 2ebd 1caa 8c3c 2944 143c 0571 4cbc
00000090: 1a95 e9bb a4eb 82bc 62ec 04bd c62c 0c3d
000000a0: 00c8 fd3c 304e 28bd 083c 95bc 4465 c7bc
000000b0: 5d68 143d 86a3 e7bc ee9c d6bc c473 fc3c
000000c0: 73b8 e33c fd3d df3c 6de0 10bd 43aa 2d3d
000000d0: 11ad 373d 08eb f1bc 4825 c33c ef5f 683b
000000e0: 6839 373c ccd9 25bd 2443 d03b 08c9 a73c
000000f0: c27f f53c bd42 89bb c88e 12bd 2333 d7bc
00000100: 68b7 2ebd 0a1f 4abc 14f8 643c 42e7 bbbb
00000110: cf41 223c e15e ed3a d627 2dbd b6d1 04bd
00000120: dad9 b0bc 2a33 423c f605 c43c f42c 1abd
00000130: f7d4 d83c df80 13bd ea76 383c 10c8 cb3a
00000140: e951 e9bc 60a9 f83b 7ce9 8d3c 6d8d a1bb
00000150: 5a76 2e3d 4bc9 5bbb 97ca fa3c 1734 8e39
00000160: 7344 d53c 92f7 72b9 3723 22bd f66a 8f3b
00000170: b774 e83c 298f ac3c e659 13bb aa9e b4bc
00000180: f277 0e3c fa6a bbba 5229 01bd 380e b2bc
00000190: 7f6a ae3c 4193 253d 7394 153d 204f 09bd
000001a0: a936 a43c 090b c0bc 2436 06bd 859f f9ba
000001b0: acf2 a6bc 20bc 043d 36f8 24bd 35e4 2fbd
000001c0: 1df8 36bd 2b34 46b9 acea 1f3d 1568 66bc
000001d0: e958 aebb f0b8 173d 2056 b73c 9d3f 18bd
000001e0: 0a69 6cbc 2779 043d 2ecb d1bc 0055 1b3d
000001f0: 04fa 04bc b967 1bbb 7165 853c 4fe6 18bd
00000200: 063b beb9 0d05 b63b e221 98bc 3b5d 38bd
00000210: f6e9 21bd d128 00bd e998 8c3a 336f 223d
00000220: 970e bf38 1c90 4fbc f264 f33c 3e65 1b3d
00000230: 236f 2fbc b30e 873c 8c03 70bc 8bb8 abbc
00000240: b966 ac3c 0ff9 963c 8c3a 793c e3b2 cd3c
00000250: c48f c83c cd0d 113d 8c11 8c3c e9e7 1a3d
00000260: 547b fa3c d5f1 063d c769 973c 7ac2 99bc
00000270: c695 c6bc 0592 8cbc 25f8 6dbc b41e e83b
00000280: 71e9 153d 75a1 9a3c 3de5 eb3c f46a 013d
00000290: cc2b f4bc 1863 153b edbc 00bd 9354 e83a
000002a0: c7c4 e73c 730f 05bd 7bbd 9abc d881 81bb
000002b0: d1e7 173d 0208 683c f7df e23c 1bf9 ae3c
000002c0: 24bb 4ebc 9c03 a9bc 13ce 323d 593f 10bd
000002d0: dc99 2d3d 40a4 aebc b2cc 533c 078e 0a3d
000002e0: 6f77 dd3a 2f50 cabb b825 283d 6d44 9cbb
000002f0: 8746 953c c053 703c 712e fa3c 8dde 10bd
00000300: d95e f53c b166 5abc 60ac 85bb 37cf ca3b
00000310: d34c 813b 8c6e ee3b 8d0c 1e3c c3a8 0fbd
00000320: 78c1 e73c 267c 063b ebd3 16bd fd4c 3fbc
00000330: 7194 2dbc b5d0 a9bb 6883 cf3c a385 fa3b
00000340: a371 d83c 6979 c4bc 9cbe 263d 518d 0abd
00000350: 8ac8 0a3d 3b2d e7bc 4374 9abc e893 a1bb
00000360: 1faf 273c 4e4c 36bd f22b a739 549b 043d
00000370: e47c 133d 9159 97bc ba56 f03c 35f7 39bc
00000380: fca5 193d b376 d93c f7ce 04ba 22b6 a23a
00000390: 719a 4c3c 7d8f bcbc 9493 0fbc b5bd 023d
000003a0: 4f8a 01bb 6e3e fd3b 3428 133b a469 47bc
000003b0: 434e c8bc f61e 46bb 5896 cd3c d56c 0d3d
000003c0: a0dc bebb 913e 2abd 66c5 87bc dcfc 5e3c
000003d0: 84b4 35bc 9773 83bc 27c8 8c3c 2d76 08bd
000003e0: 7db3 0bbd cd2c 82bc 9ded 1cbb c40d 8ebc
000003f0: d662 a1bc 88e3 073d 8df0 9bbc c5bc d63b

encoder.1.0.bias f4 [64]
0.003891382 0.034607448 0.01865039 0.026084917 -0.034697384 0.032741796 0.021651383 0.021756224
-0.010555894 -0.03294034 -0.03737065 0.040958557 0.0029282903 0.044070452 0.034818854 0.023070265
0.04410049 0.030136758 -0.03444901 0.033241168 0.0045472644 -0.0038017232 -0.032387666 -0.027122417
-0.019945147 0.0063124965 -0.034320768 0.039933514 0.032360084 -0.035714354 0.029085374 -0.018245151
0.0026545024 0.00059240026 -0.014807592 -0.035033215 0.022827914 -0.028689254 0.015623263 0.027988292
0.04085392 -0.026220588 -0.03615065 -0.042043287 -0.027725397 0.039165378 -0.04432931 0.018195644
-0.0104853595 -0.03753717 -0.0034145222 -0.027759533 -0.026842004 -0.026034262 -0.004548193 -0.02195914
0.01149448 0.004187379 -0.027678832 -0.03453641 0.0038544778 0.0050196564 0.00644383 0.036630467
00000000: 8e06 7f3b 8ac0 0d3d b4c8 983c 09b0 d53c
00000010: d81e 0ebd 431c 063d 3e5e b13c 1c3a b23c
00000020: a1f2 2cbc 73ec 06bd f711 19bd 29c4 273d
00000030: 8fe8 3f3b 3883 343d 379e 0e3d dafd bc3c
00000040: b7a2 343d 5de1 f63c 681a 0dbd e427 083d
00000050: 3801 953b 5526 79bb eea8 04bd d52f debc
00000060: 0164 a3bc 0fd9 ce3b ef93 0cbd 5391 233d
00000070: 028c 043d 3749 12bd 7344 ee3c db76 95bc
00000080: 29f7 2d3b 4f4b 1b3a 8b9b 72bc fd7e 0fbd
00000090: 9b01 bb3c ba05 ebbc b7f8 7f3c b447 e53c
000000a0: 7156 273d 8fcc d6bc b412 14bd 9535 2cbd
000000b0: 5f20 e3bc e06b 203d a792 35bd 080f 953c
000000c0: c9ca 2bbc 93c0 19bd 2dc6 5fbb f667 e3bc
000000d0: c3e3 dbbc ce45 d5bc 0209 95bb a8e3 b3bc
000000e0: 5853 3c3c 4836 893b b8be e2bc 0d76 0dbd
000000f0: 689b 7c3b ee7b a43b c426 d33b d409 163d

encoder.1.1.weight f4 [64]
0.9975297 1.0003204 1.001146 0.9946212 1.009054 1.0060538 1.0013102 1.0018622
1.0013443 0.99401927 1.0047182 0.9994427 0.9979958 1.0110763 1.0052958 1.0011467
1.0016251 0.99532 1.0033324 0.9981097 0.9944763 0.9996491 0.9967464 1.0013078
1.0025976 0.9967975 1.006831 1.0023092 1.0019699 0.9948201 0.99865705 1.0044546
1.0011138 1.0000216 1.0031874 0.9976059 0.99177885 1.000413 0.99877816 0.99959284
0.996297 0.9989232 0.9987342 0.9995393 1.0040112 1.0022212 0.99545604 0.9991008
0.99971133 1.0007126 1.0014874 1.0008801 0.9991783 0.9985078 0.99927264 0.9977383
0.9954392 1.000796 1.0015144 0.9975195 1.000956 1.0027877 1.0040083 1.0010982
00000000: 1b5e 7f3f 800a 803f 8d25 803f 7f9f 7e3f
00000010: ae28 813f 5fc6 803f ef2a 803f 053d 803f
00000020: 0d2c 803f 0c78 7e3f 9b9a 803f 7adb 7f3f
00000030: a77c 7f3f f36a 813f 88ad 803f 9325 803f
00000040: 4035 803f 4bcd 7e3f 326d 803f 1e84 7f3f
00000050: 0096 7e3f 01e9 7f3f c62a 7f3f db2a 803f
00000060: 1e55 803f 1f2e 7f3f d7df 803f ab4b 803f
00000070: 8d40 803f 88ac 7e3f fda7 7f3f f891 803f
00000080: 7f24 803f b500 803f 7268 803f 1a63 7f3f
00000090: 38e5 7d3f 880d 803f edaf 7f3f 51e5 7f3f
000000a0: 520d 7f3f 6eb9 7f3f 0bad 7f3f cfe1 7f3f
000000b0: 7083 803f c948 803f 35d6 7e3f 12c5 7f3f
000000c0: 15ed 7f3f 5a17 803f bd30 803f d71c 803f
000000d0: 26ca 7f3f 359e 7f3f 55d0 7f3f c76b 7f3f
000000e0: 1ad5 7e3f 151a 803f a031 803f 705d 7f3f
000000f0: 541f 803f 595b 803f 5883 803f fc23 803f

encoder.1.1.bias f4 [64]
0.0007730558 0.00017119444 -0.005818995 -0.0016461161 0.0031098062 0.0053785173 0.0024700193 0.0010954697
0.0017907255 -0.00027873224 0.00080390484 -0.0020335356 -0.006599277 0.0073352684 0.0023147266 -0.0013111959
-0.0047171987 -0.0027791313 0.0022269962 0.0004313897 -0.0013696961 -0.0006634661 0.00071549596 -0.0029674598
0.003718132 -0.0040114243 0.0043209977 -0.00065614603 -0.0008054227 -0.00060667086 -0.0014621603 0.0008672407
-0.003274868 0.0033026943 0.005464664 -0.0062266486 -0.005799347 0.0025942558 -0.00033313033 -0.003153278
-0.0013870817 0.0018516305 -0.0004659425 0.0071311924 0.0045978185 -0.0028629818 -0.0032944158 -0.0022376697
0.0031553903 -0.0017678213 -0.0002692895 -0.0010780946 -0.009396182 -0.0040848213 -0.00619841 -0.0024288413
-0.0033750765 0.0013045173 0.002687668 0.002538124 -0.006586613 -0.003960803 -0.0012451696 -0.0022833196
00000000: e6a6 4a3a a882 3339 45ad bebb 7ec2 d7ba
00000010: e4cd 4b3b 463e b03b 0ce0 213b dd95 8f3a
00000020: c7b6 ea3a cf22 92b9 24bd 523a 1145 05bb
00000030: bf3e d8bb b15c f03b abb2 173b 6fdc abba
00000040: bb92 9abb 1622 36bb ccf2 113b 252c e239
00000050: 6087 b3ba 75ec 2dba 1f90 3b3a b779 42bb
00000060: e7ab 733b 4472 83bb 2897 8d3b 3701 2cba
00000070: 0123 53ba fe08 1fba f5a5 bfba 8a57 633a
00000080: 2b9f 56bb 0472 583b ed10 b33b ea08 ccbb
00000090: 7308 bebb 6404 2a3b ffa7 aeb9 3aa7 4ebb
000000a0: bdce b5ba 69b2 f23a be49 f4b9 c7ac e93b
000000b0: 4ca9 963b dda0 3bbb 20e7 57bb dea5 12bb
000000c0: aaca 4e3b 3db6 e7ba 6d2f 8db9 da4e 8dba
000000d0: 72f2 19bc f7d9 85bb 081c cbbb 322d 1fbb
000000e0: 6330 5dbb 56fc aa3a 9623 303b a856 263b
000000f0: 84d4 d7bb a0c9 81bb f534 a3ba bfa3 15bb

encoder.1.1.running_mean f4 [64]
-0.46697 -0.6325004 -0.799179 0.21116006 -0.7615729 -0.5399751 -0.19783807 -0.683259
-0.6698106 -0.17630713 -0.4776556 -0.26062486 0.110566914 -0.1270363 0.0073257256 -0.57217807
0.9268851 0.3544932 -0.2518168 0.6822708 -0.7838609 -0.48965254 -0.43173108 0.49548542
-0.23188734 0.44795212 -0.3800425 -0.29068854 -0.4075803 0.24816641 -0.29112428 -0.4447778
-0.3678385 -0.22319038 -0.73847085 -0.87337387 -0.31105524 -0.3113027 -0.5260312 -0.65923095
-0.6170437 -0.6190012 -0.7335567 0.22529742 -0.6288717 0.92466736 0.62747633 -0.3088231
0.39710924 -0.5090622 -0.6993196 -0.4097344 -0.671846 -0.48555443 0.24203329 0.28060868
-0.25522104 0.9053144 -0.6964593 0.4244598 -0.60155284 -1.064192 0.1473692 -0.66948897
00000000: b116 efbe 8ceb 21bf ff96 4cbf 583a 583e
00000010: 71f6 42bf cf3b 0abf 1096 4abe 10ea 2ebf
00000020: b578 2bbf db89 34be 468f f4be 9f70 85be
00000030: e870 e23d ce15 02be a40c f03b 437a 12bf
00000040: 5848 6d3f 2280 b53e 22ee 80be 4da9 2e3f
00000050: 1cab 48bf bdb3 fabe db0b ddbe 44b0 fd3e
00000060: e073 6dbe fb59 e53e ee94 c2be 21d5 94be
00000070: 5dae d0be 561f 7e3e 3e0e 95be eab9 e3be
00000080: 5455 bcbe 058c 64be 6d0c 3dbf 6e95 5fbf
00000090: a242 9fbe 1163 9fbe fba9 06bf 5cc3 28bf
000000a0: 93f6 1dbf dd76 1ebf 5fca 3bbf 5eb4 663e
000000b0: bcfd 20bf 00b7 6c3f 4aa2 203f 101e 9ebe
000000c0: e751 cb3e e651 02bf 9c06 33bf b5c8 d1be
000000d0: 19fe 2bbf 979a f8be 93d7 773e f1ab 8f3e
000000e0: 55ac 82be afc2 673f 284b 32bf cb52 d93e
000000f0: 5eff 19bf 7237 88bf f4e7 163e a163 2bbf

encoder.1.1.running_var f4 [64]
0.15911022 0.21652819 0.23270148 0.6603501 0.24111213 0.13673088 0.09411032 0.28444055
0.22503273 0.20456646 0.06551466 0.1769412 0.26886377 0.09589331 0.272934 0.27931026
0.2381567 0.2070059 0.46509543 0.23618646 0.4740079 0.11754305 0.18283032 0.25295553
0.10933614 0.20941567 0.12454958 0.1982641 0.16597793 0.8269075 0.47551626 0.23851551
0.07833662 0.09084993 0.19154727 0.19677103 0.3504072 0.30956775 0.26094538 0.5630249
0.5012235 0.3875858 0.120231725 0.36032555 0.117496446 0.27641785 0.8812026 0.15262826
0.29394853 0.44912505 0.26645982 0.220702 0.16371414 0.78120804 0.12271369 0.46845743
0.29348364 0.2581432 0.6680655 1.2572088 0.4350703 0.3483803 0.18245889 0.17406133
00000000: caed 223e 91b9 5d3e 4c49 6e3e b40c 293f
00000010: 19e6 763e 2e03 0c3e e9bc c03d 31a2 913e
00000020: fb6e 663e df79 513e 8d2c 863d 1330 353e
00000030: 83a8 893e b663 c43d 01be 8b3e c101 8f3e
00000040: 5adf 733e 5bf9 533e fd20 ee3e ddda 713e
00000050: 2ab1 f23e 69ba f03d df37 3b3e 6383 813e
00000060: a0eb df3d 1071 563e da13 ff3d bf05 4b3e
00000070: 1ef6 293e 36b0 533f de76 f33e 693d 743e
00000080: f36e a03d 870f ba3d f824 443e 587e 493e
00000090: 9368 b33e aa7f 9e3e a29a 853e 6622 103f
000000a0: 2f50 003f a571 c63e 0d3c f63d 977c b83e
000000b0: faa1 f03d a486 8d3e 7e96 613f 954a 1c3e
000000c0: 6c80 963e b8f3 e53e 6c6d 883e b5ff 613e
000000d0: aea4 273e 40fd 473f 5151 fb3d a7d9 ef3e
000000e0: 7d43 963e 582b 843e 5706 2b3f 38ec a03f
000000f0: 89c1 de3e e75e b23e 81d6 3a3e 223d 323e

encoder.2.0.weight f4 [64, 64, 3, 3]
0.021103302 -0.010698416 -0.0025789908 -0.03958465 0.011532573 -0.010932193 -0.031840697 0.039685532
-0.017319364 0.009249852 0.0034757538 -0.035263725 -0.03781016 0.03494954 0.036375713 -0.040863857
0.008074391 0.006009937 -0.0034968748 0.027998192 -0.029788228 0.03664116 -0.019816693 0.012890181
0.00026415082 0.033557653 0.034795135 0.027951222 0.018551772 -0.015300737 -0.027576819 0.004303959
0.021307504 0.016035074 0.008104139 0.009477751 0.011567727 0.016815364 0.019976124 0.009350234
-0.032280583 0.000109315624 -0.029335462 -0.029481858 0.009789151 -0.022822239 0.006402875 0.02422678
-0.03751898 0.018980345 0.02512382 0.0063777063 -0.025812067 0.0031135255 -0.022359267 0.031796653
0.0053720362 0.0011502206 0.03018513 -0.037272908 -0.026629286 -0.042217646 0.015405905 0.013582617
-0.02839195 -0.043464504 -0.0042104935 -0.029177628 -0.043630093 0.022430185 0.04083404 -0.0067631225
-0.027698109 -0.025439795 0.026408682 0.0038024953 0.0067570955 0.009704388 0.008183045 -0.008640145
-0.0020126994 0.0101642255 0.0076169986 0.003046436 0.024208983 0.034610126 0.014734219 -0.010687351
-0.019935587 0.034080878 0.0064789024 -0.00634024 -0.01842134 -0.036574706 -0.0038009349 0.033824425
-0.012023785 -0.004266353 -0.01909124 0.008506516 -0.025349258 -0.023277234 -0.015929554 0.007685181
-0.026352782 0.007146248 -0.0039442135 0.017718928 0.008613921 0.014288504 0.0055420455 0.0024697823
-0.0021815149 0.03248241 -0.00680022 0.002611257 0.040534753 0.019411346 0.0021937755 0.014860829
0.018429365 0.035811536 -0.03193728 -0.04069979 0.014234386 -0.040802777 0.0015414524 0.03284484
0.005641857 -0.031046906 0.0061626616 0.026810568 -0.014192978 0.011235554 -0.0005861794 -0.029694503
0.024117919 0.032102462 -0.01971821 -0.0033155726 -0.034951087 -0.015678296 -0.013778776 -0.0053434903
0.04017595 0.026059072 0.035319414 -0.009463121 -0.027787883 0.020831862 0.025331693 -0.0018094032
-0.011512319 0.0048302407 -0.015257993 0.0015114675 0.0013636261 -0.020084975 0.027404368 0.0029337762
-0.024459997 0.00025606347 -0.02709506 0.020415308 0.039188765 0.016517933 0.004030381 -0.031954143
0.0065704403 0.0069265314 -0.014335838 -0.009099387 -0.018985314 0.036234032 -0.018035289 0.015403153
0.040394276 -0.035331354 -0.031633545 0.020227756 0.024365373 -0.01468888 0.02984644 0.0094061885
-0.04116869 0.039529465 -0.023478154 -0.03290453 -0.012126185 0.03494632 0.00017255971 -0.017354582
-0.011557724 -0.02164765 -0.026986508 0.006250716 -0.017158356 0.03275745 0.015508403 0.00034137262
-0.0062156427 0.023611097 0.008864563 -0.0017512497 -0.009793092 0.026006185 -0.004585271 0.011200025
-0.018392524 0.0054204706 -0.027410135 -0.0030566233 -0.015446765 -0.023250135 -0.028830988 -0.0028610947
-0.020402633 -0.0055971523 0.011576962 0.0014074888 0.030918175 0.025475726 -0.0048568314 -0.021892251
-0.037081107 -0.030956652 -0.00643396 -0.029197805 -0.015303382 0.009769448 -0.029740943 -0.0011425199
0.011553091 0.027220046 -0.020564266 -0.032148547 -0.015437056 0.0396662 -0.0011529872 -0.009849475
-0.0066938046 -0.006535465 -0.035100807 0.031400405 0.005022852 -0.0026346024 -0.0025730187 0.02063781
0.006353404 -0.011957395 0.03424991 -0.031321105 0.0058683474 0.034771662 -0.017591512 0.022761265
00000000: d5e0 ac3c 6948 2fbc 4904 29bb 8423 22bd
00000010: 1ef3 3c3c f11c 33bc 646b 02bd 4c8d 223d
00000020: 57e1 8dbc b18c 173c 79c9 633b b270 10bd
00000030: d4de 1abd 4027 0f3d b3fe 143d dc60 27bd
00000040: 734a 043c 01ef c43b d32b 65bb 775c e53c
00000050: 7106 f4bc 0a15 163d 9e56 a2bc 5631 533c
00000060: b97d 8a39 c073 093d 5885 0e3d f6f9 e43c
00000070: e3f9 973c f1af 7abc c8e8 e1bc 3a08 8d3b
00000080: 138d ae3c fd5b 833c 39c7 043c 9248 1b3c
00000090: 9086 3d3c 60c0 893c f8a4 a33c b931 193c
000000a0: a538 04bd 6140 e538 ec50 f0bc f083 f1bc
000000b0: ad62 203c b4f5 babc 35cf d13b 3d77 c63c
000000c0: 81ad 19bd ab7c 9b3c 78d0 cd3c 14fc d03b
000000d0: d473 d3bc 4a0c 4c3b c82a b7bc 353d 023d
000000e0: e807 b03b 00c3 963a ce46 f73c 7aab 18bd
000000f0: a925 dabc 69ec 2cbd 0d69 7c3c a089 5e3c
00000100: 3c96 e8bc d607 32bd 2ef8 89bb ec05 efbc
00000110: 78b5 32bd 82bf b73c 9841 273d 2f9d ddbb
00000120: 25e7 e2bc 1e67 d0bc 0557 d83c 4933 793b
00000130: a06a dd3b 27ff 1e3c 2e12 063c 658f 0dbc
00000140: 7ee7 03bb da87 263c 0498 f93b b7a6 473b
00000150: eb51 c63c 59c3 0d3d cb67 713c 001a 2fbc
00000160: f54f a3bc 6498 0b3d f94c d43b cac1 cfbb
00000170: 5ae8 96bc 5ccf 15bd 1b19 79bb 7b8b 0a3d
00000180: 69ff 44bc c3cc 8bbb 3b65 9cbc ea5e 0b3c
00000190: 3fa9 cfbc e6af bebc b27e 82bc f9d3 fb3b
000001a0: cae1 d7bc 132b ea3b 763e 81bb 4927 913c
000001b0: 6721 0d3c 541a 6a3c 0c9a b53b 12dc 213b
000001c0: bff7 0ebb 470c 053d 61d4 debb 9f21 2b3b
000001d0: c507 263d 8b04 9f3c 72c5 0f3b d67a 733c
000001e0: 2ef9 963c 1eaf 123d aad0 02bd d3b4 26bd
000001f0: 5837 693c d020 27bd 8f0a ca3a 5088 063d
00000200: 54df b83b 1556 febc 27f0 c93b d6a1 db3c
00000210: aa89 68bc 5415 383c d5a9 19ba e341 f3bc
00000220: f192 c53c df7d 033d 1588 a1bc 144a 59bb
00000230: df28 0fbd c56f 80bc 60c0 61bc 7218 afbb
00000240: 898f 243d d679 d53c 17ab 103d 350b 1bbc
00000250: 6aa3 e3bc 95a7 aa3c 6984 cf3c 7f29 edba
00000260: 2a9e 3cbc ff46 9e3b a9fc 79bc 6f1c c63a
00000270: b3bb b23a 3f89 a4bc 207f e03c 9944 403b
00000280: 5560 c8bc 4240 8639 76f6 ddbc 013e a73c
00000290: 6684 203d 9e50 873c 4911 843b 59e2 02bd
000002a0: d94c d73b f5f7 e23b dde0 6abc 9815 15bc
000002b0: 1787 9bbc 236a 143d bebe 93bc 825d 7c3c
000002c0: 7874 253d 9cb7 10bd 2d92 01bd aeb4 a53c
000002d0: e499 c73c a1a9 70bc 8580 f43c 6a1c 1a3c
000002e0: 80a0 28bd a6e9 213d 4255 c0bc e7c6 06bd
000002f0: e8ac 46bc df23 0f3d 25f1 3439 322b 8ebc
00000300: 9c5c 3dbc 6a56 b1bc cf12 ddbc ced2 cc3b
00000310: ae8f 8cbc ad2c 063d f516 7e3c 42fa b239
00000320: 97ac cbbb 0f6c c13c ac3c 113c 308a e5ba
00000330: 3473 20bc ec0a d53c 0a40 96bb 4f80 373c
00000340: ebab 96bc 349e b13b 388b e0bc a151 48bb
00000350: 6e14 7dbc 1177 bebc f72e ecbc 3481 3bbb
00000360: 6c23 a7bc 5168 b7bb 4cad 3d3c 7d7b b83a
00000370: 1d48 fd3c 78b2 d03c 0e26 9fbb 6157 b3bc
00000380: 5ce2 17bd ce98 fdbc f8d3 d2bb 3c30 efbc
00000390: 09bb 7abc 0910 203c 47a3 f3bc 9bc0 95ba
000003a0: 2d49 3d3c 93fc de3c 6476 a8bc 32ae 03bd
000003b0: b5eb 7cbc 0679 223d d51f 97ba b15f 21bc
000003c0: b457 dbbb 7427 d6bb ddc5 0fbd b69d 003d
000003d0: bd96 a43b 4ba9 2cbb 17a0 28bb a010 a93c
000003e0: 3730 d03b f3e8 43bc a249 0c3d 8f4a 00bd
000003f0: 444b c03b bb6c 0e3d 131c 90bc d575 ba3c

encoder.2.0.bias f4 [64]
-0.011865735 0.021012986 -0.019069009 0.0151219135 -0.012829808 -0.028354084 -0.00017220636 0.0044130543
-0.01895533 0.031237211 0.0076388856 -0.026362283 -0.027582854 0.027149495 0.004507701 -0.039470963
-0.034359135 0.02460877 0.033228662 -0.030107027 0.022845242 -0.024025772 -0.016026681 0.031977378
-0.01463026 -0.021686042 0.010746367 -0.032378383 0.021622049 0.025622169 -0.0069607478 -0.007453614
8.0392674e-05 0.004444283 0.011740025 0.043844014 -0.002701408 0.03951281 -0.014517638 -0.0036120603
0.03552466 -0.0034998837 0.0009375682 0.015254939 0.03171279 -0.029959945 -0.018624285 -0.0035035624
0.028527766 -0.0028262974 0.0005578447 -0.03567382 -0.0030007383 -0.037060115 0.022930633 0.008606882
0.006118695 -0.0214749 0.0022813063 -0.00032868734 0.037015133 -0.029093562 0.021588717 -0.029114021
00000000: 8068 42bc 6d23 ac3c 9c36 9cbc e7c1 773c
00000010: 1d34 52bc d346 e8bc 4b92 34b9 629b 903b
00000020: 3548 9bbc 2ee5 ff3c 9e4f fa3b b7f5 d7bc
00000030: 70f5 e1bc 9e68 de3c 56b5 933b 4eac 21bd
00000040: 2abc 0cbd 5598 c93c c71a 083d 03a3 f6bc
00000050: f225 bb3c b2d1 c4bc 634a 83bc b6fa 023d
00000060: c2b3 6fbc eda6 b1bc 8811 303c 329f 04bd
00000070: b920 b13c 95e5 d13c fc16 e4bb 723d f4bb
00000080: 7d98 a838 59a1 913b 3c59 403c c895 333d
00000090: 1b0a 31bb 2fd8 213d 63db 6dbc 51b8 6cbb
000000a0: 4e82 113d 4e5e 65bb 23c7 753a daef 793c
000000b0: 45e5 013d 8f6e f5bc f591 98bc 069c 65bb
000000c0: 10b3 e93c 6739 39bb 533c 123a b61e 12bd
000000d0: 09a8 44bb 59cc 17bd 06d9 bb3c e103 0d3c
000000e0: 557f c83b 21ec afbc f881 153b ab53 acb9
000000f0: 2e9d 173d 9f55 eebc d2da b03c 8780 eebc

encoder.2.1.weight f4 [64]
1.0067443 0.9986118 0.9973938 1.0005786 0.9990295 1.0003633 1.0069228 1.002145
1.0038222 1.0091631 0.99492455 0.9966738 1.0037076 1.000031 0.9993097 1.000998
0.99895734 1.0000459 1.0019574 0.99710554 0.9951221 0.9979989 0.9993406 0.9995297
1.0014161 0.991813 1.0032204 1.0018934 1.0079856 0.99833983 1.0006593 1.0012162
0.9989009 0.9988258 0.99683684 1.0025072 1.0016842 1.0036696 0.99779594 0.9979495
1.002725 0.99946094 0.9925333 1.0041544 0.996646 1.0012777 1.0027821 0.99723136
1.0052911 1.0027446 0.9959175 1.001014 1.0048087 0.99394494 1.0029655 1.0011721
1.0032957 0.9959917 1.0058489 1.0072652 1.0022382 1.0008061 0.99396664 1.0024216
00000000: ffdc 803f 06a5 7f3f 3355 7f3f f612 803f
00000010: 66c0 7f3f e80b 803f d9e2 803f 4a46 803f
00000020: 3f7d 803f 422c 813f 60b3 7e3f 0426 7f3f
00000030: 7e79 803f 0401 803f c3d2 7f3f b420 803f
00000040: abbb 7f3f 8101 803f 2440 803f 4f42 7f3f
00000050: 52c0 7e3f db7c 7f3f c9d4 7f3f 2ee1 7f3f
00000060: 672e 803f 75e7 7d3f 8769 803f 0b3e 803f
00000070: ac05 813f 3393 7f3f 9b15 803f da27 803f
00000080: f8b7 7f3f 0cb3 7f3f b330 7f3f 2852 803f
00000090: 3037 803f 3f78 803f 8e6f 7f3f 9e79 7f3f
000000a0: 4b59 803f acdc 7f3f aa16 7e3f 2288 803f
000000b0: 3124 7f3f de29 803f 2a5b 803f 8e4a 7f3f
000000c0: 61ad 803f ef59 803f 73f4 7e3f 3a21 803f
000000d0: 929d 803f 2d73 7e3f 2c61 803f 6826 803f
000000e0: fe6b 803f 50f9 7e3f a8bf 803f 11ee 803f
000000f0: 5749 803f 6a1a 803f 9974 7e3f 5a4f 803f

encoder.2.1.bias f4 [64]
0.0011554253 0.00010563227 -0.004348305 -0.00079279335 -0.004261479 -0.00021748147 -0.0018539063 -0.0046724794
0.011531686 -0.00698764 -0.00013794616 -0.0030958205 -0.0014324469 -0.0025543005 -0.001422161 0.0030407077
0.0012905371 -3.192307e-05 0.004730619 -0.005277548 -0.004499867 -0.005355423 -0.003798181 -0.0012661099
0.0017197614 -0.0013355004 0.0011093183 -0.0011266435 0.00022997847 -0.003052193 -0.0020724973 -0.0007498188
-0.0032783945 -0.0064535695 -0.0030833846 -0.0038869032 -0.0015393787 -0.0016662724 -0.004324249 -0.00418101
-0.0030821948 0.0038235995 -6.759527e-05 -0.003979018 -0.0007153975 -0.0071205636 -0.0014693994 -0.00034327552
-0.006352423 -0.004114533 0.0002638486 -0.0012666023 0.0012504946 -0.0058585647 -0.00079841143 -0.0033197012
0.001409545 -0.0043919613 -0.00038173524 0.0055743824 -0.0031712279 -0.0014755842 -0.0027963654 0.0044069914
00000000: a471 973a e586 dd38 3a7c 8ebb 76d3 4fba
00000010: e0a3 8bbb bd0b 64b9 c6fe f2ba 991b 99bb
00000020: 66ef 3c3c 93f8 e4bb a4a5 10b9 40e3 4abb
00000030: f1c0 bbba 0d66 27bb ce67 baba 9c46 473b
00000040: 3d27 a93a 23e5 05b8 4f03 9b3b 48ef acbb
00000050: 9f73 93bb 8b7c afbb e7ea 78bb 99f3 a5ba
00000060: 9e69 e13a f50b afba 8c66 913a e2ab 93ba
00000070: 6026 7139 4d07 48bb bcd2 07bb 7d8f 44ba
00000080: 55da 56bb 7778 d3bb 9c12 4abb 6abb 7ebb
00000090: fac4 c9ba d366 daba 6eb2 8dbb db00 89bb
000000a0: a6fe 49bb 5b95 7a3b efc1 8db8 6c62 82bb
000000b0: 8389 3bba 9e53 e9bb dd98 c0ba a9f9 b3b9
000000c0: fd27 d0bb 34d3 86bb 2955 8a39 1f04 a6ba
000000d0: a3e7 a33a 34f9 bfbb 7c4c 51ba 588f 59bb
000000e0: 7bc0 b83a 71ea 8fbb a323 c8b9 4fa9 b63b
000000f0: 60d4 4fbb 6468 c1ba 3a43 37bb 8668 903b

encoder.2.1.running_mean f4 [64]
0.03368636 -0.47955737 0.08599102 0.06877488 -0.21880172 0.40925807 -0.014675606 -0.016426593
0.01368946 0.35193732 0.5469837 0.19259802 0.37219134 -0.27981883 0.5313099 -0.10675495
0.06471611 0.16692957 -0.3132515 0.14427568 0.0894923 0.4287444 -0.09400927 -0.32154754
-0.43916532 0.7536072 -0.17905983 -0.32267162 0.06650088 -0.18599623 -0.2992028 -0.7886278
-0.20517714 -0.32398036 0.017060485 0.3334323 -0.3055565 -0.20606497 -0.6594273 -0.17601681
-0.20548467 0.26561034 0.0076630246 0.20526496 0.612987 -0.30445787 0.16035232 0.058805127
0.26793548 0.10147495 -0.088146925 0.3054988 -0.33187684 -0.19814412 -0.71986324 0.09568499
-0.2239136 -0.4048451 -0.248431 -0.34926632 -0.1485645 -0.19173121 0.1924537 -0.40261376
00000000: b5fa 093d 8b88 f5be 0f1c b03d d8d9 8c3d
00000010: 8f0d 60be 468a d13e f471 70bc 1091 86bc
00000020: c249 603c 2131 b43e 2007 0c3f 6a38 453e
00000030: dd8f be3e 6a44 8fbe ed03 083f 57a2 dabd
00000040: e189 843d 96ef 2a3e 8062 a0be 01bd 133e
00000050: bd47 b73d 6384 db3e ef87 c0bd e1a1 a4be
00000060: 47da e0be 67ec 403f 765b 37be 3735 a5be
00000070: 9d31 883d cc75 3ebe 1c31 99be 83e3 49bf
00000080: f519 52be c1e0 a5be 6ec2 8b3c a3b7 aa3e
00000090: e771 9cbe b202 53be 3ad0 28bf c03d 34be
000000a0: 936a 52be 14fe 873e 1c1a fb3b fa30 523e
000000b0: b7ec 1c3f e7e1 9bbe 6633 243e a5dd 703d
000000c0: d72e 893e 19d2 cf3d 6086 b4bd 576a 9c3e
000000d0: c3eb a9be 4be6 4abe f548 38bf 7ef6 c33d
000000e0: 9b49 65be db47 cfbe b264 7ebe 09d3 b2be
000000f0: 4b21 18be 3055 44be 9512 453e 6423 cebe

encoder.2.1.running_var f4 [64]
0.13251552 0.12398743 0.21660933 0.31839663 0.10981715 0.22599325 0.12961194 0.11895073
0.16294992 0.18527061 0.67435646 0.6244259 0.18780799 0.18263268 0.14181836 0.16521181
0.3404445 0.14007466 0.37035736 0.26888186 0.3952048 0.2812026 0.28214687 0.23543932
0.19082235 0.36074358 0.20786187 0.20913026 0.18015611 0.2055844 0.18295445 0.13494268
0.18142974 0.2109713 0.2954734 0.31253406 0.39025882 0.22196719 0.52561533 0.1597285
0.13524608 0.12148286 0.18374987 0.103552274 0.36644498 0.19232263 0.15181506 0.14855799
0.12605508 0.2217127 0.1621077 0.14603555 0.19782023 0.13523275 0.35434493 0.30609387
0.17643857 0.26979598 0.16771549 0.10246637 0.18331993 0.31799665 0.21701151 0.23533426
00000000: 26b2 073e 1fed fd3d d6ce 5d3e e204 a33e
00000010: d0e7 e03d c66a 673e feb8 043e 719c f33d
00000020: 58dc 263e 94b7 3d3e a0a2 2c3f 60da 1f3f
00000030: bd50 403e 1004 3b3e d538 113e 492d 293e
00000040: be4e ae3e bb6f 0f3e 7b9f bd3e e2aa 893e
00000050: 4958 ca3e caf9 8f3e 8e75 903e 0117 713e
00000060: ef66 433e 62b3 b83e bed9 543e 3e26 563e
00000070: d87a 383e b884 523e 6958 3b3e 6a2e 0a3e
00000080: b8c8 393e dc08 583e 4a48 973e 7704 a03e
00000090: 01d0 c73e 5e4b 633e ba8e 063f de8f 233e
000000a0: f37d 0a3e 01cc f83d ed28 3c3e 3713 d43d
000000b0: ad9e bb3e 39f0 443e 6875 1b3e 961f 183e
000000c0: 9514 013e a708 633e 90ff 253e 588a 153e
000000d0: 6391 4a3e 747a 0a3e b36c b53e 56b8 9c3e
000000e0: 50ac 343e b322 8a3e 9cbd 2b3e e3d9 d13d
000000f0: 38b8 3b3e 75d0 a23e 4438 5e3e 77fb 703e

encoder.3.0.weight f4 [64, 64, 3, 3]
-0.031220412 -0.0033078257 0.026093557 0.04066622 -0.026791472 -0.00067740027 -0.03635653 0.014692596
0.035631992 -0.029920578 0.005107663 0.015152059 0.006967142 -0.0069408277 -0.03111688 0.042381037
0.015024285 -0.014140114 0.0069905003 0.035012722 -0.03840076 -0.026619462 0.001078858 0.014697871
-0.026428163 0.011823781 0.025315935 -0.012745 -0.03179394 -0.017952895 -0.039528005 0.0084586
0.007286223 0.038876552 0.030908847 -0.00646004 0.04545495 0.03124683 -0.022020487 0.0077199135
-0.01680083 -0.014596748 -0.0026352962 -0.01770439 0.038941253 0.037162807 0.033154372 -0.02285751
0.018541072 -0.0051665045 0.01764935 -0.02726061 -0.027246198 -0.034820814 0.044733975 -0.00021695331
-0.016726907 -0.0009411923 -0.030565165 -0.003643131 -0.00832594 0.045118973 0.02437326 -0.020168893
0.0147555405 0.011593154 0.004850056 -0.009242069 -0.012544568 -0.015000388 0.00021844318 -0.0069273
0.036242716 -0.037923153 0.020584548 0.023321604 -0.033463344 0.027634148 -0.01583599 0.012105931
-0.011371781 0.016932309 0.04043358 0.026727755 0.013568904 -0.033075232 0.01078902 -0.03513479
-0.009091955 0.025106983 -0.03871193 0.029843455 -0.019792346 -0.016581867 -0.040327564 0.015474154
-0.037614007 -0.0057207732 -0.027419768 -0.015254812 0.021355018 -0.041447908 -0.04048009 0.02424179
-0.016513562 0.018900523 -0.026889412 0.0104095815 -0.040941752 -0.027694445 0.020774322 -0.020391682
0.022325505 -0.003854232 0.034641806 0.03870816 -0.033601753 -0.005380335 0.018683232 0.0096533755
-0.02894324 0.041527916 0.017749282 -0.03211101 0.037553824 -0.011403197 -0.0398157 -0.018672064
0.013111425 0.02656189 -0.036083106 0.0012156278 0.03605618 0.023507362 0.015871814 0.014973403
0.03583532 -0.011466056 0.035525274 0.038847014 0.019538088 -0.028926147 -0.012455722 0.034092497
0.0059981947 -0.027144928 0.019770931 -0.004524598 0.01380426 -0.017845742 0.031626187 0.03343369
0.0014121394 0.022085262 0.0030591774 0.023402652 -0.024809109 -0.010635618 0.030160496 0.002453036
0.039805815 0.038468946 0.010342122 0.04015238 0.0012049224 -0.03776149 -0.035064507 -0.00580055
0.012160406 -0.004004711 0.042423442 0.014799318 0.03128176 -0.040222954 0.030765152 0.026521133
-0.0011809054 0.009619401 0.038730633 -0.00612928 -0.0045803087 0.029182475 0.022300942 -0.022036312
0.012896807 0.019482259 0.009447862 0.012324893 0.032746077 -0.0012790638 0.01842141 0.037307385
0.036484264 -0.028690001 0.036565006 0.03429065 -0.016893832 0.008654481 0.031791724 0.0116973985
0.028092442 -0.003828139 0.03998128 0.019580284 0.028228352 0.024392905 -0.034808513 0.014234183
-0.034379277 -0.027210424 -0.010709272 0.02619545 0.021912975 0.0143977925 -0.03187208 -0.01249382
0.0436299 0.02203351 0.020524913 0.0048881136 -0.01638875 -0.024736438 -0.033087667 0.040124774
-0.01736866 -0.010404986 -0.027556334 -0.024599504 -0.0013533063 -0.028907495 0.03385474 0.0029915753
-0.011137115 0.013851661 -0.03296879 0.03181617 -0.023845326 0.010520934 -0.008948882 0.035710078
-0.022239134 -0.03616931 -0.0053984043 0.04852256 0.024597313 0.0125672575 -0.013578428 0.035050236
0.03491354 -0.03674867 -0.01756535 -0.009496235 0.027911702 0.044778235 0.0057206145 -0.0030489608
00000000: f3c1 ffbc 1bc8 58bb 28c2 d53c 9f91 263d
00000010: ca79 dbbc 9093 31ba 96ea 14bd 37b9 703c
00000020: daf2 113d 001c f5bc 2f5e a73b 5740 783c
00000030: a04c e43b e26f e3bb d4e8 febc bd97 2d3d
00000040: 6b28 763c f0ab 67bc 9110 e53b 8069 0f3d
00000050: 1e4a 1dbd 0f11 dabc 7868 8d3a 57cf 703c
00000060: e07f d8bc 88b8 413c 5d63 cf3c 68d0 50bc
00000070: 5d3a 02bd f311 93bc 1ee8 21bd f195 0a3c
00000080: 45c1 ee3b 053d 1f3d 8d34 fd3c beae d3bb
00000090: f82e 3a3d 5af9 ff3c 4f64 b4bc 54f7 fc3b
000000a0: e5a1 89bc 3327 6fbc efb4 2cbb cc08 91bc
000000b0: dd80 1f3d 0738 183d e1cc 073d ac3f bbbc
000000c0: 72e3 973c c84b a9bb 5f95 903c a551 dfbc
000000d0: 6b33 dfbc 45a0 0ebd f93a 373d f67d 63b9
000000e0: de06 89bc 59ba 76ba cc63 fabc 99c1 6ebb
000000f0: 8669 08bc acce 383d 6eaa c73c 3c39 a5bc
00000100: 39c1 713c 36f1 3d3c 38ed 9e3b 0c6c 17bc
00000110: bb87 4dbc 30c4 75bc e50d 6539 67fe e2bb
00000120: 3e73 143d 4f55 1bbd eda0 a83c f30c bf3c
00000130: dc10 09bd 0261 e23c 7aba 81bc f457 463c
00000140: b550 3abc a0b5 8a3c ae9d 253d 2af4 da3c
00000150: 1c50 5e3c e579 07bd 6ec4 303c 7fe9 0fbd
00000160: 6cf6 14bc 29ad cd3c 6790 1ebd 437a f43c
00000170: 8f23 a2bc b2d6 87bc 842e 25bd 4e87 7d3c
00000180: 2511 1abd 5375 bbbb 6c9f e0bc 52ef 79bc
00000190: b8f0 ae3c 48c5 29bd 73ce 25bd b896 c63c
000001a0: 7347 87bc 45d5 9a3c 2f47 dcbc f38c 2a3c
000001b0: 8ab2 27bd 76df e2bc e92e aa3c 750c a7bc
000001c0: fae3 b63c 4897 7cbb 91e4 0d3d 738c 1e3d
000001d0: fea1 09bd 854d b0bb 940d 993c 3129 1e3c
000001e0: 601a edbc 2d19 2a3d f166 913c d686 03bd
000001f0: 0ad2 193d 7ad4 3abc ca15 23bd 28f6 98bc
00000200: 4dd1 563c 5298 d93c e1cb 13bd b355 9f3a
00000210: a5af 133d 8392 c03c 9b05 823c 0153 753c
00000220: 0ec8 123d 20dc 3bbc f382 113d 0c1e 1f3d
00000230: 570e a03c 87f6 ecbc 1613 4cbc 93a4 0b3d
00000240: 818c c43b 0a5f debc a6f6 a13c 1443 94bb
00000250: 432b 623c 3c31 92bc 768a 013d c4f1 083d
00000260: 8917 b93a 27ec b43c 7b7c 483b ebb6 bf3c
00000270: 793c cbbc 0441 2ebc 2513 f73c 1dc3 203b
00000280: 6c0b 233d 9d91 1d3d 0172 293c d276 243d
00000290: 7dee 9d3a cbab 1abd cd9f 0fbd 8a12 bebb
000002a0: 713c 473c f339 83bb 34c4 2d3d d778 723c
000002b0: 4e21 003d d3c0 24bd 3307 fc3c d942 d93c
000002c0: 9cc8 9aba b19a 1d3c 03a4 1e3d 21d8 c8bb
000002d0: 6a16 96bb 1610 ef3c 77b0 b63c 7f85 b4bc
000002e0: 214d 533c 4299 9f3c 35cb 1a3c 59ee 493c
000002f0: c020 063d 42a6 a7ba 7fe8 963c a1cf 183d
00000300: 8670 153d 4b07 ebbc 30c5 153d 5a74 0c3d
00000310: ef64 8abc 86cb 0d3c 0a38 023d 72a6 3f3c
00000320: 1f22 e63c 84e1 7abb 69c3 233d d566 a03c
00000330: 253f e73c a1d3 c73c 5f93 0ebd 7e36 693c
00000340: 49d1 0cbd 65e8 debc f175 2fbc d797 d63c
00000350: d782 b33c b8e4 6b3c 4c8c 02bd e1b2 4cbc
00000360: 44b5 323d 9f7f b43c dd23 a83c 782c a03b
00000370: b341 86bc 12a4 cabc ef86 07bd e059 243d
00000380: b848 8ebc ad79 2abc d2bd e1bc e684 c9bc
00000390: 6d61 b1ba 69cf ecbc 45ab 0a3d 4e0e 443b
000003a0: 7278 36bc 14f2 623c 480a 07bd ac51 023d
000003b0: 4657 c3bc ff5f 2c3c 559e 12bc bb44 123d
000003c0: d82e b6bc 4526 14bd 19e5 b0bb 98bf 463d
000003d0: 4e80 c93c e6e6 4d3c 0e78 5ebc d690 0f3d
000003e0: 8001 0f3d c685 16bd 35e5 8fbc 1996 1bbc
000003f0: 15a7 e43c 6269 373d fe73 bb3b 13d1 47bb
