CatRecognition2/logs/2025-04-06_17-07-44/model.pt (torch, 462274 bytes, 24 tensors)

encoder.0.0.weight f4 [64, 3, 3, 3]
-0.1813022 0.121750414 -0.10128398 -0.17760807 -0.024846064 0.013393029 -0.21248618 0.05322038
-0.20021036 -0.12901016 0.026789231 0.005751675 0.09603719 -0.003063491 -0.13554354 0.059668753
0.08087705 0.12920254 0.18273376 0.11506343 0.07881276 0.069546305 -0.08930016 -0.13500477
0.037259955 0.09878494 0.12099493 0.1836992 0.082687065 0.12979989 0.004136714 -0.19307543
-0.19488202 0.009345316 0.09303132 -0.084846355 -0.16682312 -0.023701172 0.11130918 0.082428835
-0.1586638 -0.1431246 -0.14069651 -0.17925464 0.10833218 -0.070872836 -0.18621005 -0.019814465
-0.04006308 -0.10682781 0.050412837 0.06493952 -0.15180705 -0.1989961 0.027440486 0.07888283
0.031928625 -0.14844038 0.08583451 -0.13729964 -0.03950736 -0.107995264 -0.1627086 0.1233901
-0.15107438 0.096855186 -0.10750518 -0.047319308 -0.13040045 -0.15305914 0.16690427 -0.107291356
0.20291406 -0.16727692 -0.047452793 0.053148195 0.079765 -0.12954535 0.078605376 0.1280628
0.109193385 -0.07042524 -0.14995997 0.0926435 -0.00057488924 0.10163819 -0.02011449 0.13810074
0.1820077 0.050559822 -0.16776933 -0.16196376 0.15318562 -0.1984836 -0.16588952 -0.009557377
-0.0761288 0.12657025 -0.047574542 0.036630195 0.052509688 -0.10218481 -0.05361755 -0.085734814
-0.15074149 -0.195727 -0.20867427 0.015847461 0.022243338 -0.13976745 -0.0575149 0.056317803
-0.046749715 -0.018507529 -0.007990189 -0.20817885 -0.085562974 -0.05303113 0.0042420025 -0.037438404
-0.046945777 0.108697586 -0.16543318 -0.10165234 -0.001612576 0.05806404 -0.10136348 0.14741091
0.082011335 0.100469984 0.09326688 0.054981366 -0.067592524 0.17735791 0.13701987 -0.18979557
0.10545372 -0.10728695 -0.16664802 0.049309254 0.07239006 0.12221482 0.15001023 -0.015786389
0.010122306 -0.10624031 -0.0887528 -0.050004266 -0.12677637 -0.07011556 -0.13786097 0.11883253
0.047570057 0.0861233 -0.07246446 -0.19354998 0.04854663 0.087187104 -0.095832996 0.1304097
0.091344215 0.05237743 -0.008803845 -0.21239427 -0.043232005 -0.20722891 -0.15987524 0.07279046
0.13559529 -0.1975014 0.055261634 0.1569324 -0.13838263 -0.015417664 0.12827036 0.13959654
-0.06851782 -0.001313099 -0.17155726 -0.108830236 0.13457344 0.054410186 0.066174746 0.1535867
0.06331082 0.048893135 -0.00041273772 -0.017438391 0.068126544 0.037701454 0.14840126 0.18688688
-0.015622389 0.199291 0.054297887 0.03133176 -0.16883294 0.13375634 0.019648414 -0.13175175
-0.09403137 -0.021754976 0.033642873 0.026748572 -0.016471677 0.10805502 -0.07732881 -0.13669476
0.139733 -0.10883334 0.1677701 0.14346303 0.0008489721 -0.13252665 -0.17161329 0.20908614
0.021685122 0.08957979 0.1084558 -0.005785062 0.14736915 -0.058403995 -0.18181564 0.16165957
-0.031767543 -0.14191048 0.090565465 -0.031562023 -0.0040527172 0.14610188 0.07843569 0.12518522
0.090671405 -0.014391966 0.09433798 -0.1077777 0.066625364 0.20842181 0.14787742 0.003062975
-0.019166648 -0.094546795 0.21303494 0.06682549 -0.13322261 0.1450908 -0.17119887 -0.12793668
-0.099489726 0.07557619 -0.17833196 0.041242238 -0.14610203 -0.068631195 -0.02998089 -0.12606667
00000000: 49a7 39be 4858 f93d fa6d cfbd e4de 35be
00000010: f989 cbbc 6f6e 5b3c fa95 59be 9dfd 593d
00000020: f203 4dbe 3d1b 04be 1775 db3c 8c78 bc3b
00000030: 25af c43d dac4 48bb edcb 0abe 3967 743d
00000040: dea2 a53d ac4d 043e 8f1e 3b3e 60a6 eb3d
00000050: 9668 a13d 4b6e 8e3d 01e3 b6bd b13e 0abe
00000060: e59d 183d c24f ca3d 31cc f73d a51b 3c3e
00000070: d657 a93d 43ea 043e 468d 873b 91b5 45be
00000080: 278f 47be 191d 193c 3487 be3d edc3 adbd
00000090: aed3 2abe f628 c2bc 11f6 e33d 73d0 a83d
000000a0: c378 22be 418f 12be bf12 10be 878e 37be
000000b0: 43dd dd3d c725 91bd d9ad 3ebe f251 a2bc
000000c0: 2f19 24bd 8ac8 dabd b17d 4e3d 03ff 843d
000000d0: 4f73 1bbe a2c5 4bbe dfca e03c 528d a13d
000000e0: 97c7 023d c100 18be 01ca af3d 4798 0cbe
000000f0: 78d2 21bd 9f2c ddbd 159d 26be f3b3 fc3d
00000100: 3eb3 1abe 035c c63d ad2b dcbd e4d1 41bd
00000110: b287 05be 89bb 1cbe f4e8 2a3e 92bb dbbd
00000120: b4c8 4f3e a44a 2bbe dc5d 42bd ecb1 593d
00000130: d55b a33d 89a7 04be dbfb a03d e522 033e
00000140: c8a0 df3d 1c3b 90bd 1b8f 19be e0bb bd3d
00000150: 2ab4 16ba af27 d03d 25c7 a4bc 486a 0d3e
00000160: 3a60 3a3e d117 4f3d b9cb 2bbe d4d9 25be
00000170: b1dc 1c3e 493f 4bbe f1de 29be 8b96 1cbc
00000180: 6be9 9bbd a29b 013e 86dd 42bd 8b09 163d
00000190: 6614 573d 4546 d1bd 139e 5bbd bc95 afbd
000001a0: fa5b 1abe a96c 48be b5ae 55be 89d2 813c
000001b0: a937 b63c 331f 0fbe be94 6bbd 7fad 663d
000001c0: a17c 3fbd 1a9d 97bc 48e9 02bc d62c 55be
000001d0: a43b afbd 2c37 59bd 7f00 8b3b 0359 19bd
000001e0: 374a 40bd d79c de3d 5167 29be 1a2f d0bd
000001f0: 125d d3ba 8fd4 6d3d a897 cfbd e3f2 163e
00000200: 8ff5 a73d 35c3 cd3d b502 bf3d 2434 613d
00000210: f36d 8abd 509d 353e f04e 0c3e c559 42be
00000220: 1ff8 d73d 43b9 dbbd c7a5 2abe 80f8 493d
00000230: 3d41 943d c34b fa3d 489c 193e 7552 81bc
00000240: 07d8 253c 8594 d9bd 07c4 b5bd 46d1 4cbd
00000250: aad1 01be bf98 8fbd 6d2b 0dbe 785e f33d
00000260: d2d8 423d 6a61 b03d 3f68 94bd f731 46be
00000270: d5d8 463d 278f b23d 1744 c4bd 1f8a 053e
00000280: ad12 bb3d b789 563d 013e 10bc e27d 59be
00000290: 0b14 31bd d133 54be 56b6 23be 2a13 953d
000002a0: 7ed9 0a3e cf3d 4abe 065a 623d e3b2 203e
000002b0: 2db4 0dbe 5f9a 7cbc 4e59 033e 65f2 0e3e
000002c0: 1253 8cbd 4b1c acba b5ac 2fbe 63e2 debd
000002d0: 9fcd 093e 37dd 5e3d a086 873d d545 1d3e
000002e0: 1aa9 813d 2b44 483d b864 d8b9 f5da 8ebc
000002f0: ee85 8b3d d76c 1a3d 80f6 173e 465f 3f3e
00000300: 0cf5 7fbc f112 4c3e 7667 5e3d bb55 003d
00000310: 8be2 2cbe 6cf7 083e b6f5 a03c eee9 06be
00000320: 8593 c0bd 7e37 b2bc 1ccd 093d d21f db3c
00000330: 9cef 86bc f34b dd3d 915e 9ebd b6f9 0bbe
00000340: 2b16 0f3e 04e4 debd edcb 2b3e f9e7 123e
00000350: 8e8d 5e3a 11b5 07be 65bb 2fbe ad1a 563e
00000360: ffa4 b13c 9c75 b73d 131e de3d 9e90 bdbb
00000370: f0e7 163e 0739 6fbd e12d 3abe 168a 253e
00000380: af1e 02bd fb50 11be 637a b93d 2e47 01bd
00000390: a8cc 84bb bb9b 153e e4a2 a03d 8e30 003e
000003a0: eeb1 b93d 48cc 6bbc 4534 c13d 8eba dcbd
000003b0: e172 883d 876c 553e 2e6d 173e 31bc 483b
000003c0: 6003 9dbc c0a1 c1bd d525 5a3e cddb 883d
000003d0: 826b 08be af92 143e c24e 2fbe d501 03be
000003e0: 45c1 cbbd b1c7 9a3d a79c 36be 9fed 283d
000003f0: c59b 15be 838e 8cbd 7c9a f5bc 9f17 01be

encoder.0.0.bias f4 [64]
0.033341724 -0.087049164 -0.03063602 0.016427645 -0.17113434 0.122353435 -0.011838311 0.15613224
0.15673156 0.15238865 -0.05950075 -0.11516316 0.15803412 0.049042873 -0.14970994 0.08543235
-0.14384669 -0.09990823 0.10353278 0.032429688 -0.12377076 0.17679596 -0.10666614 0.16846685
-0.13348411 0.06267018 -0.044151854 -0.19229828 -0.121603094 -0.025330389 -0.04664214 0.13236134
-0.07708132 0.021918476 -0.055969514 -0.1032966 -0.119615324 0.010955705 -0.00809477 -0.19210112
-0.14687687 -0.04492926 -0.15232635 -0.17085311 0.17724371 -0.1759455 0.09742445 -0.053219292
-0.17378753 -0.06939204 0.11602535 0.010218604 0.1747826 0.09468665 -0.18210919 0.20091656
-0.06487846 0.067729354 -0.18670332 -0.09450541 0.07653429 0.038044896 -0.073551506 -0.07516453
00000000: 5591 083d d546 b2bd 64f8 fabc 4593 863c
00000010: d73d 2fbe 7094 fa3d 7af5 41bc 21e1 1f3e
00000020: 3d7e 203e c50b 1c3e 0fb7 73bd aada ebbd
00000030: b2d3 213e 2ee1 483d 904d 19be 28f7 ae3d
00000040: 8c4c 13be b09c ccbd ff08 d43d fed4 043d
00000050: 867b fdbd 000a 353e c773 dabd 9382 2c3e
00000060: 0fb0 08be 3959 803d 93d8 34bd d7e9 44be
00000070: 0b0b f9bd ad81 cfbc d40b 3fbd bb89 073e
00000080: d0dc 9dbd 608e b33c 4a40 65bd 2b8d d3bd
00000090: e1f8 f4bd 8f7f 333c ed9f 04bc 28b6 44be
000000a0: e466 16be be07 38bd 70fb 1bbe 1ef4 2ebe
000000b0: 607f 353e 0f2b 34be 7886 c73d 79fc 59bd
000000c0: 5cf5 31be 6a1d 8ebd b39e ed3d ee6b 273c
000000d0: 36fa 323e 13eb c13d d57a 3abe 12bd 4d3e
000000e0: ffde 84bd b0b5 8a3d 282f 3fbe 0d8c c1bd
000000f0: 03be 9c3d f7d4 1b3d 2ca2 96bd dcef 99bd

encoder.0.1.weight f4 [64]
1.0532897 0.9720812 1.0013336 0.9778577 1.0482609 1.010711 1.0173824 0.9886363
0.9816518 0.9733716 0.998262 1.0212183 1.0069699 1.0078683 1.0282775 0.97219247
0.98879945 0.9814189 0.9911715 1.0678874 0.9756956 0.98002756 0.9959813 0.98039913
0.980993 0.98422575 1.0181131 0.9703872 0.98083663 1.0164977 1.0155516 1.064255
0.9781849 1.0037879 1.0212895 0.9580843 0.974491 1.0443695 0.9865968 0.9973741
0.9942386 0.98217154 0.98472124 0.9933178 1.0125741 0.9814191 1.0248178 0.98485184
0.9915776 0.9747773 0.97541535 0.9757362 0.9780536 0.99952567 0.9877457 0.980793
1.0270902 0.9894531 0.97582567 1.0041618 0.9875515 0.9985504 0.9725034 0.9612543
00000000: 32d2 863f 50da 783f b32b 803f e254 7a3f
00000010: 6a2d 863f fa5e 813f 9639 823f 4517 7d3f
00000020: 884d 7b3f e22e 793f 198e 7f3f 48b7 823f
00000030: 64e4 803f d401 813f 999e 833f 9be1 783f
00000040: f621 7d3f 453e 7b3f 6abd 7d3f 89b0 883f
00000050: 30c7 793f 16e3 7a3f a1f8 7e3f 70fb 7a3f
00000060: 5b22 7b3f 38f6 7b3f 8851 823f 4c6b 783f
00000070: 1c18 7b3f 991c 823f 98fd 813f 8239 883f
00000080: 536a 7a3f 1f7c 803f 9db9 823f 0345 753f
00000090: 3e78 793f e6ad 853f 9c91 7c3f e953 7f3f
000000a0: 6c86 7e3f 986f 7b3f b116 7c3f 134a 7e3f
000000b0: 079c 813f 483e 7b3f 3b2d 833f 401f 7c3f
000000c0: 08d8 7d3f 018b 793f d2b4 793f d9c9 793f
000000d0: b961 7a3f eae0 7f3f e7dc 7c3f 4015 7b3f
000000e0: b177 833f cc4c 7d3f b6cf 793f 6088 803f
000000f0: 2dd0 7c3f 00a1 7f3f fcf5 783f c314 763f

encoder.0.1.bias f4 [64]
-0.06737107 0.0025947727 0.027593391 -0.0074775782 -0.059688974 0.015366182 -0.069118105 0.013897652
-0.034794193 0.0035463034 0.015761105 -0.05606713 -0.010784602 -0.059408005 -0.05059619 -0.014566394
-0.012447728 -0.010295128 0.0014823927 -0.05907286 -0.044880938 -0.031869784 0.015570814 0.0005921485
-0.036264002 0.0074171936 -0.011427149 -0.020841897 -0.03344006 0.0054683764 0.0373241 -0.09623734
0.00445716 0.028198391 0.040167555 -0.009300203 -0.03476121 -0.08287086 -0.011027099 0.015119096
0.0088059865 -0.0061455374 -0.026280602 -0.046978734 0.0128128845 -0.046340473 0.01879871 -0.03708547
0.004267062 -0.003533893 -0.03461099 -0.01648782 0.011066 0.013164378 0.00920423 0.0024126435
0.022892974 0.009598526 -0.046530023 -0.01366503 0.009838102 0.02900838 -0.02412549 0.00447318
00000000: d8f9 89bd 100d 2a3b 890b e23c 7906 f5bb
00000010: 6d7c 74bd 70c2 7b3c cb8d 8dbd fab2 633c
00000020: 5b84 0ebd 1969 683b 6f1d 813c a6a6 65bd
00000030: e6b1 30bc cf55 73bd f33d 4fbd e2a7 6ebc
00000040: 8ef1 4bbc e6ac 28bc d84c c23a 62f6 71bd
00000050: 13d5 37bd e489 02bd ba1c 7f3c 6a3a 1b3a
00000060: 9089 14bd ee0b f33b f038 3bbc a0bc aabc
00000070: 72f8 08bd 1130 b33b 28e1 183d 1518 c5bd
00000080: 5e0d 923b 5000 e73c bc86 243d e15f 18bc
00000090: c561 0ebd 33b8 a9bd 01ab 34bc 16b6 773c
000000a0: fc46 103c 8160 c9bb 6b4a d7bc c66c 40bd
000000b0: 22ed 513c 82cf 3dbd c1ff 993c efe6 17bd
000000c0: b6d2 8b3b e398 67bb 41c4 0dbd 7711 87bc
000000d0: 2b4e 353c 67af 573c 57cd 163c 711d 1e3b
000000e0: 0c8a bb3c 2343 1d3c 4496 3ebd 4ae3 5fbc
000000f0: fe2f 213c fba2 ed3c d2a2 c5bc c193 923b

encoder.0.1.running_mean f4 [64]
-0.02263111 -0.36902112 -0.14843479 -0.1965073 -0.2174577 0.06264499 -0.05960177 0.31759354
0.44441444 0.029652413 -0.027969329 -0.18083555 0.13620293 -0.0011864292 -0.20971443 0.24328905
-0.32513472 -0.3076051 0.031396445 -0.014412561 0.20581158 0.6921277 -0.20723595 -0.04157278
0.13491167 -0.041179616 -0.0850436 0.22099511 0.04520391 -0.058753792 -0.10124009 0.14031962
-0.30720556 -0.02059267 -0.123781875 0.13581477 0.23348232 -0.049016196 -0.19721949 -0.56340116
0.037925467 0.005111246 -0.025787007 -0.034698177 0.1462913 -0.029443985 0.058126505 0.121920414
-0.25643283 -0.23171541 0.34358123 0.1239725 0.07429095 0.16518168 -0.44763154 0.095742464
-0.024682885 -0.042371992 0.16538669 -0.07095055 -0.0033517226 -0.04309636 0.20408407 -0.21269406
00000000: e164 b9bc 56f0 bcbe 4aff 17be 3639 49be
00000010: 3bad 5ebe 044c 803d fc20 74bd 9f9b a23e
00000020: 4a8a e33e 9ee9 f23c ef1f e5bc f42c 39be
00000030: c878 0b3e f581 9bba 61bf 56be c420 793e
00000040: 0f78 a6be 6a7e 9dbe 8f99 003d aa22 6cbc
00000050: 45c0 523e 482f 313f a935 54be 3848 2abd
00000060: 4926 0a3e f5ab 28bd 572b aebd 8b4c 623e
00000070: bc27 393d d1a7 70bd f756 cfbd f2af 0f3e
00000080: 0c4a 9dbe f6b1 a8bc 5a81 fdbd 0713 0b3e
00000090: fd15 6f3e 35c5 48bd e8f3 49be 0f3b 10bf
000000a0: bc57 1b3d 3d7c a73b 463f d3bc ad1f 0ebd
000000b0: 63cd 153e 8334 f1bc 0f16 6e3d 69b1 f93d
000000c0: 2a4b 83be ce46 6dbe e1e9 af3e 4be5 fd3d
000000d0: db25 983d 6325 293e f62f e5be a014 c43d
000000e0: c333 cabc 418e 2dbd 215b 293e 864e 91bd
000000f0: 93a8 5bbb cf85 30bd 6afb 503e 79cc 59be

encoder.0.1.running_var f4 [64]
0.0074711936 0.08873033 0.015574151 0.055898994 0.0058947396 0.0064606946 0.0066846446 0.02683193
0.08665031 0.01516859 0.002430511 0.01042556 0.004220123 0.006454044 0.009797361 0.02587547
0.03546194 0.051968094 0.006294295 0.006279966 0.11164411 0.27857608 0.012783977 0.044788178
0.0742554 0.012691232 0.004468354 0.17675169 0.031066447 0.0039328947 0.005959447 0.007003793
0.055087756 0.003218737 0.0076849745 0.060916796 0.12911516 0.011571562 0.037124764 0.13820723
0.03485503 0.0051123775 0.021259777 0.022868164 0.004241357 0.02716134 0.0058186087 0.037746653
0.007926499 0.029564356 0.051855084 0.014978159 0.0138388 0.0057923845 0.072672784 0.012565615
0.002648372 0.013158861 0.12622395 0.0082392795 0.007371462 0.0074612065 0.079367824 0.02140425
00000000: ead0 f43b 3fb8 b53d b92a 7f3c 58f6 643d
00000010: a928 c13b 3cb4 d33b dd0a db3b a3ce db3c
00000020: b875 b13d ad85 783c 3549 1f3b f8cf 2a3c
00000030: f548 8a3b 727c d33b 1c85 203c cbf8 d33c
00000040: 8a40 113d 7fdc 543d 6040 ce3b 2cc8 cd3b
00000050: aba5 e43d 86a1 8e3e e373 513c cf73 373d
00000060: 3713 983d e3ee 4f3c 456b 923b 65fe 343e
00000070: 107f fe3c 83df 803b 7747 c33b 1380 e53b
00000080: b3a3 613d 72f1 523b 3dd2 fb3b e483 793d
00000090: c436 043e a696 3d3c 2310 183d 3286 0d3e
000000a0: 26c4 0e3d bb85 a73b fc28 ae3c 0456 bb3c
000000b0: 15fb 8a3b 7581 de3c 07aa be3b 3c9c 1a3d
000000c0: 25de 013c f330 f23c ff65 543d f466 753c
000000d0: 22bc 623c 0bce bd3b 78d5 943d 02e0 4d3c
000000e0: 4f90 2d3b 4398 573c da40 013e 0bfe 063c
000000f0: 4e8c f13b 237d f43b 998b a23d f757 af3c

encoder.1.0.weight f4 [64, 64, 3, 3]
0.022067845 0.03641892 0.0013709053 0.021732941 0.015005036 -0.011043838 -0.009543504 0.013824822
0.025929766 -0.05056817 -0.018503217 -0.005529093 -0.041393865 -0.05180934 -0.04475874 -0.006839442
0.024513165 9.567203e-05 0.028772602 0.009972578 -0.049161125 0.02806914 0.011609158 -0.03328793
-0.0232271 -0.029360538 0.013156644 -0.016202934 0.0012509348 -0.03424726 0.0120702665 -0.024639932
-0.047199775 -0.0014522782 -0.0052496153 -0.059021126 0.041443553 0.04419544 0.023205126 -0.005858558
-0.024927352 0.045439437 0.06340537 0.018548127 0.016106032 -0.025740879 0.015554178 -0.022815479
-0.04219298 0.030886969 -0.035919353 0.011536904 -0.030977946 0.0065111257 -0.020514991 0.010950851
0.03198343 -0.010349083 0.05134121 -0.021910498 0.0014092904 -0.022095824 0.02401893 0.023426004
-0.02569778 -0.01733935 -0.035783466 0.026324073 -0.02544391 0.0072342134 0.0012960368 -0.022553869
-0.010074984 0.009604059 0.032477498 0.032168705 -0.012821717 -0.03737877 0.023366915 0.0017724474
0.0013399307 -0.000429525 -0.015302677 -0.059436474 -0.00606266 -0.0007050758 -0.053441644 -0.03095548
0.0069939424 0.0019896491 -0.009621494 -0.01979036 0.04301273 0.019228982 -0.01615873 -0.020323804
-0.027404694 0.00026794738 -0.023394901 0.0023989412 0.024167301 0.016952809 -0.0061178645 0.0029837524
-0.004662808 -0.004628912 0.053851884 -0.0006375999 -0.029538546 -0.041801915 -0.02580809 -0.00060310063
0.009126623 -0.003343185 0.038748387 0.03790054 0.003667789 0.005832405 -0.0098133935 -0.0105298655
0.0413559 0.009159445 0.005978521 0.049640577 -0.006090798 -0.012849653 -0.0061697317 0.029929064
0.014382652 -0.030005619 0.037771087 0.05869278 0.0150759965 0.0027666728 0.043964893 0.028359812
0.005955234 0.011827707 0.02910418 -0.002847491 0.0090384465 -0.03745533 -0.030833274 -0.020075988
-0.032639556 -0.008539492 -0.07307628 -0.0139333205 -0.038132373 -0.072646976 -0.050287656 -0.041848704
-0.00038446838 -0.049513966 -0.03338249 -0.023917906 -0.024313342 -0.05268596 -0.029160207 0.016019769
-0.044551812 -0.027436094 0.004282737 -0.006791918 0.00586194 -0.016293397 0.010867982 -0.021217534
-0.023185134 0.017556632 -0.019913707 0.0032903657 -0.019259486 0.01614959 -0.029403262 0.033523872
0.024832292 0.042655334 -0.0034001502 -0.017718313 -0.028409267 -0.0007570899 -0.027741604 0.024720062
-0.0012749616 -0.010689676 0.019394713 -0.033236332 -0.0014983022 0.014335344 -0.0026856624 0.0026084164
-0.0046596737 -0.009083202 0.019191224 -0.016545458 0.030283006 -0.006428889 -0.043685053 0.002469338
-0.026847882 -0.065056294 -0.055049688 0.00045204622 -0.04957292 -0.062125795 -0.01742398 -0.059978213
-0.00253514 0.017246438 -0.008810529 0.013599162 -0.0207562 0.024532948 0.018589582 -0.009103003
0.009808373 0.009993808 -0.022461688 -0.036722437 0.001766857 0.031741597 0.036085974 -0.024223676
0.031383872 -0.0037114078 -0.046467837 0.0039353436 -0.028029935 -0.011634061 0.01480622 -0.020850519
-0.027639464 0.016196765 0.055955306 0.016669402 0.04725556 0.0005576057 -0.020565102 -0.017711109
0.008728021 0.058423977 0.047548175 0.03375858 -0.00631203 -0.011731012 -0.02172242 0.021094725
0.024932047 0.010693209 -6.5753993e-06 -0.019276889 0.012026808 -0.030722428 -0.01582839 0.036068436
00000000: a0c7 b43c 012c 153d f3af b33a 4809 b23c
00000010: afd7 753c 37f1 34bc 5b5c 1cbc 8281 623c
00000020: a96a d43c 9220 4fbd 0f94 97bc 652d b5bb
00000030: 9d8c 29bd 0836 54bd f154 37bd 661d e0bb
00000040: d5cf c83c 88a3 c838 85b4 eb3c 0664 233c
00000050: 2d5d 49bd 41f1 e53c 5634 3e3c ed58 08bd
00000060: c246 bebc 8385 f0bc f78e 573c 04bc 84bc
00000070: 68f6 a33a db46 0cbd 5ec2 453c afd9 c9bc
00000080: 8d54 41bd 5f5a beba f704 acbb 23c0 71bd
00000090: b7c0 293d 4706 353d ad18 be3c 26f9 bfbb
000000a0: 7234 ccbc b41e 3a3d adda 813d 3ef2 973c
000000b0: ccf0 833c 89de d2bc f3d6 7e3c 87e7 babc
000000c0: 8cd2 2cbd ab06 fd3c 2c20 13bd 4805 3d3c
000000d0: 76c5 fdbc 485b d53b 0e0f a8bc 336b 333c
000000e0: 0f01 033d 338f 29bc 294b 523d a57d b3bc
000000f0: f0b7 b83a 4d02 b5bc 59c3 c43c e4e7 bf3c
00000100: 2784 d2bc 410b 8ebc af91 12bd 95a5 d73c
00000110: bf6f d0bc fb0c ed3b c7df a93a e4c2 b8bc
00000120: 8c11 25bc 585a 1d3c 2007 053d 55c3 033d
00000130: 2e12 52bc 7b1a 19bd f96b bf3c 7751 e83a
00000140: 9da0 af3a df31 e1b9 14b8 7abc a973 73bd
00000150: 47a9 c6bb d6d4 38ba a0e5 5abd 5996 fdbc
00000160: 712d e53b c664 023b 79a3 1dbc 651f a2bc
00000170: 1e2e 303d 1986 9d3c 505f 84bc 1b7e a6bc
00000180: cf7f e0bc 4a7b 8c39 aaa6 bfbc 8e37 1d3b
00000190: 81fa c53c 9ee0 8a3c 5e78 c8bb 0f8b 433b
000001a0: 78ca 98bb 21ae 97bb cb93 5c3d 9b24 27ba
000001b0: d2fa f1bc 7c38 2bbd 7d6b d3bc 6619 1eba
000001c0: d587 153c 5619 5bbb a1b6 1e3d 993d 1b3d
000001d0: 4a5f 703b c21d bf3b 5bc8 20bc 7585 2cbc
000001e0: ce64 293d 7f11 163c 78e7 c33b eb53 4b3d
000001f0: 5195 c7bb 5a87 52bc 762b cabb cc2d f53c
00000200: 37a5 6b3c 58ce f5bc dbb5 1a3d d767 703d
00000210: 5001 773c 1151 353b 8814 343d d652 e83c
00000220: 2024 c33b 00c9 413c e46b ee3c f99c 3abb
00000230: fe15 143c c36a 19bd 1096 fcbc 6676 a4bc
00000240: 0eb1 05bd 3ae9 0bbc 04a9 95bd 9548 64bc
00000250: b130 1cbd f0c7 94bd 6efa 4dbd 8c69 2bbd
00000260: 7992 c9b9 28cf 4abd 14bc 08bd 7cef c3bc
00000270: c62c c7bc 3ccd 57bd 63e1 eebc e43b 833c
00000280: f67b 36bd a9c1 e0bc 3456 8c3b bd8e debb
00000290: 8415 c03b bb79 85bc 9f0f 323c 65d0 adbc
000002a0: c0ee bdbc edd2 8f3c 1222 a3bc 2da3 573b
000002b0: 12c6 9dbc 254c 843c 1cdf f0bc 5450 093d
000002c0: 176d cb3c 5cb7 2e3d 0ed5 5ebb ff25 91bc
000002d0: 8dba e8bc 7177 46ba 5c42 e3bc ba81 ca3c
000002e0: 9d1c a7ba c023 2fbc a9e1 9e3c d222 08bd
000002f0: ae62 c4ba cade 6a3c f001 30bb f7f1 2a3b
00000300: 2db0 98bb b6d1 14bc ea36 9d3c 578a 87bc
00000310: 1114 f83c 6ea9 d2bb 19ef 32bd 9ed4 213b
00000320: 17f0 dbbc 3c3c 85bd c87b 61bd 9e00 ed39
00000330: f90c 4bbd 9e77 7ebd bcbc 8ebc b7ab 75bd
00000340: 9724 26bb 6748 8d3c 095a 10bc 05cf 5e3c
00000350: e808 aabc 52f9 c83c 2e49 983c c324 15bc
00000360: 4cb3 203c 12bd 233c 9301 b8bc 446a 16bd
00000370: e295 e73a 7a03 023d e3ce 133d bb70 c6bc
00000380: 608c 003d 173b 73bb 0f55 3ebd 0ef4 803b
00000390: 099f e5bc ca9c 3ebc ca95 723c b5ce aabc
000003a0: 286c e2bc 14af 843c 6431 653d 458e 883c
000003b0: 0c8f 413d 492c 123a 2578 a8bc e316 91bc
000003c0: f9ff 0e3c fb4d 6f3d e0c1 423d 7046 0a3d
000003d0: 25d5 cebb 6e33 40bc 37f3 b1bc d8ce ac3c
000003e0: 4b3e cc3c 9232 2f3c 40a2 dcb6 91ea 9dbc
000003f0: 170c 453c 9aad fbbc 8aaa 81bc 7fbc 133d

encoder.1.0.bias f4 [64]
0.007043344 -0.029243596 -0.013910409 -0.01714562 0.04068263 0.014713106 -0.017970333 -0.04388388
-0.023370441 0.018018728 0.035241183 0.040705115 0.041311 -0.0016483779 -0.0321926 -0.009669672
0.037153825 -0.029171828 -0.01618242 -0.017194333 -0.052293077 0.019242125 -0.0060396935 -0.019432621
-0.028598316 0.021447541 -0.04460437 0.04029694 0.037131447 -0.00234615 0.0036966202 -0.002655299
-0.0036331774 -0.03218184 -0.042704463 0.027457034 -0.0074167447 0.02133176 -0.002066797 -0.028434526
0.0009998074 0.022515645 0.012546334 -0.03448256 -0.05280004 -0.022965707 -0.03654746 0.01341327
-0.0069035944 0.009022063 0.016684327 -0.008796378 0.02013325 -0.012388293 0.02387534 -0.009272598
-0.019249698 -0.023372995 -0.017898344 0.022394916 0.013067937 0.028976632 -0.040373705 0.030299881
00000000: dacb e63b 4490 efbc 7ce8 63bc f974 8cbc
00000010: d4a2 263d 3d0f 713c 8536 93bc 95bf 33bd
00000020: 5e73 bfbc 039c 933c 0f59 103d 68ba 263d
00000030: b935 293d 620e d8ba 63dc 03bd 8b6d 1ebc
00000040: 9c2e 183d c2f9 eebc ff90 84bc 21db 8cbc
00000050: 4431 56bd a9a1 9d3c 9fe8 c5bb 2931 9fbc
00000060: 0447 eabc c1b2 af3c 12b3 36bd 670e 253d
00000070: 2517 183d dec1 19bb ff42 723b 8604 2ebb
00000080: 9a1a 6ebb 1bd1 03bd e0ea 2ebd 93ed e03c
00000090: 2a08 f3bb f1bf ae3c 1a73 07bb 86ef e8bc
000000a0: f80b 833a bb72 b83c 248f 4d3c 963d 0dbd
000000b0: db44 58bd 9422 bcbc cab2 15bd 55c3 5b3c
000000c0: 8c37 e2bb 46d1 133c 92ad 883c af1e 10bc
000000d0: 7cee a43c 44f8 4abc 3896 c33c 18ec 17bc
000000e0: 8bb1 9dbc b978 bfbc 8c9f 92bc 8b75 b73c
000000f0: e71a 563c 6760 ed3c e65e 25bd 7537 f83c

encoder.1.1.weight f4 [64]
0.9860355 0.9941042 1.0161953 0.99267095 0.9893285 0.9869247 0.9846105 0.99785924
0.994122 1.0021856 0.992397 0.97673106 0.9870075 0.97406214 1.0107526 1.024338
1.0061693 1.007864 1.020898 1.0137495 0.97754854 1.0511684 1.0033602 1.007522
1.0185065 1.0122365 0.98965955 0.9978418 0.97948426 0.9912516 1.0038818 1.0032678
0.98045856 1.0323641 0.99909526 1.0306476 0.98600113 0.99050266 1.0166883 0.9865029
0.99142045 1.0123054 1.0012691 0.9993591 1.0064067 0.9866227 0.98089564 0.98493904
1.0071443 0.9972643 1.0062509 0.9949793 0.9888201 1.0139382 1.0340337 0.9880607
0.99799746 1.0165884 1.0152875 0.9976244 1.0045837 0.9897781 0.986527 0.9972079
00000000: d36c 7c3f 9d7d 7e3f b012 823f af1f 7e3f
00000010: a244 7d3f 19a7 7c3f 6f0f 7c3f b473 7f3f
00000020: c87e 7e3f 9e47 803f bb0d 7e3f 0c0b 7a3f
00000030: 86ac 7c3f 235c 793f 5760 813f 821d 833f
00000040: 28ca 803f b001 813f c9ac 823f 8bc2 813f
00000050: 9f40 7a3f b08c 863f 1b6e 803f 7bf6 803f
00000060: 6c5e 823f f790 813f 545a 7d3f 8f72 7f3f
00000070: 7bbf 7a3f aac2 7d3f 337f 803f 146b 803f
00000080: 55ff 7a3f 8224 843f b5c4 7f3f 43ec 833f
00000090: 926a 7c3f 9591 7d3f d822 823f 748b 7c3f
000000a0: bbcd 7d3f 3993 813f 9629 803f ffd5 7f3f
000000b0: efd1 803f 4e93 7c3f fa1b 7b3f f724 7c3f
000000c0: 1bea 803f b74c 7f3f d4cc 803f f7b6 7e3f
000000d0: 5023 7d3f bac8 813f 375b 843f 8cf1 7c3f
000000e0: c37c 7f3f 921f 823f f1f4 813f 5064 7f3f
000000f0: 3396 803f 1962 7d3f 098d 7c3f 0449 7f3f

encoder.1.1.bias f4 [64]
-0.028413761 -0.006966885 -0.059079062 0.0029153102 0.0039917952 -0.012631827 -0.006052434 0.011827081
-0.0124793425 0.0011732234 -0.03282689 -0.013894594 -0.0054725213 -0.0235088 -0.0821988 -0.06465399
0.027368763 -0.053231288 -0.040498633 -0.087319374 -0.027990231 -0.09415669 -0.08143788 -0.007495468
-0.05362669 -0.086304314 -0.0077187046 -0.0012725494 -0.014299139 -0.03046696 -0.0037495864 -0.029580237
-0.019285524 -0.053084582 -0.008324191 -0.12544239 -0.023274893 -0.008649037 -0.022969073 0.0017062902
0.010806958 0.0029102422 -0.003215167 -0.0069100037 -0.0024975871 -0.011004236 -0.0010554024 0.0071033225
-0.018238315 -0.017089065 -0.0565327 -0.07766794 0.000896905 -0.0046237945 -0.06483786 -0.011760358
-0.002198469 -0.08039369 0.011451529 -0.02089395 -0.010895799 -0.010713365 -0.005221345 -0.0010867433
00000000: fac3 e8bc 784a e4bb e3fc 71bd ca0e 3f3b
00000010: 9bcd 823b b9f5 4ebc 7f53 c6bb 60c6 413c
00000020: 2876 4cbc d8c6 993a 7d75 06bd 27a6 63bc
00000030: d652 b3bb 8795 c0bc d857 a8bd 5069 84bd
00000040: 7534 e03c 0d09 5abd e5e1 25bd 80d4 b2bd
00000050: c54b e5bc 39d5 c0bd e7c8 a6bd 8b9c f5bb
00000060: a9a7 5bbd 51c0 b0bd 30ed fcbb accb a6ba
00000070: f046 6abc d995 f9bc 9fbb 75bb 4152 f2bc
00000080: adfc 9dbc 386f 59bd 3062 08bc f873 00be
00000090: fdaa bebc b1b4 0dbc a329 bcbc 99a5 df3a
000000a0: ab0f 313c c3b9 3e3b 8db5 52bb 506d e2bb
000000b0: 8fae 23bb 1c4b 34bc 6e55 8aba fdc2 e83b
000000c0: 8568 95bc 5efe 8bbc d58e 67bd 5e10 9fbd
000000d0: 471e 6b3a 3383 97bb b6c9 84bd 84ae 40bc
000000e0: 3014 10bb 72a5 a4bd 329f 3b3c ca29 abbc
000000f0: 4b84 32bc 1c87 2fbc d117 abbb 0e71 8eba

encoder.1.1.running_mean f4 [64]
-0.90243673 -1.191508 0.44915596 -2.072941 -1.8316505 -1.7088212 -0.11960343 -1.5452983
-0.35191417 -1.63356 -0.21333157 -1.9275285 0.10812649 -1.6992432 0.8785594 0.53427404
-1.7887673 0.13234235 0.19422023 0.25947773 -1.5414507 0.09013528 -0.29220486 0.9602564
0.7508519 0.53563255 -0.75573194 -1.0116626 -1.5460817 -0.15486148 0.13291094 1.1818887
-1.3969574 -0.14717443 0.35058084 0.52974606 -1.7622285 -2.0194879 0.2625202 -1.4826404
-1.4875509 -0.11922027 -1.7471589 -1.8799087 0.149461 -0.2178956 -1.8158706 -2.4412107
-0.30653274 1.67274 0.87512976 0.8042416 0.12513536 0.39116594 0.9612421 0.29679266
-1.2850028 1.33926 -1.8401288 -0.49192187 0.4574508 -1.2895634 -1.236193 -0.7134891
00000000: 1806 67bf 5683 98bf c5f7 e53e 11ab 04c0
00000010: 8673 eabf a7ba dabf a5f2 f4bd 56cc c5bf
00000020: 182e b4be 7e18 d1bf 9773 5abe 41b9 f6bf
00000030: 6c71 dd3d cd80 d9bf 45e9 603f 2fc6 083f
00000040: 54f6 e4bf c184 073e abe1 463e 44da 843e
00000050: 424e c5bf d898 b83d e09b 95be 5dd3 753f
00000060: d537 403f 371f 093f a677 41bf 297e 81bf
00000070: 01e6 c5bf 0294 1ebe ce19 083e 2148 973f
00000080: 80cf b2bf e5b4 16be 557f b33e 709d 073f
00000090: b490 e1bf 4a3f 01c0 0c69 863e 29c7 bdbf
000000a0: 1168 bebf c229 f4bd e7a2 dfbf d9a0 f0bf
000000b0: 4e0c 193e 0620 5fbe 736e e8bf cc3c 1cc0
000000c0: dcf1 9cbe 581c d63f 8108 603f c7e2 4d3f
000000d0: 7c23 003e e746 c83e f613 763f 35f5 973e
000000e0: f97a a4bf df6c ab3f 5789 ebbf 2fdd fbbe
000000f0: fe36 ea3e 6a10 a5bf 923b 9ebf 39a7 36bf

encoder.1.1.running_var f4 [64]
1.8500088 1.5698764 0.96231115 1.2163672 1.2163851 1.0679396 1.8325206 3.748795
1.1108112 0.97100073 0.51149434 0.971973 0.74291676 0.85373217 2.1016467 1.687014
1.2709757 1.2547474 1.2781446 1.1836349 7.7328415 1.8934654 1.0029917 1.7749376
1.206121 1.1475562 1.1175987 2.1271868 1.3919405 0.8475846 0.929749 1.751431
0.80043304 1.9187161 0.65126944 1.0929855 1.1038171 3.8527596 1.8704836 1.8354924
1.1533874 2.5160565 2.1102908 0.973804 1.5931425 1.2873654 0.9830586 2.0881205
0.5494024 2.0070493 0.9733908 1.8662963 0.6949336 2.4044912 1.3244461 0.49293077
0.90437084 2.0040069 1.9730158 1.615103 1.4275478 0.9650812 1.2031692 1.973209
00000000: 17cd ec3f b6f1 c83f 065a 763f ecb1 9b3f
00000010: 82b2 9b3f 3fb2 883f 0990 ea3f 42ec 6f40
00000020: 102f 8e3f 8193 783f 4bf1 023f 39d3 783f
00000030: cb2f 3e3f 318e 5a3f 6181 0640 13f0 d73f
00000040: 55af a23f 909b a03f 3e9a a33f 5981 973f
00000050: 7073 f740 135d f23f 0862 803f 2831 e33f
00000060: 2c62 9a3f 1fe3 923f 790d 8f3f d423 0840
00000070: 1b2b b23f 4efb 583f 0804 6e3f e42e e03f
00000080: 2ee9 4c3f 7d98 f53f 98b9 263f f3e6 8b3f
00000090: e149 8d3f 9d93 7640 026c ef3f 6af1 ea3f
000000a0: 33a2 933f 1207 2140 010f 0740 384b 793f
000000b0: 18ec cb3f 64c8 a43f baa9 7b3f c4a3 0540
000000c0: a3a5 0c3f 7f73 0040 2430 793f cce2 ee3f
000000d0: 2be7 313f 2fe3 1940 7387 a93f 6c61 fc3e
000000e0: d984 673f a641 0040 c88b fc3f b2bb ce3f
000000f0: e3b9 b63f 900f 773f 7301 9a3f 1d92 fc3f

encoder.2.0.weight f4 [64, 64, 3, 3]
-0.023011664 0.021242049 0.016461132 -0.02650031 -0.025784487 0.020268673 0.03472936 0.05104157
0.039227907 -0.008709139 0.052109025 -0.018647926 0.01245088 0.03304197 -0.007551496 0.033411942
0.017087007 -0.026322817 0.025847008 0.037718613 -0.013305319 0.017585924 0.031230818 0.008778696
0.024407355 -0.010726998 0.040685385 0.018469084 -0.024051098 0.021249073 -0.022457507 0.03315049
0.02670816 0.037133675 -0.0003398793 -0.019769207 -0.046183757 -0.03109101 -0.010870388 -0.0010206229
0.01768398 0.019611424 -0.02740118 -0.026116468 0.026554288 0.010011542 0.042932384 0.0055805375
-0.016988596 0.0026790947 -0.042590823 -0.00058439607 0.012891288 0.011835175 -0.018279111 0.007500599
-0.0009966805 -0.019098805 0.011901924 0.009082168 -0.05279714 -0.03134039 0.0006657195 0.01053816
-0.017425705 -0.005883813 0.0038206335 0.0087767765 0.023440273 0.009188427 -0.019327616 0.022362525
0.0209942 -0.016928632 0.031980716 -0.021951685 -0.03659558 0.012776841 -0.014358138 0.0058110845
0.020826893 -0.03588357 0.044211753 -0.005902516 -0.025507854 0.024679922 0.04689164 0.034334145
0.03513421 0.045236938 0.0020484373 0.027822336 0.030514713 0.019438567 -0.00025499618 0.0036681946
0.032916013 -0.0069314423 0.043100037 0.038780577 0.0067112567 -0.042785235 -0.012159139 -0.012132621
0.028753966 0.0284949 -0.006273083 0.014660093 -0.04588223 0.008249694 -0.03211217 0.03127464
-0.00042578476 -0.035050683 -0.0031009966 -0.048930626 -0.036860034 -0.027659478 -0.013584994 0.016586568
-0.03461633 0.01260337 0.0021830173 -0.02868945 -0.024383117 -0.03315828 0.022154335 0.023653008
0.04457231 -0.00806412 -0.015718073 0.0100770565 0.036372654 0.025940431 0.03841089 0.045012828
0.008315044 -0.017537821 -0.020622872 -0.03185903 0.023483267 0.01494203 0.035520047 0.055719446
0.03907402 0.024064224 -0.014266325 0.02764236 0.013044706 -0.0032508967 0.014903012 -0.01411977
0.04526697 0.00995583 -0.014296616 -0.017511304 -0.021425428 -0.030951118 0.02522347 0.05276438
-0.01739806 0.031901784 0.026121315 0.048396472 -0.015517655 0.03688062 -0.020522106 -0.018076211
-0.02190306 -0.014619855 0.01355641 0.00084792584 0.0056920433 0.052605674 -0.014158007 0.021571664
-0.011725229 -0.016872715 0.022544105 0.047093064 0.0068309694 -0.011310683 0.017714066 0.011721719
0.0075362395 -0.03141784 0.03699558 -0.0062027215 -0.016139666 0.053464234 0.06919061 0.025102764
0.031890746 0.031479027 0.05432483 0.037619047 0.044901956 0.049038846 -0.017318547 0.019798262
0.038132336 0.046869945 0.035555825 -0.0034353258 -0.004750885 -0.020420928 0.024822487 -0.02076309
-0.03572448 -0.03836072 0.017956363 -0.002678234 -0.02551608 0.0123877935 0.02923528 0.024916796
-0.015883803 0.0025242276 0.012736903 0.011517794 0.029303862 -0.016653083 0.016726444 0.020647308
-0.004342712 0.0053459066 0.014650644 -0.011486691 0.02634249 0.021890212 -0.007050961 0.016804554
-0.003784176 -0.0032670256 -0.036464456 -0.03865956 -0.042340994 0.011721167 -0.023320088 0.018307572
-0.009526117 -0.020173794 -0.029752214 -0.0040932125 0.025601292 -0.023046957 0.037869845 -0.011737276
-0.0015392198 -0.0028209854 -0.0066308347 0.025608776 -0.009289964 -0.009907037 -0.03635935 0.003559057
00000000: f582 bcbc ce03 ae3c 7fd9 863c 2e17 d9bc
00000010: fd39 d3bc 7d0a a63c 6040 0e3d f710 513d
00000020: 71ad 203d c7b0 0ebc 4670 553d 89c3 98bc
00000030: c7fe 4b3c 0457 073d 8a72 f7bb f6da 083d
00000040: 0dfa 8b3c f3a2 d7bc 1bbd d33c d57e 1a3d
00000050: 8dfe 59bc 5b10 903c c6d7 ff3c 85d4 0f3c
00000060: eff1 c73c 4ac0 2fbc b8a5 263d 7a4c 973c
00000070: cf06 c5bc 8912 ae3c cef8 b7bc cfc8 073d
00000080: 12cb da3c 7b19 183d d431 b2b9 08f3 a1bc
00000090: 2e2b 3dbd 93b2 febc b619 32bc 6cc6 85ba
000000a0: fedd 903c 23a8 a03c 7078 e0bc 34f2 d5bc
000000b0: 6188 d93c 7307 243c ded9 2f3d f1dc b63b
000000c0: ab2b 8bbc c093 2f3b b773 2ebd 2832 19ba
000000d0: fb35 533c 52e8 413c 13be 95bc 96c7 f53b
000000e0: 0ca3 82ba 1975 9cbc 4a00 433c 60cd 143c
000000f0: d041 58bd c85e 00bd ae83 2e3a 3fa8 2c3c
00000100: 5ac0 8ebc 00cd c0bb 9863 7a3b 78cc 0f3c
00000110: d105 c03c 0e8b 163c f354 9ebc 9d31 b73c
00000120: 07fc ab3c eaad 8abc 36fe 023d 05d4 b3bc
00000130: 3fe5 15bd f555 513c 653e 6bbc e96a be3b
00000140: 299d aa3c a6fa 12bd 6217 353d e569 c1bb
00000150: d9f5 d0bc 8c2d ca3c 7311 403d f6a1 0c3d
00000160: e4e8 0f3d 5e4a 393d 133f 063b abeb e33c
00000170: fef9 f93c a13d 9f3c 02b1 85b9 1866 703b
00000180: f1d2 063d 2721 e3bb aa89 303d 62d8 1e3d
00000190: 1aea db3b 923f 2fbd 2037 47bc e7c7 46bc
000001a0: 708d eb3c 236e e93c 6f8e cdbb e330 703c
000001b0: 01ef 3bbd b929 073c 0d88 03bd d619 003d
000001c0: dd3b dfb9 4e91 0fbd 173a 4bbb 7b6b 48bd
000001d0: 8cfa 16bd 2196 e2bc 9893 5ebc 8ee0 873c
000001e0: dac9 0dbd 5d7e 4e3c f410 0f3b 2306 ebbc
000001f0: 1abf c7bc fad0 07bd 027d b53c f4c3 c13c
00000200: 7491 363d 5f1f 04bc 30c3 80bc 3d1a 253c
00000210: 7efb 143d 0781 d43c bd54 1d3d 5f5f 383d
00000220: d33b 083c 7aab 8fbc 4cf1 a8bc 9d7e 02bd
00000230: fb5f c03c 6bcf 743c 787d 113d 133a 643d
00000240: 140c 203d 5622 c53c 4ebd 69bc 3b72 e23c
00000250: 76b9 553c ff0c 55bb c32b 743c 9c56 67bc
00000260: dc69 393d c71d 233c 5b3c 6abc de73 8fbc
00000270: 6184 afbc 338d fdbc 73a1 ce3c 761f 583d
00000280: 6086 8ebc 72ab 023d 5efc d53c 613b 463d
00000290: c33d 7ebc 2210 173d fa1d a8bc 9014 94bc
000002a0: 0c6e b3bc 1e88 6fbc b41b 5e3c 5747 5e3a
000002b0: 5284 ba3b 0c79 573d fcf6 67bc 0fb7 b03c
000002c0: 2d1b 40bc a638 8abc 6aae b83c a8e4 403d
000002d0: 53d6 df3b 7150 39bc 171d 913c 740c 403c
000002e0: 8ff2 f63b feaf 00bd ad88 173d 3340 cbbb
000002f0: 5537 84bc 50fd 5a3d ceb3 8d3d 50a4 cd3c
00000300: df9f 023d 27f0 003d b783 5e3d 6e16 1a3d
00000310: 1deb 373d f5dc 483d a0df 8dbc f72f a23c
00000320: a730 1c3d b3fa 3f3d fca2 113d 3423 61bb
00000330: 50ad 9bbb ca49 a7bc 8758 cb3c 5b17 aabc
00000340: d553 12bd 2120 1dbd 3919 933c 4f85 2fbb
00000350: 1907 d1bc 2cf6 4a3c d37e ef3c 4f1e cc3c
00000360: c01e 82bc 836d 253b 71ae 503c 21b5 3c3c
00000370: a70e f03c 0c6c 88bc e505 893c 8b24 a93c
00000380: 4f4d 8ebb b72c af3b 4109 703c ad32 3cbc
00000390: 35cc d73c 1a53 b33c bf0b e7bb b4a9 893c
000003a0: f0ff 77bb 981b 56bb c15b 15bd 7d59 1ebd
000003b0: c06d 2dbd 230a 403c c509 bfbc c3f9 953c
000003c0: 6e13 1cbc 8343 a5bc eaba f3bc 5b20 86bb
000003d0: cdb9 d13c f9cc bcbc 691d 1b3d b44d 40bc
000003e0: a5bf c9ba 48e0 38bb 7947 d9bb 7fc9 d13c
000003f0: ef34 18bc 2051 22bc 8bed 14bd 113f 693b

encoder.2.0.bias f4 [64]
0.0014529409 -0.01279931 0.010278256 0.016351262 0.04161458 0.0010790852 -0.0055082706 0.038199086
0.0003926299 0.0033671595 -0.02987505 0.04481152 -0.022785388 -0.026013702 -0.008219358 -0.050600603
-0.01298927 0.029149927 -0.0041209706 -0.057117775 0.01077224 -0.045060787 0.01020259 0.034371775
-0.036466766 -0.032769922 -0.014719005 -0.043163273 0.030893378 -0.026187127 -0.0025256549 0.027375083
0.010546589 0.024263002 -0.043177042 -0.044189878 0.025222104 0.01987201 0.012082142 0.010062465
-0.01726758 0.0072531006 -0.0492859 0.030742237 -0.011889452 0.03231913 0.033704963 0.031098396
0.040735092 0.033134364 0.04659319 -0.031272 -0.051400986 -0.03334729 0.026319826 -0.006829967
0.03585697 0.0030617043 -0.019245053 0.026462473 0.035814524 0.012574603 -0.034882113 -0.0027445953
00000000: 9b70 be3a 32b4 51bc 2166 283c 15f3 853c
00000010: 0d74 2a3d 1770 8d3a b97e b4bb a576 1c3d
00000020: e5d9 cd39 90ab 5c3b 85bc f4bc 498c 373d
00000030: 6ca8 babc b01a d5bc 7caa 06bc 9442 4fbd
00000040: f2d0 54bc d4cb ee3c 3509 87bb 54f4 69bd
00000050: 0d7e 303c a991 38bd c428 273c 6bc9 0c3d
00000060: 2d5e 15bd c139 06bd fb27 71bc f9cb 30bd
00000070: 1c14 fd3c 6386 d6bc 7585 25bb b641 e03c
00000080: 9acb 2c3c 34c3 c63c 69da 30bd 7200 35bd
00000090: 969e ce3c a0ca a23c 2df4 453c 0add 243c
000000a0: bd74 8dbc 6bab ed3b 03e0 49bd 25d7 fb3c
000000b0: facb 42bc 1061 043d 370e 0a3d 10c2 fe3c
000000c0: d7d9 263d e6b7 073d 80d8 3e3d 1217 00bd
000000d0: d789 52bd 2b97 08bd ad9c d73c eacd dfbb
000000e0: c2de 123d e0a6 483b cda7 9dbc d4c7 d83c
000000f0: 40b2 123d b505 4e3c 8ce0 0ebd abde 33bb

encoder.2.1.weight f4 [64]
1.0427775 1.0305185 0.98807806 1.0332257 1.0053556 0.9748521 0.9721715 0.99118876
0.954231 1.0281851 1.0070965 1.0182753 0.9604018 1.0311399 0.9929458 1.0188851
0.99627393 1.0601796 0.9685563 0.9829201 0.9975355 0.97853005 1.0662788 0.98190546
0.9786228 1.0034088 0.9874851 0.99401206 1.0547277 0.97645366 0.9934539 0.9774065
0.9786449 1.0434573 0.9801466 0.98715895 0.9718817 0.9884506 0.9611628 0.9714671
0.9805326 1.0176109 0.97014856 1.0020022 0.98850614 1.0092119 0.98314524 0.97150576
0.98809564 0.974139 1.0210304 0.9771164 0.9739012 0.994222 1.0303917 0.96187687
1.0288409 0.9775189 1.0472733 1.0412878 0.9901096 0.9772509 0.96969855 1.0712289
00000000: bc79 853f 08e8 833f aff2 7c3f bd40 843f
00000010: 7eaf 803f e88f 793f 3be0 783f 8cbe 7d3f
00000020: 7c48 743f 929b 833f 8ae8 803f d856 823f
00000030: e4dc 753f 64fc 833f b231 7e3f d46a 823f
00000040: cf0b 7f3f f7b3 873f 4ef3 773f a7a0 7b3f
00000050: 7d5e 7f3f f280 7a3f d37b 883f 285e 7b3f
00000060: 0687 7a3f b36f 803f d3cb 7c3f 9377 7e3f
00000070: 5101 873f def8 793f ff52 7e3f 5037 7a3f
00000080: 7988 7a3f 0290 853f e3ea 7a3f 73b6 7c3f
00000090: 3dcd 783f 190b 7d3f c40e 763f 11b2 783f
000000a0: 2f04 7b3f 1341 823f a85b 783f 9c41 803f
000000b0: bd0e 7d3f db2d 813f 68af 7b3f 9ab4 783f
000000c0: d6f3 7c3f 2c61 793f 20b1 823f 4d24 7a3f
000000d0: 9751 793f 5585 7e3f e0e3 833f 903d 763f
000000e0: 0fb1 833f ae3e 7a3f 0d0d 863f eb48 853f
000000f0: d377 7d3f 1d2d 7a3f 2a3e 783f 071e 893f

encoder.2.1.bias f4 [64]
-0.07715024 -0.1068605 0.0011731922 -0.046829775 -0.016528998 -0.030690212 -0.032523863 -0.007845144
-0.05535656 -0.038809 -0.023039373 -0.05862881 -0.04724702 -0.09025871 -0.022782793 -0.086262755
-0.0034155822 -0.08767112 -0.022816276 -0.009963838 -0.03331376 -0.025164826 -0.105281584 -0.024442673
-0.037053525 -0.038379513 -0.012720892 0.002712045 -0.077562444 -0.032527223 -0.018667232 -0.015480231
-0.0115692625 -0.09651145 -0.02044668 -0.01737882 -0.0316367 -0.020409022 -0.04778668 -0.021828786
-0.009300677 -0.08852456 -0.022324365 -0.008683673 0.0007525679 -0.026821444 -0.0018470676 -0.040422764
-0.02308816 -0.008562732 -0.08740936 -0.025668725 -0.036165763 -0.011207967 -0.063906014 -0.027189149
-0.072922125 -0.0070781247 -0.11511912 -0.12905285 -0.004441414 -0.021644436 -0.040527273 -0.12526882
00000000: f200 9ebd aed9 dabd ccc5 993a 94d0 3fbd
00000010: d267 87bc 0a6a fbbc be37 05bd eb88 00bc
00000020: 8fbd 62bd 30f6 1ebd 11bd bcbc c324 70bd
00000030: 1786 41bd 8fd9 b8bd fba2 babc 87aa b0bd
00000040: f6d7 5fbb eb8c b3bd 33e9 babc 5e3f 23bc
00000050: 0274 08bd 7726 cebc df9d d7bd 003c c8bc
00000060: 70c5 17bd d633 1dbd 4a6b 50bc 91bc 313b
00000070: 0fd9 9ebd 443b 05bd 06ec 98bc cba0 7dbc
00000080: 018d 3dbc cca7 c5bd cc7f a7bc 075e 8ebc
00000090: 7c95 01bd d230 a7bc f7bb 43bd 48d2 b2bc
000000a0: de61 18bc 5d4c b5bd 96e1 b6bc f745 0ebc
000000b0: fa47 453a a5b8 dbbc 4e19 f2ba 5792 25bd
000000c0: 6223 bdbc b34a 0cbc ae03 b3bd 3847 d2bc
000000d0: 8d22 14bd 9fa1 37bc 28e1 82bd c7bb debc
000000e0: 3258 95bd 9def e7bb 93c3 ebbd 6e26 04be
000000f0: 4889 91bb ac4f b1bc edff 25bd 7846 00be

encoder.2.1.running_mean f4 [64]
1.1697829 1.2730678 -0.35267907 1.0179719 1.0555739 -2.0775125 -1.7451832 -0.41906437
-1.1792102 0.764505 0.7500357 1.4261736 -0.9024151 1.055211 0.48935783 1.4684893
0.07311526 1.7339442 -0.58924955 -1.4065084 0.60977674 -1.7074982 1.272864 0.76852304
-0.801647 1.2717159 0.5877364 0.13277924 1.7879798 -1.5168053 1.2067561 -0.7068495
-1.2128165 1.53929 -1.6560057 -0.700758 -0.8935499 -0.29976806 -1.1477233 -0.5145015
-1.506341 2.209194 -0.9698556 0.28885347 -0.6189254 1.384271 0.5698468 -1.8518116
-0.8220048 -0.97883844 1.5067141 -1.0868523 -1.1356639 -1.4191864 1.6220466 -0.5105774
1.4720585 -1.6579493 1.6086036 1.3542444 0.5568464 -0.8442009 -0.4901113 1.3548136
00000000: 72bb 953f e3f3 a23f 5a92 b4be e74c 823f
00000010: 0c1d 873f f7f5 04c0 2a62 dfbf 9b8f d6be
00000020: 5cf0 96bf 9ab6 433f 5702 403f db8c b63f
00000030: ad04 67bf 2711 873f 1c8d fa3e 75f7 bb3f
00000040: 74bd 953d e2f1 dd3f 0fd9 16bf 7808 b4bf
00000050: 541a 1c3f 4d8f dabf 35ed a23f edbd 443f
00000060: bd38 4dbf 96c7 a23f e575 163f 48f7 073e
00000070: 86dc e43f ad26 c2bf fc76 9a3f 17f4 34bf
00000080: 923d 9bbf 7407 c53f fff7 d3bf e064 33bf
00000090: b0bf 64bf 337b 99be 99e8 92bf 5fb6 03bf
000000a0: c8cf c0bf 6f63 0d40 7548 78bf 9ae4 933e
000000b0: e571 1ebf cb2f b13f 7be1 113f 2a08 edbf
000000c0: e86e 52bf 2895 7abf 02dc c03f fa1d 8bbf
000000d0: 6f5d 91bf e6a7 b5bf 399f cf3f 33b5 02bf
000000e0: 6a6c bc3f af37 d4bf b9e6 cd3f e157 ad3f
000000f0: 7c8d 0e3f 8d1d 58bf deef fabe 886a ad3f

encoder.2.1.running_var f4 [64]
5.60573 5.945369 2.7957952 4.435051 3.0969217 1.4872688 4.220538 4.6479416
4.597786 2.794044 1.6705395 3.6453705 3.4821827 3.1334927 2.2346325 4.6603575
3.387058 5.3010135 4.578852 4.023024 2.93613 3.6219416 3.7071874 2.0941503
3.1795654 3.08611 0.8626883 1.25766 6.6085033 7.3057475 2.3952954 3.7902825
2.9435623 5.5037594 2.343305 2.9742668 3.9295604 3.1362774 2.0145411 4.666548
7.0290885 6.1053467 3.5025856 3.4105263 2.459814 5.097893 1.1696246 8.2057905
1.5962737 5.4277983 4.4545603 2.8226662 3.483423 4.18619 3.5437686 3.869072
3.2523456 3.5176873 5.5032353 4.7852516 1.9918783 3.3422062 4.392149 4.9831977
00000000: 2462 b340 7640 be40 4fee 3240 f0eb 8d40
00000010: f733 4640 d35e be3f a60e 8740 f0bb 9440
00000020: 1021 9340 9ed1 3240 3dd4 d53f c04d 6940
00000030: 15dc 5e40 258b 4840 3804 0f40 a621 9540
00000040: 8fc5 5840 e7a1 a940 f585 9240 9dbc 8040
00000050: 8ee9 3b40 e4cd 6740 8f42 6d40 8f06 0640
00000060: 007e 4b40 d482 4540 24d9 5c3f 01fb a03f
00000070: dc78 d340 afc8 e940 854c 1940 fd93 7240
00000080: 5363 3c40 cc1e b040 b6f8 1540 635a 3e40
00000090: eb7d 7b40 c5b8 4840 3eee 0040 5c54 9540
000000a0: 4bee e040 005f c340 5d2a 6040 1046 5a40
000000b0: 986d 1d40 f121 a340 42b6 953f eb4a 0341
000000c0: b252 cc3f 86b0 ad40 c28b 8e40 90a6 3440
000000d0: 67f0 5e40 45f5 8540 1bcd 6240 e09e 7740
000000e0: 6e26 5040 ca21 6140 811a b040 c820 9940
000000f0: def5 fe3f b5e6 5540 7c8c 8c40 5b76 9f40

encoder.3.0.weight f4 [64, 64, 3, 3]
-0.03473535 -0.043266527 8.313018e-05 0.020207448 0.02643058 -0.023830092 -0.032255188 0.0227086
-0.027343366 -0.018069772 -0.003183136 -0.034360178 -0.01687446 -0.026108412 -0.044966552 -0.032486737
-0.06812026 0.0037364927 0.04394579 -0.004353231 0.037039366 0.015604949 -0.029633969 -0.03951386
-0.017560048 -0.0048251683 -0.029981565 0.031528115 -0.009215613 0.0009920136 -0.02909023 -0.014943883
-0.0024607964 -0.006001232 0.016043615 -0.055544376 0.0038396197 -0.03405475 0.013415404 -0.027533662
-0.047492046 0.006706529 -0.04649321 -0.0466049 -0.0049006487 -0.012552847 0.013459797 -0.013775053
-0.033278275 0.018356217 0.015403704 -0.031096598 -0.012222877 0.021261051 -0.044751827 0.011919735
0.0010555402 -0.0053586294 -0.03681572 0.025851175 -0.027710866 0.0026251 0.033985533 0.0109625785
0.0073256004 -0.010347982 -0.033425104 0.006012176 -0.03494271 -0.0379484 -0.00691477 0.029274596
-0.021251924 0.0012778927 -0.00860088 0.0036899315 0.014516842 -8.003664e-05 -0.04528245 -0.033321097
0.0022196816 0.00944946 0.027276147 0.025832433 -0.04088112 -0.042309254 -0.030604128 -0.05697583
-0.0031727205 -0.035455145 0.03392503 -0.028022796 -0.030933956 -0.0038158488 -0.05558274 -0.021785287
0.021434689 -0.0051216087 -0.025604952 0.014086919 -0.023833761 0.03709724 -0.028249107 -0.014093103
0.016916187 -0.024462275 -0.045192484 -0.013687944 0.0087818075 0.008270487 -0.014233328 -0.020345163
-0.010383616 0.008214486 -0.017542604 0.000454206 -0.044705875 -0.043662142 -0.022687016 -0.026527314
-0.015579292 -0.012002176 -0.016049102 -0.018387146 0.0013273763 -0.042070244 0.017866984 0.022881815
-0.035784114 -0.0198345 -0.04857075 -0.032701265 0.0311662 0.006641514 -0.011676777 -0.04042833
0.02765483 0.01831871 0.027664136 0.009712658 -0.043452755 -0.04628981 0.018427486 0.010483704
0.020067452 0.032304432 0.022829708 -0.00653724 0.035793122 -0.017389348 0.005690406 -0.017528342
-0.017413843 0.013672876 -0.05104428 -0.00059847196 0.009891586 -0.08592061 -0.042794164 -0.02998284
-0.053851478 -0.07266628 0.01531831 0.00761969 -0.035951126 0.002142296 -0.0023838924 0.030273631
-0.013997585 -0.016908394 0.033040516 -0.0024203274 0.013558091 0.012244363 -0.036340393 0.03527118
0.025798101 -0.00027457948 -0.018727774 -0.0069905366 0.014131222 0.025677867 0.03719337 0.01666038
-0.034738995 0.027201911 -0.03749047 0.006196994 0.02807392 0.032360982 0.00060196395 -0.04452462
0.011553921 -0.04231428 0.01649512 0.023920283 -0.04295115 -0.008711678 0.0108357845 0.022023309
0.013783118 -0.021171272 -0.056230154 -0.02141121 -0.006270686 -0.022374302 -0.06208977 -0.00497993
0.048109807 0.0191594 0.030560318 0.010201857 0.0134532675 0.035123315 0.026613757 -0.039990246
-0.007661448 -0.010389088 0.043122824 0.036934745 0.04506178 -0.01715213 0.048656017 -0.024739519
0.021376722 0.03697036 0.0039518564 0.02389258 -0.0012032018 -0.018939234 -0.04040063 -0.021375123
-0.040221117 -0.018691814 0.011857896 -0.0044248616 0.03544977 -0.026497995 0.0369243 0.020891843
-0.0010674903 0.0373392 0.0032767868 -0.016501846 0.00050148333 0.03907992 -0.026792953 -0.012793016
-0.025840534 -0.009510735 -0.010585586 0.022575764 -0.047638442 0.02935804 -0.04078215 0.011687386
00000000: a846 0ebd 3e38 31bd 2d56 ae38 178a a53c
00000010: f284 d83c 5337 c3bc 041e 04bd 6307 ba3c
00000020: 32ff dfbc 0f07 94bc 299c 50bb 42bd 0cbd
00000030: 4f3c 8abc 4fe1 d5bc d92e 38bd d010 05bd
00000040: a382 8bbd f2df 743b 8000 343d 8ca5 8ebb
00000050: 97b6 173d e6ab 7f3c f0c2 f2bc 49d9 21bd
00000060: 17da 8fbc 721c 9ebb e69b f5bc a023 013d
00000070: 15fd 16bc 7406 823a a24e eebc 30d7 74bc
00000080: 5045 21bb fca5 c4bb e66d 833c 8082 63bd
00000090: 21a2 7b3b fe7c 0bbd 48cc 5b3c 468e e1bc
000000a0: 0587 42bd 71c2 db3b aa6f 3ebd c8e4 3ebd
000000b0: 9f95 a0bb 75aa 4dbc 7b86 5c3c c3b0 61bc
000000c0: cd4e 08bd c75f 963c d15f 7c3c 4bbe febc
000000d0: 7642 48bc a82b ae3c b14d 37bd fe4a 433c
000000e0: 0d5a 8a3a 7197 afbb 15cc 16bd d8c5 d33c
000000f0: e601 e3bc df09 2c3b 6a34 0b3d 639c 333c
00000100: 970b f03b 958a 29bc c3e8 08bd ca01 c53b
00000110: 1620 0fbd c86f 1bbd 4c95 e2bb 47d1 ef3c
00000120: 8418 aebc f77e a73a b5ea 0cbc c7d2 713b
00000130: 0cd8 6d3c 58d9 a7b8 177a 39bd b47b 08bd
00000140: 1478 113b e8d1 1a3c 3a72 df3c 8a9e d33c
00000150: f672 27bd 784c 2dbd 82b5 fabc 7d5f 69bd
00000160: 6bed 4fbb 6a39 11bd f9f4 0a3d 1090 e5bc
00000170: 3569 fdbc 5213 7abb baaa 63bd 0f77 b2bc
00000180: cd97 af3c 2bd3 a7bb 7ac1 d1bc d2cc 663c
00000190: 053f c3bc 47f3 173d ac6a e7bc c2e6 66bc
000001a0: d193 8a3c 1c65 c8bc c11b 39bd 6643 60bc
000001b0: 92e1 0f3c f080 073c e832 69bc e6aa a6bc
000001c0: 0b20 2abc 0d96 063c 82b5 8fbc 7f22 ee39
000001d0: 821d 37bd 13d7 32bd 1fda b9bc cf4f d9bc
000001e0: 4940 7fbc c6a4 44bc 6879 83bc a4a0 96bc
000001f0: 5cfb ad3a d951 2cbd c85d 923c a572 bb3c
00000200: 5d92 12bd f67b a2bc 1ff2 46bd c3f1 05bd
00000210: 4250 ff3c 0fa1 d93b f44f 3fbc 2d98 25bd
00000220: 628c e23c 1f11 963c e69f e23c d721 1f3c
00000230: 84fb 31bd 629a 3dbd 3df5 963c d7c3 2b3c
00000240: 7f64 a43c a751 043d 5e05 bb3c 5836 d6bb
00000250: cf9b 123d 1b74 8ebc 9676 ba3b 9997 8fbc
00000260: 7aa7 8ebc 3304 603c cf13 51bd c6e2 1cba
00000270: 5210 223c 25f7 afbd ef48 2fbd 939e f5bc
00000280: 5e93 5cbd 0fd2 94bd a6f9 7a3c 98ae f93b
00000290: 7d41 13bd c365 0c3b 143b 1cbb 6800 f83c
000002a0: 2056 65bc 7983 8abc 7e55 073d 5b9e 1ebb
000002b0: c122 5e3c 959c 483c aad9 14bd 8378 103d
000002c0: 8a56 d33c 6ff5 8fb9 fd6a 99bc df10 e5bb
000002d0: a486 673c 645a d23c 1358 183d 597b 883c
000002e0: 7a4a 0ebd 8bd6 de3c 9b8f 19bd 2710 cb3b
000002f0: 47fb e53c f38c 043d 1ecd 1d3a 735f 36bd
00000300: a84c 3d3c bd51 2dbd c620 873c 78f4 c33c
00000310: 8ced 2fbd 6dbb 0ebc 9388 313c 3a6a b43c
00000320: 96d2 613c 606f adbc 9751 66bd 9066 afbc
00000330: 547a cdbb 504a b7bc d851 7ebd ae2e a3bb
00000340: ca0e 453d 2df4 9c3c a259 fa3c b125 273c
00000350: 186b 5c3c 77dd 0f3d 1805 da3c d0cc 23bd
00000360: e20c fbbb fe36 2abc 8fa1 303d e348 173d
00000370: b392 383d a082 8cbc 884b 473d 88aa cabc
00000380: 3c1e af3c 3b6e 173d 937e 813b 5fba c33c
00000390: c1b4 9dba 7426 9bbc 227b 25bd e21a afbc
000003a0: e6be 24bd 931f 99bc 9f47 423c 6efe 90bb
000003b0: c733 113d 5312 d9bc ef3d 173d 5f25 ab3c
000003c0: 08eb 8bba fdf0 183d 5cbf 563b e12e 87bc
000003d0: fa75 033a 4412 203d e57c dbbc cc99 51bc
000003e0: 87af d3bc ead2 1bbc 2a6f 2dbc cff0 b83c
000003f0: 8720 43bd 4680 f03c 2f0b 27bd 737c 3f3c

encoder.3.0.bias f4 [64]
0.011530257 -0.038896576 0.007089403 0.031822175 -0.034734394 -0.0451845 -0.021423724 0.019661237
-0.005141248 -0.029111622 0.012209005 0.012980111 -0.030601336 -0.028784625 0.028178804 -0.05141073
0.0075198817 -0.051857535 -0.040502053 0.020735297 -0.014494868 0.023808755 -0.029433193 -0.016053008
-0.0056234687 -0.026591055 0.028520064 0.02737076 -0.02015572 0.018698692 -0.0132482685 0.03627211
-0.05297094 -0.016038608 -0.01809537 0.011623429 -0.058402352 0.015079732 0.017872063 -0.029270364
-0.00051205483 -0.027724288 -0.044783916 -0.044542864 -0.019089729 -0.010691708 0.020055102 -0.017960941
0.033171266 -0.043341205 -0.012520462 0.012679792 -0.047604315 0.013702295 -0.019207021 -0.007608868
0.0068582944 -0.020348411 -0.0045362045 0.009383651 -0.011310309 0.024834765 0.0034414532 0.017744845
00000000: 67e9 3c3c 0452 1fbd 394e e83b f857 023d
00000010: a745 0ebd 6213 39bd ce80 afbc 9a10 a13c
00000020: ea77 a8bb 7f7b eebc 4708 483c 88aa 543c
00000030: a7af fabc bccd ebbc 3cd7 e63c 0f94 52bd
00000040: 5769 f63b 9168 54bd 7be5 25bd 12dd a93c
00000050: e27b 6dbc 940a c33c e11d f1bc 9981 83bc
00000060: 1345 b8bb 7cd5 d9bc e9a2 e93c a538 e03c
00000070: 9c1d a5bc 002e 993c 440f 59bc 1092 143d
00000080: 0ef8 58bd 6663 83bc be3c 94bc 3270 3e3c
00000090: 4e37 6fbd fb10 773c 6f68 923c 67c8 efbc
000000a0: 6b3b 06ba 0c1e e3bc 576f 37bd 9472 36bd
000000b0: 1062 9cbc 462c 2fbc 994a a43c d322 93bc
000000c0: 98de 073d 8c86 31bd a022 4dbc e7be 4f3c
000000d0: befc 42bd 977f 603c 0b58 9dbc d053 f9bb
000000e0: 8bbb e03b b6b1 a6bc 71a4 94bb e3bd 193c
000000f0: e04e 39bc 4772 cb3c 018a 613b a35d 913c
