CatRecognition2/logs/2025-04-19_19-15-42/model.pt (torch, 462274 bytes, 24 tensors)

encoder.0.0.weight f4 [64, 3, 3, 3]
000000 91 9e a1 3c 76 5e 0b 3e e3 fa 62 3d 5e 8c 34 be
       0.01972893 0.13610253 0.055415045 -0.17631671
000010 ea 9e af 3d 6d dd 2a be 9b cb 5a 3d 31 c6 7c bd
       0.08575232 -0.1668603 0.05341683 -0.061712448
000020 27 11 91 3d af f3 43 be 1d 9b e1 bc c8 75 01 be
       0.0708335 -0.19135927 -0.027539784 -0.12642586
000030 a8 5e 16 3e ec 27 92 bb 8f 65 b4 bd 25 2c 1f 3e
       0.14684546 -0.0044603255 -0.08808433 0.15544184
000040 43 1f b8 bd 14 73 35 be d1 95 ca 3b 83 f6 6a bd
       -0.08990338 -0.1771968 0.0061824103 -0.057364
000050 b1 9e cf 3d 37 9f 05 bd 75 23 d9 3d 65 1c 20 be
       0.1013769 -0.032622542 0.10602466 -0.15635832
000060 e1 01 d3 3d 98 8a 1e be 15 96 08 3e 1e 8a 31 3e
       0.10303093 -0.15482557 0.13338502 0.17337844
000070 57 62 80 3d c7 05 5b 3d 84 b8 19 be 39 e8 08 3e
       0.06268757 0.053472307 -0.15011793 0.13369836
000080 3e 42 a3 3d 05 8b 58 3d f0 c4 b0 bd 6c 20 25 3e
       0.07971619 0.052866954 -0.08631313 0.16125649
000090 ca ba 0d 3e 74 aa 36 3e b2 a6 f0 bc 1d de 02 be
       0.13840786 0.1783846 -0.029376362 -0.12780042
0000a0 aa 93 30 be 32 9c 27 3e a5 b5 07 be ed 6c 1e 3d
       -0.1724383 0.16368178 -0.13252886 0.0386781
0000b0 58 b6 e7 3c b4 4e ec 3d 5d 0d 07 be 2b 03 3e 3d
       0.02828519 0.11538449 -0.13188691 0.04638974
0000c0 e9 5c d3 3d bd cf 90 3a bb 14 eb 3c 76 10 17 3d
       0.103204556 0.0011048239 0.028696408 0.036880933
0000d0 80 18 37 3e 6d 30 b3 3d 3f 43 b9 3d 78 82 96 bd
       0.1788044 0.08749471 0.09046029 -0.07349104
0000e0 c8 fc d3 3d 5a c6 13 3e 4b 37 fa 3d c1 86 0d 3e
       0.103509486 0.14431134 0.122175775 0.13820936
0000f0 21 58 0c 3e 93 df f4 3c 68 08 2a bc 87 97 4d 3e
       0.13705494 0.029891765 -0.010377981 0.20077334
000100 72 d5 21 3e 06 d6 fc 3c ee a1 0b be e7 c5 04 be
       0.15804079 0.030863773 -0.1363599 -0.12966119
000110 02 6a 00 3e a4 9f 5c 3b b1 30 48 3e 7c 81 41 3e
       0.12540439 0.003366449 0.19549824 0.1889705
000120 a5 d1 91 bd f6 3a fd 3d c9 cc 46 bd ad fe f6 bd
       -0.07120065 0.123647615 -0.048535142 -0.12060294
000130 2e 36 fe bd 7a 3d 30 3d 12 74 95 3a b2 dc 5c 3c
       -0.12412678 0.04302738 0.001140239 0.013480352
000140 a4 cd 57 3d 25 18 96 bd 7c 89 f6 bd 9f bb c8 bc
       0.05268635 -0.07328824 -0.12037942 -0.024503527
000150 b7 9e ab 3d d9 a5 bc 3d c7 7a 4b be de c7 c5 3d
       0.08379882 0.092113204 -0.19871055 0.09657262
000160 42 45 40 3c d5 f0 0a be b9 5c 03 3e fb 6f 15 be
       0.011735262 -0.13568433 0.1282834 -0.14593498
000170 24 5e df 3c 53 54 ac bd 43 f6 58 bd 73 c5 b9 3d
       0.02726657 -0.08414521 -0.05296923 0.090708636
000180 b0 04 6c bd 14 7b 9c 3d 1c 94 fb 3c 7d 1e 44 3d
       -0.057621658 0.07640663 0.030710272 0.04788064
000190 cb fa 37 3e 8b b5 3b 3e 5c b7 03 3e 1c df 29 3e
       0.17966764 0.18330972 0.12862915 0.16589016
0001a0 95 e8 f3 bc 2c 5c 03 bd 51 fa 49 3e f4 80 fd 39
       -0.02977399 -0.032070324 0.19724394 0.00048351998
0001b0 88 40 a0 bd 5e e2 0a be 76 2a 1f 3e e1 12 52 3d
       -0.07824808 -0.13562915 0.15543541 0.051287536
0001c0 00 dd aa 3d 87 7d 2f 3e 3a 4c 33 be a0 f1 48 3d
       0.08342934 0.17137729 -0.17509547 0.049058557
0001d0 fa 2a fc bd 74 6d 19 3e 1b 64 0c 3e 78 14 f7 3c
       -0.12312885 0.1498316 0.13710062 0.030161127
0001e0 9e b8 ba bd 7e f0 20 3e 0a 14 48 3c b0 ad 79 bd
       -0.09117244 0.1571674 0.012211809 -0.060956657
0001f0 33 ef 02 3e da 6c e0 3d 0f b1 4e 3e a0 39 39 3e
       0.1278656 0.10958262 0.2018473 0.18088388
000200 66 42 e3 3c 26 f9 31 3e 3c 96 8c 3c 0d 05 e2 bd
       0.027741622 0.17380199 0.017161481 -0.110361196
000210 67 89 1f 3e f6 3b 90 3d 6c 46 c2 bb 11 ac 8a bd
       0.15579759 0.07042687 -0.005928805 -0.067711
000220 66 22 f2 bd 75 cb 83 bd 2d ed 64 3d 3e 8f 0f bd
       -0.11822967 -0.06435291 0.05589025 -0.035048716
000230 07 46 e1 3d ea a7 ec bd ac 2b 22 be 0d 1b b3 bb
       0.10999685 -0.115554646 -0.15836972 -0.005465871
000240 3d f8 09 3e ca 2d fe 3d 9f e8 29 3e 64 91 cf bd
       0.13473602 0.12411077 0.16592644 -0.10135153
000250 63 43 13 be e2 d9 39 be 4e a5 99 3c b5 6b 3a be
       -0.14381175 -0.18149522 0.018755581 -0.1820515
000260 9b 07 b4 bd ed a3 f2 3d e4 ac 30 bc ec ae 6b 3d
       -0.08790513 0.118476726 -0.010783408 0.057539865
000270 07 9a dc 3d 4b ae a7 3d 27 5f 33 3e 3e cf 41 3e
       0.10771566 0.081875406 0.17516766 0.18926713
000280 a9 56 31 be b9 65 a9 3d 9d 7a ba bd d3 bc 14 3e
       -0.17318214 0.08271355 -0.09105418 0.14525156
000290 be 05 94 3d b9 0f 4a 3e 44 5a 26 3e 85 82 f9 bd
       0.07227658 0.1973256 0.16245371 -0.12183098
0002a0 d3 bf 29 be b9 67 d1 3c f8 35 b6 bd d4 fc 01 be
       -0.16577081 0.025562154 -0.088970125 -0.12694103
0002b0 03 69 86 bc 95 25 0d 3e 7a 1d 17 bd 88 87 cf bc
       -0.016407495 0.13783868 -0.036893345 -0.025333181
0002c0 a1 7d bb bc a6 f5 ec 3d c4 b5 f4 3d 30 4e 41 3e
       -0.022887053 0.11570291 0.119487315 0.18877482
0002d0 da f3 71 bd 61 5e 09 be 16 50 30 3e 30 7b df 3c
       -0.059070446 -0.13414909 0.1721805 0.02728042
0002e0 86 b3 ca bc f0 d6 a8 3d 2a fb 11 be 83 7f 03 bb
       -0.024743807 0.08244121 -0.14255968 -0.0020065017
0002f0 ad e2 13 3e 01 e1 a2 bd 9a 78 92 3d 64 28 3d be
       0.14441939 -0.07953072 0.07151909 -0.18472439
000300 07 8f 1e be 63 be 0f be c4 32 0c 3e b0 b7 51 3d
       -0.15484248 -0.1403747 0.1369124 0.05120057
000310 18 13 eb 3d a8 86 99 bd 88 7b f3 bc 25 ef dd 3c
       0.11478251 -0.07496387 -0.02972199 0.027091572
000320 1d 5e 4d 3d df 61 8c bc a3 62 3b 3e f9 21 ca 3c
       0.05013858 -0.017136512 0.18299346 0.024674403
000330 20 07 fa bd c8 47 99 bc a9 cd 1e 3e a8 72 a3 bd
       -0.1220839 -0.018710986 0.1550814 -0.07980853
000340 d2 37 f8 bb cd 4c 08 bc 4f 56 34 be 86 87 14 3e
       -0.0075750137 -0.008319092 -0.17611049 0.14504823
000350 50 ec ca 3d 01 ef 19 3e a7 cb 2a 3d 5d 45 cc 3d
       0.09908354 0.15032579 0.041698124 0.099741675
000360 dc df 3c 3e 01 1c 74 3d 7b 09 fb 3d e2 df 37 3e
       0.1844477 0.05959702 0.12257668 0.17956498
000370 c4 3b 0d 3b 93 a9 ca 3c 30 74 ee bc 1f 44 95 3d
       0.0021550516 0.024739062 -0.029108137 0.07288384
000380 3c a3 23 3e e1 ad 32 bd 0f b7 3d bd 78 ac 8e 3d
       0.15980238 -0.043622855 -0.046317156 0.069664896
000390 ee e4 e7 3d c9 d0 ca 3d 4f 2e 0f 3b 5e d6 a1 bd
       0.11322962 0.09903104 0.002184767 -0.079022154
0003a0 74 55 3c 3e 74 76 a4 3b a9 9a 34 be 6c cb 3f 3e
       0.18391973 0.0050190035 -0.17637123 0.18729943
0003b0 7c 73 56 3d b9 08 39 bc 1f 8d 14 be a8 53 38 be
       0.05235623 -0.011293584 -0.14506958 -0.18000662
0003c0 1c a0 4e bd 0f 1c c9 bc 4f b7 26 3d fe ae 9e 3d
       -0.05044566 -0.024549512 0.04070216 0.07748221
0003d0 0c a7 77 3c 1c fb 67 bd 25 9d b8 3b 19 86 30 3e
       0.015115511 -0.05663596 0.0056339675 0.17238654
0003e0 33 bf 13 bd c4 77 58 bd ec 01 0b be ea 60 d1 3d
       -0.036071014 -0.052848592 -0.13574952 0.10223563
0003f0 33 7c 38 be 8f f5 0a be 6e 90 36 be 5a 5e f2 3d
       -0.18016128 -0.13570236 -0.17828533 0.118344024

encoder.0.0.bias f4 [64]
000000 e7 cf 8e 3d 1f 63 a5 bd cc ff 3e 3e f8 e5 d2 3d
       0.06973248 -0.080755465 0.18652266 0.10297769
000010 c5 79 0e 3e df 75 15 be 01 ac d4 bb 7f 87 0c be
       0.13913639 -0.14595746 -0.006490231 -0.13723563
000020 62 b1 9f bb bd 8e 3f bc ce 68 0b be f9 bd 3f 3d
       -0.0048734406 -0.011691746 -0.13614199 0.04681203
000030 ed 15 34 3c c7 c5 d0 bd 2b 88 df bd 7f a5 2c be
       0.010991556 -0.10193973 -0.10914644 -0.16860007
000040 ee 50 a0 3d f9 e1 08 be e5 67 a8 bc a9 cf 2b 3e
       0.07827936 -0.13367452 -0.020557353 0.16778435
000050 40 e7 e5 3d d9 71 4b 3d b3 d2 05 3d dc a6 00 bc
       0.11225748 0.04966912 0.03267164 -0.007852282
000060 72 cf f5 3b b1 7a 66 3c 1c 1e d4 bd e0 d2 9f 3d
       0.007501536 0.014067338 -0.103573054 0.07803893
000070 44 03 82 3c b7 9c 4d be 4f 6d ce 3d f8 39 1a be
       0.015870698 -0.20079313 0.10079443 -0.15061176
000080 96 fa 15 3e ff 20 fb 3d 4d b8 6b bd d4 1a f3 3b
       0.14646372 0.12262153 -0.05754881 0.0074189696
000090 10 13 fa 3d b5 f3 a2 bd 0c 8f 7e bd cc 05 3c 3d
       0.12210667 -0.0795664 -0.06214814 0.045903966
0000a0 b6 6d 02 bc f9 0b 9d 3a 31 7d da bd 77 59 51 be
       -0.007960727 0.0011981718 -0.106684096 -0.20444284
0000b0 e2 7a db bd 00 29 42 be 14 b2 19 3d a8 2b 3a be
       -0.107167974 -0.18960953 0.037523344 -0.18180716
0000c0 1c 38 04 3b 3d 8c b4 3d 00 8d 2f 3d 58 9d a0 bd
       0.0020175045 0.08815811 0.042859077 -0.07842511
0000d0 ff 12 c0 bd b5 85 7d bd 82 54 62 bc bc 28 08 3e
       -0.09378623 -0.06189509 -0.013814094 0.13296789
0000e0 32 1f c1 3d b4 a2 9b 3d ae 10 80 bd 3e 2b 94 3d
       0.09429778 0.075993925 -0.062531814 0.0723481
0000f0 eb 5c ff bd b8 90 b1 bd dc 35 e1 3c 29 33 99 3d
       -0.124688946 -0.08670181 0.027491502 0.07480461

encoder.0.1.weight f4 [64]
000000 3a b2 7d 3f 4b 07 7d 3f e4 59 7c 3f 3d 71 7b 3f
       0.9910008 0.98839253 0.9857466 0.9821966
000010 30 25 81 3f 6b d8 83 3f ad ed 7a 3f c5 2a 7f 3f
       1.0089474 1.030042 0.98018914 0.99674636
000020 86 15 80 3f 18 2e 85 3f cd a8 7e 3f 8b 7a 81 3f
       1.0006568 1.0404692 0.9947632 1.0115522
000030 b9 02 78 3f 1e 92 7f 3f f2 38 87 3f 0d 83 7d 3f
       0.96879154 0.9983233 1.0564253 0.9902809
000040 e0 35 80 3f 8b 03 83 3f 62 b7 7d 3f 2c 39 81 3f
       1.0016441 1.0235456 0.99107945 1.0095572
000050 ff 26 80 3f 82 b8 7c 3f fd e5 76 3f 25 a0 77 3f
       1.0011901 0.98719037 0.96444684 0.96728736
000060 54 82 79 3f 4c cd 82 3f 7b 19 89 3f b1 c3 7e 3f
       0.9746449 1.0218902 1.0710901 0.9951735
000070 0b 9f 74 3f 30 14 7b 3f 28 9b 85 3f b6 6b 81 3f
       0.9555518 0.9807768 1.0437975 1.0110996
000080 da 2a 82 3f b7 05 80 3f c6 4a 75 3f af 83 80 3f
       1.0169327 1.0001744 0.9581722 1.0040187
000090 a3 e4 7c 3f 4d 70 7a 3f e3 b6 7b 3f 36 c7 7a 3f
       0.9878637 0.9782761 0.9832594 0.9796022
0000a0 ff 09 7e 3f fd 2f 7b 3f 8c bd 7a 3f ba a1 7f 3f
       0.99234 0.981201 0.97945476 0.9985615
0000b0 f2 cf 7b 3f 72 78 7a 3f 9d 24 7b 3f c5 da 77 3f
       0.98364174 0.97840035 0.9810274 0.9681819
0000c0 e8 4b 7f 3f 85 0a 7f 3f 9a 2a 7b 3f b7 33 79 3f
       0.997252 0.99625427 0.9811188 0.97344536
0000d0 a5 06 7e 3f 0e 2d 79 3f 9a e3 78 3f e7 64 7d 3f
       0.9922889 0.97334373 0.9722229 0.9898209
0000e0 79 dc 7a 3f ef 6b 77 3f 6d 37 79 3f 71 ef 80 3f
       0.97992665 0.9664907 0.973502 1.0073072
0000f0 e2 7f 78 3f 6c 8a 7a 3f 74 6b 77 3f 21 51 7e 3f
       0.97070134 0.97867465 0.96648335 0.9934254

encoder.0.1.bias f4 [64]
000000 29 99 fa 3c 36 91 a3 bc 14 29 84 ba 82 dc 51 bd
       0.03059061 -0.019966703 -0.0010083043 -0.051235683
000010 f0 19 0d bd 70 19 7f 3d 59 20 5d 3c 3d 37 b4 bb
       -0.034448564 0.06228012 0.013496482 -0.005499749
000020 98 91 18 bc 72 5c 0e 3c b6 26 d4 bc 5e c6 0d 3d
       -0.009312056 0.008689033 -0.025897365 0.034613006
000030 04 3f fd 3c 91 bc 2c 3c 2a 70 1d 3d 5a 87 5b bd
       0.030913837 0.010543005 0.038437046 -0.05359588
000040 e5 96 89 bd a6 55 5c 3d 06 c5 35 bd 80 11 a9 3c
       -0.06718234 0.05379262 -0.04437735 0.020638227
000050 43 9d 88 3c c9 3e 36 bd 9a b7 e8 bc e7 82 02 3d
       0.01667655 -0.04449347 -0.02840786 0.03186312
000060 0c bd b8 bc 81 bf 09 3d dd d7 06 3d cc fd ec 3c
       -0.022551082 0.033629898 0.032920707 0.028929614
000070 c8 f9 61 bb d9 6f 2c 38 2e 1f c5 3c 5c 76 38 3d
       -0.0034481157 4.1112162e-05 0.02406272 0.04503475
000080 4d 38 73 3d 04 0c 76 3d e9 9d fa 3c 00 93 4e 3d
       0.059379864 0.060070053 0.030592876 0.05043316
000090 56 15 86 bb dd 81 5f bd 46 51 a6 bb e0 b7 21 bc
       -0.004091899 -0.054567207 -0.0050756065 -0.009870499
0000a0 a8 d7 90 bd 4b 60 b8 bc 2c f6 cc 3c ec c8 de 3c
       -0.07072383 -0.022506854 0.025019728 0.027195416
0000b0 12 bf b5 3b 15 54 d2 3c 4c 0d 9c 3c f2 fc c0 bc
       0.005546459 0.025674859 0.01904931 -0.023558114
0000c0 3e 1f 21 3c f4 64 3b 3b 57 f4 0b bd e7 33 86 bc
       0.009834109 0.0028594108 -0.034168568 -0.01638217
0000d0 9c f3 45 bd dc 65 f6 3b 2e da 76 bd 88 5a b4 bc
       -0.048328027 0.007519467 -0.060266666 -0.022015825
0000e0 89 f5 4c bd 76 10 46 bd 9d 07 f2 3c 62 c5 93 bd
       -0.050038848 -0.048355542 0.029544646 -0.07215382
0000f0 03 e6 ad 3c 6f 3e 29 bd e6 9b 8c bc 34 f7 5d bd
       0.021227842 -0.041319307 -0.017164182 -0.05419083

encoder.0.1.running_mean f4 [64]
000000 46 0a 80 bc cd 9f 4b 3e 3d c6 06 3f 10 24 6e 3e
       -0.015629899 0.19885178 0.5264624 0.23255944
000010 fe 21 ef 3e 49 53 37 be d5 c6 0d 3e 63 09 ab bd
       0.4670562 -0.17902865 0.1384538 -0.083514
000020 a6 3f 6e 3e 7e db 61 3b eb f6 43 3d 0c 79 85 3b
       0.23266467 0.0034463103 0.0478429 0.004073268
000030 ca 05 4d bd 0c 1b 97 38 8c bf d0 bd 1d 8d e0 3d
       -0.05005435 7.205279e-05 -0.10192785 0.10964415
000040 92 18 5e 3e 51 a2 a1 bd c9 47 e8 3d eb b0 f5 3d
       0.2168906 -0.078922875 0.11341817 0.11996635
000050 9d ee c8 3d b3 b1 86 3e 42 6c a7 3e cd 2f b0 3d
       0.09811137 0.2630745 0.32699782 0.08602867
000060 e1 e0 a8 3e 44 41 c0 bc 38 aa b3 bd fd 1b d5 bd
       0.3298407 -0.023468621 -0.08772701 -0.10405729
000070 bc 94 c7 bd f3 fd 93 3d 98 5b ed 3d d4 ee c6 bd
       -0.09745166 0.07226171 0.11589736 -0.097135216
000080 a7 79 0d 3e 05 74 aa 3d 13 b1 9a be d8 af 77 bd
       0.13815938 0.0832291 -0.30213222 -0.060470432
000090 4b c9 a2 3e 02 1d a0 3e 4f 8d 03 3e 42 5c 04 3e
       0.317942 0.3127213 0.12846874 0.12925819
0000a0 f1 d8 c8 3e 46 37 fa 3d 3a b6 76 bc c1 9c 93 be
       0.39228013 0.12217574 -0.015058095 -0.2883053
0000b0 08 b4 0c bd 26 5d bf be 73 e7 43 3d 7f ba c4 3c
       -0.03435138 -0.37375754 0.04782815 0.02401471
0000c0 3f 02 f7 bd 72 04 2c 3e 45 53 c6 3e 9a 85 12 3e
       -0.12060975 0.16798571 0.38735405 0.14308777
0000d0 58 44 fc 3d a2 99 22 3e 0a bd c2 3e df 65 55 3e
       0.12317723 0.15878919 0.3803485 0.20839642
0000e0 ee 34 d2 3e 78 ad 99 3e 2d 89 6d be ba d5 84 3e
       0.41056007 0.3001516 -0.2319686 0.2594431
0000f0 d1 60 5e be f8 96 14 3d 7c 79 28 3e 1a 14 db 3e
       -0.2171662 0.036276788 0.16452593 0.42788774

encoder.0.1.running_var f4 [64]
000000 c4 b7 0e 3c 6f 35 a0 3d dd a2 e9 3d 21 09 c0 3c
       0.008710805 0.07822692 0.11408017 0.023441853
000010 46 f6 ec 3d c5 85 a6 3b d1 c1 b7 3c a6 93 d1 3b
       0.115704104 0.0050818645 0.022431286 0.006395775
000020 f6 92 65 3d e6 54 a2 3a df e0 26 3d d3 e0 3a 3b
       0.056048356 0.0012384921 0.040741798 0.0028515353
000030 f8 02 a7 3b ad a6 42 3c 9a 9c 85 3a ab 42 a1 3d
       0.0050967894 0.011880559 0.0010193766 0.07874044
000040 2c 2f bc 3c 37 b8 f9 3b 04 89 a3 3c d1 ee 90 3b
       0.022971712 0.007620837 0.019962795 0.0044230004
000050 0c 95 e9 3a 8d c3 4d 3d 32 e1 b6 3d b6 27 21 3c
       0.0017820909 0.05023532 0.08929671 0.009836128
000060 da 0c d8 3d 94 9f a6 3b fb 88 39 3b 3b b9 06 3d
       0.10549326 0.005084941 0.0028310406 0.032891493
000070 a1 b9 55 3c 31 11 98 3d f7 17 bf 3a c2 80 d7 3b
       0.013044746 0.07425154 0.0014579286 0.0065766284
000080 68 27 c5 3a 5a 53 2c 3b fc e8 7e 3d 7a 43 c2 3b
       0.0015041651 0.0026294799 0.06223391 0.005928454
000090 e3 05 22 3d 57 8b 23 3e 3b 0d 1e 3d b8 94 2b 3c
       0.039556395 0.15971123 0.038586836 0.010472469
0000a0 4c 77 27 3e d7 d9 88 3c 67 69 32 3c bf 7f 25 3c
       0.16354102 0.016705437 0.010889388 0.010101258
0000b0 e3 1c c7 3b e4 3c 0c 3d f9 7d 17 3b 32 e6 2b 3d
       0.0060764416 0.034237757 0.0023115857 0.04196758
0000c0 90 1a 80 3c 4f 86 03 3c 2b d3 f2 3d d1 ea 48 3d
       0.015637666 0.008027627 0.11856683 0.049052063
0000d0 40 54 49 3d 81 9d 4f 3d 4e 0f 1d 3e bd c0 00 3c
       0.049152613 0.050687317 0.1533787 0.007858452
0000e0 e6 f5 d5 3d e9 b1 56 3d 74 e4 e9 3c 39 22 36 3d
       0.10447292 0.052415762 0.028551318 0.04446623
0000f0 9d a7 3b 3c 05 07 8d 3c 69 c8 9e 3c 31 93 fc 3d
       0.011453536 0.017215261 0.019382672 0.12332762

encoder.1.0.weight f4 [64, 64, 3, 3]
000000 6a 48 a4 3c ec 4e 6e 3c e8 98 0a 3b 00 08 09 3d
       0.020054061 0.014545184 0.0021148268 0.033454895
000010 8f f4 d7 3c a5 2b ef 3b c5 af ca bc 32 51 20 bc
       0.026361732 0.007298904 -0.024742017 -0.0097849835
000020 2f b5 01 bc 77 7f 17 3d 29 39 02 bd ae b3 14 3d
       -0.007916733 0.036986794 -0.031792793 0.03630417
000030 f4 57 06 3d dc 4c 25 bd 0e 3e 28 3a fb 77 23 bd
       0.032798722 -0.040356502 0.0006417938 -0.039909344
000040 43 26 2b bb 0d cf 16 3d 1b 09 12 3c b3 2a cf 3c
       -0.0026115335 0.036818553 0.008913304 0.025288915
000050 e0 ef 66 3c d7 80 d1 3c c4 84 d4 bc 41 31 3d bd
       0.014095277 0.025574131 -0.025942214 -0.04618955
000060 30 7e 12 bc 79 fa 37 bd 0b 34 20 bd cc 04 c1 bc
       -0.008941218 -0.044916604 -0.039112132 -0.023561858
000070 31 7f 1d bd 02 b6 89 3c 0d c9 ec 3c e0 92 e7 bc
       -0.038451377 0.01681042 0.028904462 -0.028268278
000080 7d 28 88 bc 4c c8 01 3d cf 54 fe bc 37 7f cf 3a
       -0.016620869 0.03168516 -0.0310463 0.001583076
000090 c4 f8 0d bc 4b 46 ad 3c ba 43 9a bc 67 d8 4a bd
       -0.008665267 0.021151682 -0.018831123 -0.049522784
0000a0 f5 fd 38 bd 0d f8 02 bd 69 a2 2e bc 6e d4 78 3c
       -0.045164067 -0.03197484 -0.010658839 0.015187366
0000b0 1c 3d 84 3c b3 cd ac 3c 3e e4 f5 3b e0 a9 ca bc
       0.01614242 0.021094179 0.007504015 -0.024739206
0000c0 42 3e 09 bd 5a 18 b8 bc 2e 14 0a 3c 0a 74 02 bd
       -0.03350664 -0.02247255 0.008427663 -0.031848945
0000d0 4d 67 00 3c db 3d 1c bc e5 ab e3 3c 08 73 1c bd
       0.007837129 -0.009536232 0.027791927 -0.03819564
0000e0 4c 89 ec 3c 0b d0 3d 3b 50 c6 b2 bc 0d 90 fa 3c
       0.028874062 0.0028963115 -0.021823078 0.030586267
0000f0 08 b9 ad bc 20 05 f5 bc ef ea 6b bc 15 46 e7 bb
       -0.021206394 -0.02990967 -0.014399274 -0.007057915
000100 0c 8e ce bb 53 89 81 3c 0e 54 c8 bc 0d 44 ee bb
       -0.0063035544 0.015812552 -0.024454143 -0.007271296
000110 0d 86 27 bd ab e6 96 3c f0 ba 0d bd e6 2f 75 bc
       -0.040899325 0.018420538 -0.034602106 -0.014965033
000120 30 df cf bc 34 db ab 3c 8a 5f 28 bd 34 b8 0e bd
       -0.025374979 0.020978548 -0.04110674 -0.03484364
000130 8b 82 ff bc f8 2d a7 3c 56 11 1c bd c1 54 ff bc
       -0.031190177 0.020407662 -0.03810247 -0.031168343
000140 d6 e9 1a bc a1 f3 2a 3d 57 59 af bc 02 e7 42 3c
       -0.009455165 0.04173625 -0.021404905 0.011895897
000150 7c 3f c8 3b b4 f9 8c 3b c0 6c c0 bc 7b 5c a4 bc
       0.0061110836 0.004302228 -0.023489356 -0.02006363
000160 a5 6e ab 3c 17 f5 9a bc ed 6c e7 3c 84 74 17 bd
       0.020926783 -0.018915696 0.028250182 -0.036976352
000170 0a 43 17 bb 61 89 22 bd ed 9b ea 3b 11 95 07 3d
       -0.002308073 -0.039681796 0.007159701 0.033101145
000180 c4 f8 e6 3c 9d e2 20 bd e6 f6 bf bc 23 ab a2 3c
       0.028194793 -0.039278615 -0.02343316 0.019856995
000190 9e 3b cb bc bd 9e 1d bd 02 b8 12 3d c1 b9 35 3c
       -0.024808701 -0.038481463 0.035820015 0.01109165
0001a0 ce ae 0c 3d 6c 1b cc 3b 22 ce 1b 3d 0f 0b 28 3d
       0.034346394 0.006228855 0.03803838 0.04102617
0001b0 6d 28 d0 3b af 54 f2 bc 4c f9 00 3d 43 de ba bc
       0.0063524754 -0.029581396 0.031487748 -0.02281106
0001c0 52 c1 70 3c 27 0a 1d bc 59 41 91 3b 61 e3 2e 3d
       0.014694529 -0.00958494 0.004432839 0.042697314
0001d0 07 fb ce 3c 20 e1 a4 bc 2a 5f 0e bd 5d ae d9 bc
       0.025266184 -0.02012688 -0.034758724 -0.0265724
0001e0 79 ea f9 bc eb 3a 30 3b cf 86 cb bc 78 87 54 bb
       -0.030507313 0.0026890587 -0.024844555 -0.0032429378
0001f0 69 c1 f2 bc 0d f1 fb bc bb de 95 3c 66 97 6f bc
       -0.02963324 -0.03075459 0.018294683 -0.014623499
000200 19 41 06 bc 3e bf ef 3c 20 24 06 3b 1e 01 15 3d
       -0.008194231 0.029265996 0.002046831 0.03637802
000210 81 46 1e 3d 9a 4f b6 3c 94 c1 d3 3b 60 c2 5c bc
       0.038641457 0.022254754 0.0064622853 -0.013474077
000220 b4 98 8b bc 4c aa 9f 3c 29 6f a9 bc fa 30 3f bd
       -0.017040588 0.019490384 -0.020682888 -0.046677567
000230 40 70 85 bc 9f 1f 1c bd 81 40 4a bd 0a c3 01 bb
       -0.016288877 -0.038116094 -0.049377922 -0.001980009
000240 21 68 31 bc de 3d 1a 3c 4a 28 df bb 04 bc 29 bd
       -0.010828049 0.009414164 -0.0068102228 -0.04143907
000250 10 60 aa bc 19 1a 29 bd e8 28 b9 bb 27 7a 8a bc
       -0.02079776 -0.041284654 -0.0056506284 -0.01690395
000260 9c bb 09 bd 43 9d c4 bc f6 3e bf bc 25 67 04 3d
       -0.033626184 -0.02400077 -0.023345452 0.03232493
000270 06 9f 0c 3d d0 d1 b2 bc 7b 2b b2 3b 2e 35 66 bc
       0.034331344 -0.021828562 0.005437312 -0.014050765
000280 b1 79 cb bc f9 b4 3e bd c3 13 35 bd 4b 2d 2b bd
       -0.0248383 -0.046559308 -0.0442083 -0.04179124
000290 72 1a 49 bd bf 5a 4a bd 2d b8 8b 3b ef ab 6c bb
       -0.049097486 -0.04940295 0.004263899 -0.0036113223
0002a0 e1 76 be 3a 9e 0a 15 3c 45 fa 26 bd 1e 81 32 3b
       0.0014531278 0.00909677 -0.04076602 0.0027237604
0002b0 60 b9 e8 3c 9a ab 8e 3c de 97 b5 ba ce 94 a6 bc
       0.028408706 0.01741581 -0.0013854464 -0.020334627
0002c0 51 be c7 bc ca d5 c2 3c b8 f3 31 3d 29 d4 c6 bc
       -0.024382742 0.023783583 0.04344532 -0.024271088
0002d0 3e 50 05 bd 02 5e 09 bc 8e 15 c5 3c 6b 6f e9 ba
       -0.032547228 -0.00838423 0.02405813 -0.0017809694
0002e0 ee e9 02 3d 2a 4f ba 3c f1 2e 18 3d 28 72 00 bd
       0.031961374 0.022742826 0.03715414 -0.031358868
0002f0 49 7a df bc fc f9 ec 3c b0 63 b6 3c 4e 4b 1e bd
       -0.02727999 0.028927796 0.022264332 -0.038646035
000300 8a 6f c6 3c 8d 1c 2a 3a b6 27 4d bd bd 7d de bc
       0.024223108 0.000648924 -0.0500867 -0.027159566
000310 9b fb c4 3c ee a8 2c bd 1e 6c 6d bc c6 ce 84 3c
       0.024045756 -0.04215329 -0.014491109 0.016211879
000320 c9 36 c4 3c 78 50 0e bd 82 87 87 3c 39 ac 80 bb
       0.023951905 -0.03474471 0.016544107 -0.0039267805
000330 a9 f3 14 3c 03 e1 a6 3b 1a c6 e7 3c c2 30 e0 bc
       0.009091296 0.0050927415 0.028292704 -0.027367
000340 cf 36 01 bc 6f a2 9c 3c 33 a7 b4 3c 95 69 8a bc
       -0.007886603 0.019120423 0.022052383 -0.016896049
000350 2b f5 de bc 31 3e 89 3b d2 f8 30 bd ea 09 a1 bc
       -0.027216515 0.004188322 -0.043206044 -0.019658048
000360 02 90 b9 bc 3e 90 14 bd aa c3 fa bb 2e 27 aa bc
       -0.022651676 -0.036270373 -0.0076527195 -0.020770635
000370 e1 75 e3 3c 1c ca ce bc 5b ad 79 3c f5 86 d0 bc
       0.02776617 -0.025242858 0.015239085 -0.025454978
000380 20 51 d0 bc 31 16 a2 3c 9b 93 cc bc f4 5a ef bc
       -0.025429308 0.019785972 -0.024972728 -0.029218175
000390 d3 76 0d bd 3f 2c 16 bc c2 06 05 3d 52 9c ca bc
       -0.034537148 -0.0091658225 0.032477148 -0.024732742
0003a0 00 40 1a 3c 30 6a e6 3c cb e8 d1 3c 34 73 ed 3c
       0.009414673 0.028126806 0.0256237 0.028985597
0003b0 32 65 d0 bc 18 68 7e bc 65 7b 33 3c 08 6b 56 bc
       -0.025438879 -0.015527748 0.0109547125 -0.013087042
0003c0 5e 08 84 bc 4d aa 21 3d 87 60 47 3d 43 36 32 bc
       -0.016117271 0.039469052 0.04867604 -0.010877195
0003d0 05 6d 94 3b 57 0e e8 bc d7 d6 88 bc a4 03 eb 3c
       0.0045295977 -0.02832715 -0.016704006 0.02868826
0003e0 87 19 03 3c b4 3e 6f 3c 66 16 39 bc ef 46 1d bd
       0.008001692 0.014602352 -0.011296844 -0.038397726
0003f0 85 48 9c bc b4 38 97 bc 01 15 0e 3d 8a 63 97 bc
       -0.019077549 -0.018459655 0.034688 -0.018480081

encoder.1.0.bias f4 [64]
000000 e7 39 97 3c 68 96 11 3b 6b a5 ab 3c 82 61 eb 3b
       0.018460227 0.0022214893 0.0209529 0.0071832547
000010 c6 00 c7 bc a3 a9 6b 3c b6 a9 a8 bc 9d 30 20 3d
       -0.024292361 0.014383706 -0.020588737 0.03910886
000020 a6 3d 27 3c 92 20 fc bc af 4b fb 3c d5 e8 4c 3b
       0.010207569 -0.03077725 0.030675737 0.0031266708
000030 34 7d cf bc 9f 6e 1a 3c 14 f4 09 3c c4 97 0c bd
       -0.025328256 0.009425788 0.008420009 -0.034324422
000040 f3 02 2b 3d 0a e2 fe bc 3c 29 ef bc 28 ed ad bb
       0.04175086 -0.031113643 -0.029194467 -0.0053078122
000050 e6 73 20 3b c5 f3 00 3d 3f 18 56 3c b0 38 00 3d
       0.0024483143 0.031482477 0.013067304 0.03130406
000060 8b a6 3e 3d 5f b5 f9 bb b0 5f 19 3c e1 65 81 3c
       0.046545547 -0.007620498 0.009361193 0.01579565
000070 f5 56 43 3c 49 59 00 bd 9e 79 39 3d 8d ce 45 bd
       0.011922588 -0.03133515 0.045282 -0.048292685
000080 82 3a bc 3c 00 21 ac 3c 3b 5d f8 bc 08 fe 12 3c
       0.022977117 0.02101183 -0.030317893 0.008971699
000090 2c 71 38 3b c3 d4 e1 bc 41 fa 57 3c 9e 53 9c 3b
       0.0028143628 -0.027567273 0.013182224 0.00477071
0000a0 5b 7e eb 3c 95 bb 10 3d 8b ce 1d 3d a9 3f 3e 3d
       0.028746774 0.035335142 0.038527053 0.04644743
0000b0 7c 11 23 bd 5d 3b 56 3c e5 af 34 3d b1 43 b8 3c
       -0.039811596 0.013075677 0.04411306 0.022493215
0000c0 8a 5a 27 3a 5f 22 09 3d 26 43 65 bc 15 c5 03 3d
       0.0006384036 0.033480044 -0.01399306 0.032170374
0000d0 e2 41 34 bd f6 e9 a6 bc 7d 68 48 bc f7 dd 03 bd
       -0.044008143 -0.020375233 -0.012231943 -0.032194104
0000e0 00 91 05 bd 73 52 34 bb 31 54 3b 3b c7 bb 66 3c
       -0.032608986 -0.0027514964 0.0028584118 0.014082856
0000f0 a3 b8 c9 3a 2f 6e 14 3d 28 fa 0f 3d fa 72 15 bc
       0.0015390109 0.03623789 0.035150677 -0.009121651

encoder.1.1.weight f4 [64]
000000 ec 29 7a 3f 8f 2e 81 3f fc 46 7c 3f ef f2 85 3f
       0.9772022 1.0092334 0.98545814 1.0464762
000010 9c 70 7b 3f 33 42 84 3f 7e 7e 78 3f 2e 0b 82 3f
       0.98218703 1.0332702 0.9706801 1.0159662
000020 d7 ee 81 3f a5 74 7b 3f 67 68 7e 3f 1a 4e 7e 3f
       1.0151013 0.9822486 0.99378055 0.99337924
000030 50 74 7c 3f fe dc 7c 3f 17 00 80 3f 63 dc 80 3f
       0.9861498 0.9877471 1.0000027 1.0067257
000040 fa 7b 7b 3f 63 b3 80 3f ae e2 81 3f cc 39 7d 3f
       0.9823605 1.0054744 1.0147302 0.98916316
000050 61 34 81 3f c4 b8 7c 3f 91 05 7d 3f 72 e0 7a 3f
       1.009411 0.9871943 0.9883662 0.97998726
000060 61 7b 81 3f 7e 7c 81 3f d4 ce 7e 3f e3 9b 85 3f
       1.0115777 1.0116117 0.99534345 1.0438198
000070 1c 5a 7d 3f c6 92 80 3f 10 a8 7e 3f d1 c4 80 3f
       0.9896562 1.0044792 0.99475193 1.0060064
000080 de b0 7b 3f f6 54 7f 3f 56 79 80 3f 86 e2 7b 3f
       0.9831675 0.99739015 1.0037029 0.9839252
000090 49 f3 7a 3f a7 08 82 3f 5f 80 7d 3f 78 5d 82 3f
       0.98027474 1.015889 0.99024004 1.0184774
0000a0 ae db 7a 3f 94 e6 79 3f 66 cd 7b 3f 0d bd 81 3f
       0.97991455 0.9761746 0.9836029 1.0135819
0000b0 de cb 7e 3f 32 a3 78 3f c8 f0 7b 3f 4e a4 83 3f
       0.99529827 0.97124016 0.9841428 1.0284517
0000c0 96 ff 7f 3f 49 c5 7f 3f 04 78 7e 3f b1 4d 7a 3f
       0.9999937 0.9991041 0.9940188 0.977748
0000d0 1a e4 7a 3f c8 2a 82 3f 3c 7d 7c 3f 26 62 7f 3f
       0.98004305 1.0169306 0.9862859 0.9975914
0000e0 4b 90 7e 3f b2 de 7f 3f 48 91 80 3f d2 f5 83 3f
       0.99438924 0.9994918 1.0044336 1.0309393
0000f0 4d a8 7d 3f 4b c0 83 3f e3 a0 81 3f cf 26 7c 3f
       0.9908493 1.0293058 1.0127224 0.9849672

encoder.1.1.bias f4 [64]
000000 77 da ba bc c9 7f c1 3c ad f3 ac bc 4c 06 5f bd
       -0.02280925 0.023620503 -0.021112287 -0.054449365
000010 26 79 d0 bb 3d ad 10 be e2 02 16 bd a0 3e b5 bd
       -0.0063620983 -0.14128585 -0.036623843 -0.088498354
000020 6f 90 94 bd ed 48 4f bc 6d be b4 bc 41 5f 94 bc
       -0.07254111 -0.012651664 -0.022063458 -0.018111827
000030 9e 1d a5 bc 26 da 98 bc 6b d2 9b bd 2c 96 6d bd
       -0.020155724 -0.018658709 -0.076084934 -0.058004543
000040 e2 88 94 bc 55 01 4d 3c d6 71 60 bd 4e f6 97 bd
       -0.018131677 0.012512525 -0.054796062 -0.07420026
000050 b4 60 61 3d 1d 0d 59 bc 5e 64 0f bc 5b 65 2f bd
       0.055023864 -0.013247755 -0.008751957 -0.04282127
000060 95 3a 98 bd 1a a9 05 bc a3 7c 3a bb 18 59 5e bc
       -0.07433049 -0.008157993 -0.0028455637 -0.013571046
000070 09 29 82 bd 2f 6c 65 bd f3 98 86 bc 52 86 f7 3c
       -0.06355483 -0.056011375 -0.016430354 0.030215416
000080 47 75 75 3c 12 72 00 bc 1f 80 b7 bc 87 15 c9 bb
       0.014981574 -0.0078396965 -0.02239996 -0.0061365995
000090 e4 28 68 bd 0c 1e 95 bd c6 6a 17 bc a4 fd 3e bd
       -0.05667962 -0.072811216 -0.009241765 -0.04662861
0000a0 72 6e 90 bc 0f 0a a6 bc 0b b7 9c bc de 09 80 3c
       -0.01763079 -0.020268468 -0.01913025 0.015629705
0000b0 80 41 d6 bc f8 5b 13 bd 79 49 a9 bb e9 d3 d8 bd
       -0.02615428 -0.03597638 -0.0051662293 -0.10587294
0000c0 2d eb ae 3c b8 ca 09 3d ae 58 b6 bc 71 ea 2a bd
       0.021352375 0.033640593 -0.022259083 -0.041727487
0000d0 ed ea 32 bc ee c5 af bd 95 8b 69 bc 1c d8 f9 bc
       -0.0109202685 -0.08582674 -0.01425447 -0.030498557
0000e0 99 f9 b8 bb b9 d9 ae bb 92 e7 4e bd b1 a8 a9 bd
       -0.0056449887 -0.005336013 -0.05051381 -0.082841285
0000f0 7c d5 a6 bc 33 44 28 be 4c ee 84 bd 58 9c 8d bc
       -0.02036547 -0.16432266 -0.06490764 -0.017286465

encoder.1.1.running_mean f4 [64]
000000 6a a9 88 bf 1c de 24 c0 7c 1e 25 c0 49 4b 64 3f
       -1.0676701 -2.5760565 -2.5799856 0.89177376
000010 3a c0 bb bf a5 10 eb 3e 59 9f 18 c0 e8 6f fa 3e
       -1.4668038 0.45911136 -2.3847258 0.48913503
000020 40 70 ec be 16 c9 85 bf 9c dc 03 c0 42 c2 d7 bf
       -0.4617939 -1.0451992 -2.06034 -1.6856158
000030 40 54 d0 bf 22 1d ce 3f d5 17 82 3f 82 49 2f bf
       -1.6275711 1.6102641 1.0163523 -0.6847154
000040 ad 83 f4 bf cc a4 02 c0 55 9c e2 bc 04 c6 8c 3c
       -1.9102684 -2.0413084 -0.027662436 0.017184265
000050 69 67 59 c0 df 25 62 bf 39 0b ac 3f 8e 84 20 3f
       -3.3969367 -0.88339037 1.3440925 0.6270226
000060 06 3a 1a 3e 37 88 ff bf 6f 6a 33 c0 4a 81 24 c0
       0.15061197 -1.9963444 -2.8033712 -2.5703912
000070 fc eb 2a bf 34 a0 e9 3f 10 a0 fd bf c4 ca 0a c0
       -0.66766334 1.8252015 -1.9814472 -2.1686258
000080 c2 aa 39 bf 69 ad c4 bf ae 6b 6b bf 08 8b 26 3f
       -0.7252618 -1.536542 -0.9196118 0.65055895
000090 7d 0f f9 3e 42 6a c9 be 46 78 99 be e6 80 03 c0
       0.4864463 -0.3933888 -0.29974574 -2.0547423
0000a0 18 7e 16 3c 2b 78 ef bf 79 58 a8 bf 11 f1 01 c0
       0.0091853365 -1.8708547 -1.3152 -2.0303385
0000b0 47 32 4e bf 0a 53 72 bf 92 65 9e bf 2c 55 b1 3e
       -0.8054547 -0.9465796 -1.2374747 0.34635293
0000c0 04 c4 1c c0 67 65 fa be 73 e2 5e bc be e3 ac bf
       -2.4494638 -0.4890549 -0.013603794 -1.3507001
0000d0 6a 0d 4b 3f b0 6b ce bd be e4 ea 3f 93 43 04 3e
       0.79317343 -0.100791335 1.8351057 0.12916403
0000e0 b8 d3 3f c0 3d f8 c8 bf e2 cc 67 be b6 e8 17 3c
       -2.9972973 -1.5700756 -0.2263675 0.009271791
0000f0 ae 75 e6 bf 0d a2 0c 3f bd 02 50 3f 5b 7a d0 bf
       -1.8004663 0.5493477 0.8125418 -1.628734

encoder.1.1.running_var f4 [64]
000000 c6 e4 76 40 db 7a a1 40 ad ca cc 40 33 29 09 40
       3.8577132 5.046247 6.3997407 2.1431396
000010 02 d7 9e 40 0a 4c 91 40 65 2f ea 40 f1 f7 97 40
       4.963746 4.540532 7.3182855 4.7490163
000020 e5 93 0e 40 b1 30 2c 40 aa e3 09 41 d1 f8 be 40
       2.2277768 2.690472 8.618082 5.967873
000030 97 a5 9c 40 cc c3 bf 40 4f d9 99 40 06 0f 1c 40
       4.8952136 5.992651 4.807777 2.438417
000040 33 f5 ac 40 49 a9 a9 40 9f 7e 17 40 38 99 01 40
       5.4049315 5.3019147 2.3671033 2.0249767
000050 c5 32 2b 41 d2 99 49 40 20 1a 5e 40 b4 b6 44 40
       10.699895 3.1500134 3.4703445 3.0736513
000060 99 f4 df 3f f6 b1 8e 40 3d e5 21 41 ea ee 29 40
       1.749652 4.4592237 10.118466 2.6552072
000070 e5 7e a6 40 42 23 a6 40 11 8d 16 41 a1 20 63 40
       5.20299 5.191804 9.40944 3.5488665
000080 02 55 03 40 a0 67 91 40 96 8a a1 3f e8 ff a9 3f
       2.0520635 4.5438995 1.2620418 1.3281221
000090 da 74 02 40 15 d7 50 40 c0 7d f4 3f 9e 29 1b 40
       2.038382 3.2631276 1.9100876 2.424415
0000a0 e4 13 4b 3f 2e a1 d3 40 1d 13 8e 40 52 03 cc 40
       0.79327226 6.6134253 4.439833 6.3754053
0000b0 3c 71 be 3f 21 70 c9 3f 83 7e 69 40 5c bb 51 40
       1.4878306 1.5737344 3.6483467 3.2770605
0000c0 fe 57 8c 40 d0 a1 42 3f ae a4 e9 3f 0f be 83 40
       4.385741 0.76028156 1.8253381 4.1169505
0000d0 ca cf 81 40 87 be c2 3f bf a5 a4 40 df 9d 12 40
       4.056615 1.5214394 5.1452327 2.2908857
0000e0 5b 2b 2a 41 dd 1e ab 3f 3b 78 02 40 7b 32 68 40
       10.635585 1.3368794 2.0385883 3.628081
0000f0 eb 07 e5 40 e6 fd c2 40 f9 38 01 40 a0 78 b1 40
       7.1572165 6.0934935 2.0191023 5.5459747

encoder.2.0.weight f4 [64, 64, 3, 3]
000000 46 20 47 bd 47 4e ef bb cc fd 8c bc 10 ae cc bc
       -0.048614763 -0.0073030326 -0.017210864 -0.024985343
000010 12 65 af bc 3c a8 1d bb ff c1 8d bc cf 95 63 3c
       -0.021410499 -0.0024056574 -0.017304419 0.013890698
000020 43 52 21 bd 4e 07 8b 3c 53 e6 26 3d af d9 19 3d
       -0.03938509 0.016971257 0.040746998 0.037561115
000030 f8 2c e2 3c fc 18 14 3b f6 06 93 3c 6f 1c de 3c
       0.027609333 0.00225979 0.017947655 0.027113168
000040 f8 80 b9 3c 1e 64 33 3c fb ff ed 3c d2 f3 75 bc
       0.022644505 0.010949163 0.029052725 -0.015011745
000050 3b fc b7 bc 6d a9 bb 3b 46 cc 00 3d e8 25 0b 3d
       -0.02245914 0.0057269842 0.03144481 0.033971697
000060 53 14 73 3c 00 fa 09 3d 9f 94 31 3d aa df 83 bc
       0.014836389 0.033685684 0.043354627 -0.016097862
000070 8e 9d b2 3c 65 eb fd ba e3 19 84 3c 11 1d af bb
       0.021803644 -0.0019372521 0.016125625 -0.005344041
000080 8e 50 eb 3c 06 34 2d 3d 6c e0 ff ba d0 a1 14 3d
       0.028724935 0.04228594 -0.0019521839 0.03628713
000090 f8 21 26 ba 8e c7 af bc 13 d5 51 3b 58 20 95 bc
       -0.0006337459 -0.02145746 0.0032017871 -0.0182039
0000a0 d7 85 27 3d 9f a8 dc bc c4 c1 78 bc 53 a7 9d 3c
       0.040899124 -0.026935874 -0.015182916 0.019244825
0000b0 f8 26 94 bb dd ea 13 3d 04 63 6a 3d fe a2 d3 3c
       -0.004521247 0.036112655 0.057223335 0.025834557
0000c0 24 fd 8b bc 7b c5 43 3d 74 ad e9 3c ba aa d4 3b
       -0.01708848 0.047795754 0.028525092 0.0064900788
0000d0 65 66 3f 3d 8d 8b 52 bb 2f db e1 b9 b8 2b 0a 3d
       0.04672851 -0.0032126636 -0.0004307865 0.0337331
0000e0 39 ed c9 3b 5d 58 3b 3d be 73 35 bc 00 57 45 bc
       0.0061623123 0.045738567 -0.011074958 -0.012044668
0000f0 83 3e d9 ba a9 47 90 bc ae 35 3a 3b 5e db be bc
       -0.0016574416 -0.017612295 0.0028413343 -0.023297962
000100 53 71 d5 3b 36 ac 5c 3d c8 4d 0c 3d 86 51 25 3d
       0.0065137534 0.05387517 0.034253865 0.04036095
000110 f1 f0 94 3b f5 e9 59 b9 8e b9 d2 3c a5 6c 82 bc
       0.004545324 -0.00020781888 0.025723245 -0.015920946
000120 dd d7 9a 3c 97 18 1f 3d e1 b2 f5 ba 87 da 26 3d
       0.01890176 0.03884181 -0.0018745327 0.040735748
000130 05 72 04 3c 08 78 9b bb 33 17 15 3d f2 73 04 3d
       0.008083825 -0.0047445334 0.036399078 0.032337137
000140 19 2a 44 3c f8 16 5c bd 5f f1 20 bb 99 1f 26 3c
       0.0119729275 -0.053732842 -0.002455793 0.010139369
000150 a2 08 a3 bb 3b 05 cc 3c 29 5d 16 bd f6 30 1f bd
       -0.0049753943 0.024904838 -0.03670994 -0.038865052
000160 01 1f 5e bd ee 1c 45 bd 49 0d 15 bd e6 8b dd 3a
       -0.054228786 -0.048123293 -0.036389623 0.0016902655
000170 6a 9e 3a bd 3e 8b 8f 3c 99 41 e9 bc 0b a1 99 3b
       -0.04556123 0.01752245 -0.028473662 0.0046883873
000180 c5 bc cf 3b ea 36 59 bd 7c 9c 99 bc 4a e9 84 b9
       0.0063396418 -0.053030886 -0.018751375 -0.00025350816
000190 a7 dc dc 3c 69 8a 4d bc 76 d4 2f bc ce 42 79 bb
       0.026960684 -0.012545207 -0.010731807 -0.0038034203
0001a0 ba 7c e4 3c 95 5d f2 3a 71 ba 80 3c 63 39 46 bd
       0.027891506 0.0018491024 0.015713902 -0.048394572
0001b0 59 2e c0 3b 70 b1 04 bd c2 d4 20 bd c9 88 f2 3b
       0.0058649 -0.03239578 -0.0392654 0.00740156
0001c0 6a 7c 93 bc 34 26 e5 bc 5a 4b 9b 3c ad ab 14 bd
       -0.018003661 -0.027972318 0.018956829 -0.036296535
0001d0 d5 e8 d4 bb 16 12 97 3c 3f 74 45 bd 8d 41 76 ba
       -0.0064974823 0.018441241 -0.048206564 -0.0009393923
0001e0 10 d1 40 bd 2d 71 e5 bc 24 1a ac 3a 7b c3 09 3c
       -0.047074378 -0.028008068 0.0013130349 0.008408423
0001f0 bb 76 bf 3c 59 65 25 bd 38 c4 67 bc 8f 54 59 3d
       0.023372045 -0.040379856 -0.014145903 0.053059157
000200 f0 ee 73 3d f6 d5 46 3d 50 f2 5e 3d 1c f3 3c bc
       0.05955404 0.048543893 0.054430306 -0.011532571
000210 c6 bf 9f bc d4 9e 27 bc 14 30 8f bb fb 5b 9e 3b
       -0.019500624 -0.010230739 -0.004369745 0.0048327423
000220 99 57 b8 bc 58 2c 97 3b 23 b3 db 3c f3 eb 18 3d
       -0.022502707 0.0046134405 0.026818817 0.037334394
000230 63 b2 5e 3d 42 17 6d 3a 84 12 7f 3d 6b f4 95 3c
       0.05436934 0.0009044298 0.062273517 0.018305024
000240 87 18 7c bc 66 b5 04 3d 5c dc 0e bc 9e 40 8e 3c
       -0.015386707 0.032399558 -0.00871953 0.017364796
000250 1c 7b 08 3d 75 56 11 bd db 65 84 3b 4f 0c 1d 3c
       0.03332053 -0.035482842 0.0040404624 0.009585454
000260 ff 6f 40 3b 33 40 f9 bb 1c 96 2f bd fb c9 e1 bc
       0.002936363 -0.00760653 -0.042867765 -0.027562132
000270 a9 53 df 3c 8c 39 8f bc 1f a8 13 bd be 8c 7d bc
       0.027261572 -0.017483495 -0.036049005 -0.01547545
000280 3c fd 9c bc 13 35 82 bb 48 e8 79 3b 8e ee d2 3c
       -0.01916372 -0.003973612 0.0038132835 0.025748517
000290 b6 bf 3c bb 40 f2 5c 3c 5b 90 b2 3c 20 54 09 3d
       -0.0028800792 0.013485491 0.02179735 0.033527493
0002a0 54 e4 2c 3d ad f3 5a 3b 93 80 36 3d 06 d1 55 3b
       0.04220994 0.0033409402 0.04455621 0.0032625808
0002b0 1e 77 d1 3b 96 be fe 3b 16 99 f1 3c 04 da 56 3d
       0.0063923737 0.0077741845 0.029491942 0.05245401
0002c0 55 40 b7 3c 67 ca 4e ba 9a a8 b3 bb 65 68 5a 3c
       0.022369543 -0.00078884367 -0.0054827454 0.013330554
0002d0 69 4f d8 bb 7f a3 48 3d 8f 79 e1 3c af eb f8 bc
       -0.0066012633 0.048984047 0.027523784 -0.03038582
0002e0 b9 88 18 ba 49 b9 80 3c 36 f3 1f 3d fc 7b 98 3c
       -0.0005818713 0.01571335 0.039050303 0.018613808
0002f0 9f e3 33 bb b6 89 1e bc db 01 9c bc 11 c7 39 bd
       -0.0027448905 -0.0096763875 -0.019043854 -0.04535586
000300 95 40 45 bd 7b be 44 bd 46 0a bb 3c 30 bd 18 bd
       -0.048157293 -0.04803322 0.022832047 -0.0372898
000310 6e bd 49 bd b6 fb c4 bc f4 8a 41 bd e7 1a 4b bc
       -0.04925292 -0.024045806 -0.047251657 -0.012396551
000320 61 dd 34 bd 91 94 9e bc c5 e2 f8 bb 39 77 d1 3c
       -0.044156436 -0.019357951 -0.0075953924 0.025569545
000330 a6 44 96 bc a7 63 db bc 70 1b f0 bb 10 f3 5a 3c
       -0.018343281 -0.026780916 -0.0073274896 0.013363615
000340 45 ba a9 bc 82 54 00 bd 52 dd 1c 3d be 04 06 3d
       -0.020718703 -0.031330593 0.038297005 0.032719366
000350 8d 2e c4 bc f9 a4 f4 3c c4 4e e6 bc 3f b6 17 3d
       -0.023947978 0.029863821 -0.02811373 0.037039038
000360 49 36 b7 3c 7e bc 4b 3d e5 dc 64 3c 4b 57 90 3c
       0.022364752 0.049740307 0.013968681 0.01761975
000370 57 75 3e 3d b8 73 a7 3c b1 40 be bc bd 69 31 3d
       0.046498623 0.020440921 -0.023224207 0.04331373
000380 24 00 a3 bc 37 65 3b bd b0 81 7d bb 2c f3 44 bd
       -0.019897528 -0.045750823 -0.0038682036 -0.04808347
000390 37 e2 57 bd 47 45 3c 3a a6 38 47 bd 06 08 21 bd
       -0.05270597 0.0007181954 -0.04863801 -0.039314292
0003a0 f8 44 be bc 46 25 c1 bc ce 4d 32 3d ab 28 7c bb
       -0.023226246 -0.023577344 0.04353123 -0.0038476388
0003b0 ea 10 50 3c 6b 26 ac ba 26 68 1b 3d c0 16 94 3c
       0.012699345 -0.0013134008 0.03794112 0.018077254
0003c0 b5 d4 8c 3c 7c 22 30 3b ab 50 e0 3b 5f 4a 9c 3d
       0.01719127 0.0026876023 0.006845554 0.07631373
0003d0 9b 28 9c 3c d1 39 1c 3d e3 6a 51 3d 4b f6 34 3d
       0.019062331 0.038141076 0.051127326 0.044180196
0003e0 e6 1e a3 3d 0f 9b 78 3d 32 92 83 3d 94 15 82 3c
       0.07964878 0.06069475 0.06424369 0.01587943
0003f0 c5 71 08 ba c6 dc 1d 3d 8e 37 d4 3c 39 a2 43 3d
       -0.0005204941 0.038540624 0.025905397 0.04776213

encoder.2.0.bias f4 [64]
000000 76 23 57 3d a9 4d 4d bc 68 ab 01 bd a8 bf e2 ba
       0.052524053 -0.012530723 -0.031657606 -0.001729955
000010 e3 2f f7 3a 21 48 1f 3c 74 5b 2e bc 08 de 4c bd
       0.0018858876 0.009721787 -0.010641921 -0.050016433
000020 68 d4 c4 bc 30 42 6d bc 28 95 0b ba 42 0d 3c bd
       -0.024027064 -0.014481112 -0.0005324655 -0.04591108
000030 39 e2 ee ba 5f 99 a3 3c 71 53 4b 3d 22 79 6d bc
       -0.0018225379 0.019970594 0.049640123 -0.014494212
000040 b5 37 63 3c 56 39 44 bd 38 79 83 bb a6 d4 8b bb
       0.013868262 -0.047906242 -0.004012253 -0.004267293
000050 56 bb 4b bc 85 48 03 3d cd 34 54 bd f2 2d 74 bd
       -0.012434801 0.032051582 -0.051808167 -0.05961413
000060 c9 ba 90 bc 37 af a2 bc 06 52 35 3c 76 cc 01 3d
       -0.017667191 -0.01985894 0.011066919 0.03168913
000070 19 48 d8 bc e7 c3 cd bc 7b 06 4e 3c 82 76 95 bc
       -0.026401566 -0.025117828 0.012574787 -0.018244985
000080 f1 50 e6 bb 0a d7 13 3b 96 40 3f bd 71 08 2f bc
       -0.007028692 0.0022558593 -0.046692453 -0.010683165
000090 1d bb 24 3d 6f ec 28 bd 6f 51 19 3d 39 fc 17 3d
       0.040217508 -0.041241106 0.037431177 0.037105773
0000a0 ba 70 7a bc ad 89 15 3c 57 dd 79 3c 98 33 c7 bc
       -0.015285665 0.009127063 0.015250525 -0.024316594
0000b0 70 8b 76 bc 02 2d 9e bc 3c a9 cd bc d0 7b 93 bc
       -0.015047893 -0.01930857 -0.025105111 -0.018003374
0000c0 4b 6e 68 bc 04 13 a1 3c 13 cd 3c bc 94 27 cd 3b
       -0.014186452 0.019662388 -0.011523503 0.0062608216
0000d0 e1 50 8f bb 43 f8 8c bc 50 75 29 3c 2d 45 54 bd
       -0.004373655 -0.017208224 0.010342911 -0.051823784
0000e0 cd 3f f1 bb ce 9d 07 3c f8 77 96 bc 15 2e 46 bd
       -0.007362342 0.00827737 -0.018367752 -0.04838379
0000f0 97 9a 10 3d cf 22 a1 3c b9 85 70 bd ec 3f d8 3c
       0.03530368 0.019669918 -0.058721278 0.026397668

encoder.2.1.weight f4 [64]
000000 ec 4b 82 3f 05 a7 82 3f a9 0e 8e 3f 7f 00 7e 3f
       1.017942 1.020722 1.1098224 0.99219507
000010 1c 1f 84 3f a6 3e 76 3f 07 37 79 3f 19 fa 79 3f
       1.0321994 0.96189344 0.9734959 0.97647244
000020 9a ad 78 3f 62 d4 7c 3f 96 a0 74 3f 60 f2 74 3f
       0.97139895 0.9876157 0.95557535 0.95682335
000030 57 6b 77 3f 3a 95 79 3f 9f d7 79 3f 06 70 77 3f
       0.9664816 0.97493327 0.97594637 0.9665531
000040 9a 98 78 3f 56 dc 8c 3f cf 90 77 3f 57 02 72 3f
       0.9710785 1.1004741 0.96705335 0.9453482
000050 8d 72 79 3f 75 39 7b 3f ce 1f 78 3f 0d b8 86 3f
       0.97440416 0.9813455 0.9692353 1.0524918
000060 f9 8c 7c 3f 57 7d 88 3f 3c fe 78 3f 71 94 79 3f
       0.9865261 1.0663251 0.9726293 0.9749213
000070 6a 53 87 3f 4e d1 75 3f f9 f2 77 3f c4 f7 7c 3f
       1.0572331 0.960225 0.9685512 0.9881556
000080 75 83 7b 3f 35 31 7b 3f d6 43 86 3f a3 92 8a 3f
       0.9824746 0.9812196 1.0489452 1.0826
000090 94 9d 76 3f 00 91 74 3f 85 5f 79 3f 4d 14 79 3f
       0.96334195 0.9553375 0.97411376 0.972966
0000a0 72 cf 77 3f 19 1d 75 3f b2 de 7b 3f 37 6e 8b 3f
       0.9680091 0.95747524 0.9838668 1.089301
0000b0 57 e2 74 3f 19 69 7b 3f 24 a6 74 3f 84 ae 77 3f
       0.9565787 0.9820724 0.9556601 0.96750665
0000c0 0f 6b 77 3f ae 27 78 3f 50 05 70 3f bc 17 7a 3f
       0.96647733 0.96935546 0.93758106 0.97692466
0000d0 2b b2 76 3f 63 a5 76 3f 27 b5 7b 3f 14 0f 92 3f
       0.9636561 0.9634611 0.9832329 1.1410851
0000e0 15 35 72 3f 48 a9 7c 3f 4a 8f 81 3f 09 b5 8d 3f
       0.94612247 0.986958 1.0121853 1.1070873
0000f0 54 63 74 3f 13 33 7d 3f 19 65 78 3f ff 99 80 3f
       0.9546406 0.9890606 0.9702926 1.0046996

encoder.2.1.bias f4 [64]
000000 d4 53 82 bc 9c d7 5c bd d4 3b eb bd b3 19 6b bc
       -0.015909113 -0.05391656 -0.11486021 -0.014349389
000010 0d e5 47 bd 0f 5f 44 bd ff b9 20 bd 7a f7 e0 bc
       -0.048802424 -0.047942217 -0.03923988 -0.027461756
000020 2b 8b 7f bd 54 87 96 bc e0 f1 2d bd d7 1b 97 bd
       -0.06238858 -0.018375076 -0.042466998 -0.07378357
000030 3e e7 06 bd 6f cc a8 bc 4a 18 28 bd ce 63 14 bd
       -0.032935373 -0.020605294 -0.04103879 -0.036227994
000040 a3 65 30 bd 1e 89 88 bd c2 c7 21 bd f5 9b 3f bd
       -0.04306568 -0.06666778 -0.039497145 -0.04677959
000050 c5 f0 27 bd d0 60 15 bd 6f 54 4e bd e6 63 20 bd
       -0.0410011 -0.03646928 -0.05037349 -0.03915777
000060 cd b7 a1 bd bc 86 b7 bd b3 15 00 bd b6 96 21 bd
       -0.07896385 -0.089612454 -0.031270694 -0.03945037
000070 a3 15 d6 bd 7c 40 25 bd 99 c9 2a bd 08 93 35 bc
       -0.104533456 -0.0403447 -0.041696165 -0.011082418
000080 35 5b 11 bd 08 3f 59 bc 30 77 ac bd 7b c2 f0 bd
       -0.035487372 -0.013259657 -0.08421171 -0.11755844
000090 a3 23 b5 bc da 46 0d bd f5 0a 9c bd ab a5 11 bd
       -0.02211172 -0.034491397 -0.076192774 -0.035558384
0000a0 c5 15 b9 bc d5 31 23 bd ba a5 6b bc 4f f4 f9 bd
       -0.022593388 -0.039842445 -0.014382774 -0.12204801
0000b0 7a 6b 41 bd ec b2 51 3b 23 0d 1a bd a7 aa 13 bd
       -0.04722164 0.0031997515 -0.037610184 -0.03605142
0000c0 8f 4d 42 bd 43 85 54 bd 00 ab 63 bd 4b d7 b6 bc
       -0.047437247 -0.0518849 -0.055583 -0.022319457
0000d0 9d 8f 64 bd 68 0d 5b bd e4 7a 12 bd 57 e4 07 be
       -0.055801023 -0.053479582 -0.03576173 -0.13270698
0000e0 41 c2 b7 bd 0a 38 9d bc ab de b2 bc 89 10 bc bd
       -0.08972598 -0.01919176 -0.021834692 -0.09182841
0000f0 ea f0 f1 bc 69 0f d4 bc fa d5 9b bc 05 75 04 bd
       -0.029533822 -0.025886254 -0.01902293 -0.03233816

encoder.2.1.running_mean f4 [64]
000000 59 05 88 3f 51 0a ee 3f 3d ba 28 40 4f 5e 4c 3f
       1.0626632 1.8596898 2.636367 0.79831403
000010 c6 b7 04 40 88 0e 7c bf 98 db fe bf c1 82 0d 3f
       2.0737166 -0.9845967 -1.9910765 0.5527764
000020 08 e9 db be f2 41 b5 bf f0 3a 92 bf 4b 8b 29 bf
       -0.42951226 -1.416075 -1.1424236 -0.6622817
000030 51 7c e1 bf a4 fc aa bf 2b 62 95 bf 1f 09 c9 bf
       -1.7616063 -1.335835 -1.1670583 -1.5705909
000040 54 25 ed bf 27 24 3a 40 38 64 81 bf 8d cf 80 bf
       -1.8527017 2.9084566 -1.0108709 -1.006334
000050 af bf 29 bf 67 ec ca 3f 98 82 a7 bf 53 19 24 40
       -0.6630811 1.5853394 -1.3086729 2.5640457
000060 a3 de 98 bf a1 c3 e4 3f 7c 56 4d bf 3e e0 4c bf
       -1.1942943 1.7872201 -0.8021009 -0.80029666
000070 ab b4 ea 3f df 56 a6 bf 4b 10 c4 bf 1a ea 08 c0
       1.8336385 -1.2995261 -1.5317472 -2.1392884
000080 ec 99 02 3f ba c1 19 c0 bf 2b c5 3f fc b2 26 40
       0.51016116 -2.4024491 1.5403975 2.6046743
000090 a1 47 db bf a6 e9 00 c0 40 1b f2 bf 6f 7f 96 bf
       -1.7131234 -2.0142608 -1.8914566 -1.175764
0000a0 fd e7 a0 bf c7 30 d7 bf 0d 87 ba bf fa 06 11 40
       -1.2570797 -1.6811761 -1.4572464 2.2660508
0000b0 c7 f2 62 bf 7e a2 ab bf 29 33 a7 bf 0b a2 1b c0
       -0.886517 -1.3408964 -1.3062488 -2.4317653
0000c0 af 4e b8 bf 7d ea 69 be 2c cd aa bf 44 82 9e bf
       -1.4399012 -0.22843356 -1.3343863 -1.2383504
0000d0 26 81 cf bf dc aa 43 bf 22 49 0c 3d 8d 07 45 40
       -1.6211288 -0.76432586 0.034249432 3.0785859
0000e0 0e a0 ec bf c4 e5 eb 3e 11 0d 3d 3f 18 5d 37 40
       -1.8486345 0.46073735 0.7384806 2.865057
0000f0 5a 40 d5 bf 8d f1 79 bf c5 3b 9e bf 20 f9 8f 3f
       -1.6660264 -0.976342 -1.236199 1.1247902

encoder.2.1.running_var f4 [64]
000000 93 84 73 40 02 11 04 40 c6 27 56 40 e9 65 10 40
       3.8049667 2.063538 3.3461776 2.25622
000010 43 4d 57 40 ea f9 70 40 f5 49 61 40 40 9a 40 40
       3.3640907 3.7652535 3.520139 3.0094147
000020 ab d3 8d 3f 75 9c 79 40 e7 85 84 40 be 28 b6 40
       1.1080221 3.9001744 4.1413455 5.6924734
000030 3b 7e 14 41 8a f1 55 40 ef 07 8d 40 82 2f 75 40
       9.280818 3.3428674 4.4072185 3.8310246
000040 cf 79 35 40 49 b9 63 40 1f fd 30 40 00 61 47 40
       2.8355596 3.558184 2.7654493 3.1152954
000050 77 ae 63 40 09 7e 1d 40 0c e6 4e 40 c8 96 52 40
       3.5575235 2.4608176 3.232791 3.290453
000060 cc da 39 40 80 ba 46 40 44 64 ae 40 f4 2f 0c 41
       2.9039793 3.105133 5.4497395 8.761707
000070 45 d1 c6 3f 32 1e c2 40 84 82 fb 40 c8 58 ae 40
       1.5532614 6.066186 7.859682 5.4483376
000080 bf 8b 45 40 e1 a5 c6 40 4e e4 ea 3f ab 17 33 40
       3.0866544 6.207749 1.8350923 2.7983196
000090 ef f5 6d 40 ae 66 bf 40 97 63 eb 3f 33 19 94 40
       3.7181356 5.981284 1.8389767 4.628076
0000a0 c3 06 d2 40 c4 26 d1 40 97 13 9c 40 72 97 85 40
       6.5633254 6.535982 4.8773913 4.174737
0000b0 ff 02 36 40 bb 94 81 40 48 b8 c6 40 be 48 ae 40
       2.8439329 4.0494056 6.2099953 5.4463797
0000c0 28 2c ac 40 1a 5a a8 40 cd 5f 97 40 37 18 9c 40
       5.38039 5.2609987 4.7304444 4.877956
0000d0 f4 77 68 40 36 a4 97 40 8a b8 74 40 68 6a 41 40
       3.6323214 4.7387953 3.8237634 3.0221195
0000e0 96 e5 dc 3f 77 78 4d 3f 06 c9 02 40 f5 76 5b 40
       1.7257564 0.8026194 2.0435195 3.4291356
0000f0 04 06 9e 40 a0 88 61 40 37 0a 95 40 1e 3f 08 3f
       4.9382343 3.523964 4.657497 0.5322131
